myFirstModel.pth (torch, 209771 bytes, 26 tensors)

conv1.weight f4 [12, 3, 5, 5]
000000 d5 c8 18 3e d3 4b 62 be 51 2a 9f be 92 5b ac be
       0.14920361 -0.22099237 -0.31086972 -0.33663613
000010 91 38 56 bd 1f c0 8c 3e 39 75 a3 bd f9 04 f1 bd
       -0.05230004 0.27490327 -0.07981343 -0.117685266
000020 be 1c 86 bd 0a 93 20 be fb 9d 11 be 6c c4 26 be
       -0.06548451 -0.15681091 -0.14220421 -0.16285866
000030 ba d4 12 3e 13 bf 16 be 97 a4 b0 3c 8a 52 f3 bd
       0.14338961 -0.14721327 0.021562858 -0.118809775
000040 8f da d7 3d 00 63 e7 3d c5 b1 2e be b4 63 b2 3d
       0.105397336 0.112981796 -0.17060001 0.08710423
000050 8e 45 b8 3d a6 73 01 3e 24 4b 60 3e ac 29 1e bb
       0.089976415 0.12641773 0.21903664 -0.0024133725
000060 44 28 19 3e 66 a7 88 3e e9 03 43 bd 97 6a 47 bc
       0.14956766 0.26690215 -0.04761115 -0.012171409
000070 c7 1d 03 be 2b cb 4c 3d 36 08 b8 3d fc f2 2f bb
       -0.12804328 0.049998444 0.08985941 -0.002684771
000080 25 61 52 bd 24 ba eb 3d 54 83 a8 3d 0b 4a e3 bd
       -0.051362175 0.11510113 0.08228174 -0.11098107
000090 db fc e8 bd 00 d2 6d 3e 69 9a 9c 3c a6 1f a2 3d
       -0.11376353 0.2322464 0.019116597 0.07916193
0000a0 25 2a 19 be 4e a9 67 3d 37 cf 16 3e 15 12 58 3a
       -0.14957483 0.056557946 0.14727484 0.00082424405
0000b0 45 0f 6e 3e 8c 80 82 be 14 85 9c bd 01 9e 07 3e
       0.23248012 -0.25488698 -0.0764257 0.13243867
0000c0 a0 35 db 3d 96 90 f9 3d 76 95 44 3e 6f 95 7a bc
       0.107035875 0.12185781 0.1919764 -0.015294417
0000d0 aa e6 59 be e2 ab fa bd c0 ec 87 3d 63 b3 4d 3e
       -0.21279398 -0.12239815 0.06636953 0.20087962
0000e0 e4 7d 2d bc e4 c1 a2 3d bb df af bc c2 52 35 bc
       -0.010589097 0.07947138 -0.021468988 -0.011067094
0000f0 f0 10 1d be 3f 21 e7 bd 2c 5d 16 3e 59 00 2c 3d
       -0.15338492 -0.11285638 0.1468398 0.04199252
000100 8f dc 82 bd e8 76 5c be ac 83 96 bd 2e c3 58 3e
       -0.063897245 -0.21529734 -0.07349333 0.21168205
000110 13 d9 c5 bb 9b 37 ab 3d 0b 39 72 be 62 d8 0b bc
       -0.00603784 0.08360215 -0.23654573 -0.008535476
000120 f8 d0 03 3e 6d e2 0f be ed 81 f3 3b 46 bc 51 3c
       0.12872684 -0.14051218 0.00743126 0.012801236
000130 5a 59 ec bd f0 ed 4a be 99 95 33 be 37 17 48 bd
       -0.1154048 -0.19817328 -0.17537536 -0.048850264
000140 6e a5 98 bc f8 8a 15 be 03 da 1e bd f5 28 fe bb
       -0.01863357 -0.14603794 -0.03878213 -0.0077563473
000150 94 1e 45 bd 95 68 94 bd f6 a2 0f be 12 7b 35 be
       -0.048124865 -0.0724651 -0.14027008 -0.17722729
000160 29 f8 19 be 25 5b b6 3c 3f 30 12 be 7f f9 5b bd
       -0.15036072 0.022260258 -0.14276217 -0.053704735
000170 66 26 2f be 90 3b 11 be 88 e3 52 bd b0 84 f9 bd
       -0.17104492 -0.14182878 -0.051486522 -0.12183511
000180 17 e6 a9 3d 52 69 a5 3d 6b 41 c1 bd 72 80 4e bc
       0.08295839 0.08076729 -0.094363056 -0.012603866
000190 93 1d fc bd 7b d0 c3 3d d0 3e d3 bd ad 7c 66 3d
       -0.12310328 0.09561249 -0.10314715 0.056271244
0001a0 2f 07 d5 3d cd bd 79 bd bb 7f 22 3e e8 17 f2 3d
       0.10401761 -0.060972024 0.15869038 0.11820966
0001b0 e7 d6 38 bd f0 68 3d 3e ad e3 49 be e4 03 b8 bd
       -0.04512682 0.18497062 -0.19715758 -0.08985117
0001c0 35 42 5c 3d 06 9c 4b 3d 45 87 83 bd 8f 09 98 bd
       0.053774077 0.049709342 -0.06422285 -0.07423698
0001d0 4a e3 ce bd a0 c4 f3 bd 20 f6 9e bd 8e ae a8 bb
       -0.10101946 -0.119027376 -0.07761788 -0.0051477617
0001e0 6d af 3d bd 99 63 32 bb de 7a fa 3c 7d 83 fe bd
       -0.046309877 -0.002722001 0.030576166 -0.12427423
0001f0 47 0f 04 be a3 2b 83 bb 92 90 76 3e b4 90 43 3e
       -0.12896453 -0.0040030046 0.24078587 0.19098169
000200 a0 25 6b 3e 55 d1 79 3e 40 11 52 3e e4 39 99 3e
       0.22963572 0.2439626 0.20514393 0.2992698
000210 e0 27 5e 3e 84 8a e9 3d c8 45 86 3e cf 11 a0 3c
       0.21694899 0.11403373 0.26225114 0.019539742
000220 fb 4d 4f 3e cd 94 f8 3d 67 45 d4 3d bc 95 48 3e
       0.20244591 0.121377565 0.103648 0.19588369
000230 d3 56 6f bd 9b 2a 1c 3e c0 4f 4f 3d b0 0c aa bd
       -0.05843241 0.15250628 0.050613165 -0.08303201
000240 e2 ed fc 3d d8 89 ac 3b 56 7d bd 3d b2 2b 17 bd
       0.1235006 0.0052654557 0.092524216 -0.036906905
000250 46 b4 5b bd cf cf 14 be f5 84 9b bd 02 15 d8 bb
       -0.05363872 -0.14532398 -0.07593719 -0.006594301
000260 ab c8 be bd f6 74 c0 bd c0 2c 01 be 79 72 95 bd
       -0.09315618 -0.093973085 -0.12614727 -0.072972246
000270 fe c7 fa 3c 45 c3 14 be 8c c8 16 3c f5 d1 c6 bd
       0.030612942 -0.14527614 0.009203088 -0.09708015
000280 d9 ef 48 3e ba 9c 30 3d 7e f9 6a 3d 38 c9 65 3e
       0.19622745 0.043118216 0.05736684 0.2244004
000290 27 c8 15 3e 1f 47 09 3e fd 73 f6 3d a8 3f dd 3c
       0.14627133 0.13406037 0.12033842 0.027007893
0002a0 29 d1 e8 3d 40 61 12 3d 16 9c 55 3e c4 cb 53 3e
       0.11368019 0.035737276 0.20860323 0.20683199
0002b0 99 b9 82 3e 60 ac 23 3e b4 6e 36 3e 87 9e 92 bd
       0.25532225 0.15983725 0.17815667 -0.07159143
0002c0 17 9c 53 3d db 51 7d bd dc c5 df bd 88 39 f2 3d
       0.05166253 -0.06184564 -0.109264106 0.118273795
0002d0 ae ab a0 bd a2 7c b6 bd ba 02 4d be 57 a0 11 3d
       -0.07845245 -0.089104906 -0.20020571 0.035553303
0002e0 9d 1f 9f 3d 27 a5 13 be 9b ca 00 3d 15 b4 2a be
       0.07769702 -0.1441847 0.03144322 -0.16670258
0002f0 31 bb 58 3d 95 a0 13 3e e3 5e 62 be 50 9c 8f be
       0.052912895 0.14416726 -0.22106509 -0.28048944
000300 d1 76 81 be 17 97 43 3d 38 dc 86 bd 70 39 02 be
       -0.25285962 0.047751512 -0.06584972 -0.12717223
000310 cf ab 98 bd 3c 45 75 bc 72 4c 87 3d c1 23 12 3d
       -0.07454645 -0.01497012 0.06606378 0.03567863
000320 2b 35 ce bc 77 d3 0d bc 40 03 ba 3d c4 82 28 3e
       -0.025171837 -0.008656374 0.09082651 0.16456133
000330 7b cc 06 3e 36 65 31 3c b0 cf 43 3d 11 34 6b 3d
       0.1316394 0.010827353 0.047805488 0.0574227
000340 5a d2 77 3c 7f bb 35 3e c3 28 6a bd a2 0b ef 3a
       0.015125835 0.17747305 -0.05716778 0.001823772
000350 24 51 a2 3d 1f f4 51 3e 8f 33 34 3e 07 d6 30 be
       0.079256326 0.20503281 0.17597793 -0.17269145
000360 fd f1 8f be fc 92 3e be b0 c6 f7 3d aa cd 03 3e
       -0.2811431 -0.18610758 0.120984435 0.12871423
000370 e6 98 65 bd 74 9a d1 bd c7 c1 86 3d 5b 48 10 bd
       -0.05605402 -0.10234538 0.06579929 -0.035225254
000380 70 ec 64 3d ab da 36 bd c5 90 0a bc 3c d8 d0 3c
       0.055889547 -0.04464213 -0.008457367 0.025493734
000390 58 32 43 3d f9 59 cc bc dc 16 c0 3d 12 c7 e9 3c
       0.047655433 -0.024945246 0.0937936 0.028537307
0003a0 dc a7 ad 3b 2c cc 59 bc fb 56 15 3d f5 e9 ed bc
       0.0052995514 -0.013293307 0.036459904 -0.029042223
0003b0 29 9f 07 bd 29 d3 8b bd 66 22 48 bd fe 17 38 3c
       -0.03311077 -0.06827385 -0.04886093 0.011236189
0003c0 2f 74 b7 bd b1 24 99 bd 02 13 3f bc 46 f6 eb bd
       -0.08957707 -0.074777015 -0.011662247 -0.11521582
0003d0 2d 40 3c be 10 87 3d be 2c 2c 75 bd 1c 7d 08 3d
       -0.18383856 -0.18508554 -0.05985658 0.03332244
0003e0 96 34 eb 3c 67 ad 08 be 01 d1 e8 bd 27 c9 45 be
       0.028711598 -0.13347398 -0.11367989 -0.19315015
0003f0 fe 6c 38 3d e1 81 b0 bd a9 19 34 bd 17 68 8a bc
       0.045025818 -0.086185224 -0.043969784 -0.016895337

conv1.bias f4 [12]
000000 3e 8b 14 be 32 8d 03 bd a4 8c 59 bd ce bf a8 bc
       -0.14506242 -0.032117076 -0.05311264 -0.020599272
000010 34 09 85 bd 68 6d 1d 3d 2e da 08 be f9 06 61 be
       -0.06495896 0.038434416 -0.13364479 -0.21975316
000020 89 7a 09 be 26 c5 33 3d 79 65 d7 bd 0b ca a3 bd
       -0.1342565 0.043889187 -0.10517401 -0.07997521

bn1.weight f4 [12]
000000 fc 60 15 3f 42 5b fb 3e 1f 8c f4 3e a5 cb 26 3f
       0.5835111 0.49093062 0.47763154 0.65154487
000010 93 68 4c 3f 37 12 6c 3f 53 07 04 3f 14 68 28 3f
       0.7984707 0.92215294 0.51573676 0.6578381
000020 e3 37 30 3f c5 58 b1 3f 32 15 46 3f c0 be 29 3f
       0.68835276 1.3855215 0.7737609 0.66306686

bn1.bias f4 [12]
000000 3a 32 0a bd b4 02 30 3a 5d 7e 98 bd 69 05 a0 bd
       -0.033739306 0.000671427 -0.07445977 -0.07813532
000010 19 3f ac 3e 2c 4b ea 3e 62 26 72 3e dc a7 c9 be
       0.3364189 0.45760477 0.23647454 -0.3938588
000020 e7 7a 9b 3e 9d 7e 29 3f 9c 05 70 3e f9 72 3c 3e
       0.30367205 0.6620882 0.2343964 0.18403234

bn1.running_mean f4 [12]
000000 a5 f3 10 3d 71 b6 0d be b9 b1 b6 3c 6f 21 22 be
       0.035388608 -0.13839127 0.022301542 -0.15833066
000010 e6 65 17 bc 50 ab c9 ba dc 91 a2 3c a4 94 09 3d
       -0.009240603 -0.0015386138 0.019844942 0.03358902
000020 d0 ce b1 b9 59 ef cf bc 09 5e f3 bb 51 fc 6d 3b
       -0.00033914158 -0.025382685 -0.0074269813 0.0036313722

bn1.running_var f4 [12]
000000 4f 39 e5 3d 17 22 81 3e a3 0d 1c 3e 80 6f ae 3e
       0.11192571 0.2522132 0.15239577 0.34069443
000010 a8 f2 6c 3d bd 49 ed 3d 9b 22 68 3e e6 ab 6d 3f
       0.057848603 0.1158633 0.22669451 0.9284042
000020 4d 4d 7e 3d 65 4a bc 3d 40 97 e9 3d ed f1 3d 3e
       0.06208544 0.09193877 0.11405802 0.18549319

conv2.weight f4 [12, 12, 5, 5]
000000 5a e2 aa 3d 9b 91 06 be a0 31 9e 3d cf 9f b3 bc
       0.083439544 -0.13141482 0.07724309 -0.021926789
000010 44 45 06 be 46 5f b0 bd 8c 3a ac bd 5c 41 21 3e
       -0.1311236 -0.08611922 -0.084096044 0.15747589
000020 d6 b6 62 be f6 d6 04 be 53 07 ae 3d b1 9f 0d 3d
       -0.22140059 -0.12972626 0.08497491 0.03457612
000030 73 4d 29 3e 88 01 33 be 2f c7 b0 bd 9b d5 ca 3c
       0.16533451 -0.17481053 -0.08631741 0.024760058
000040 b3 74 e2 bc af df 8b bd ef bb 83 be c4 ac 0c 3c
       -0.027643537 -0.06829774 -0.2572932 0.008586112
000050 34 d0 0b bd 8d 1a a2 bd 9c 15 5c be 46 05 f4 bd
       -0.034134105 -0.079152204 -0.21492618 -0.11915068
000060 d5 21 b2 3c d5 72 ba 3c a1 9e 41 be fc c1 70 be
       0.021744648 0.022759834 -0.18908168 -0.23511499
000070 fa 51 19 be d2 a8 74 bd 53 49 1a be 28 c4 88 be
       -0.14972678 -0.059731312 -0.15067033 -0.26712155
000080 d6 4d a2 be d9 ab 82 be 5a 3e 52 be 3f 8b 84 be
       -0.3170001 -0.25521734 -0.20531598 -0.25887486
000090 cf 57 c6 be 86 fd b4 be 9e 6e 1b be c6 d4 2a be
       -0.38738868 -0.35349673 -0.15178916 -0.16682729
0000a0 93 43 a9 be b1 4d bf be 08 6f c5 be 39 41 73 be
       -0.33059368 -0.3736396 -0.38561273 -0.23755349
0000b0 74 40 e1 bd a1 33 a3 be 6c d1 96 be f0 a0 a1 be
       -0.109986216 -0.31875327 -0.2945665 -0.31568098
0000c0 2b 79 11 be 01 0c 12 bd c1 fc 72 be aa 1c 0b be
       -0.14206378 -0.03565598 -0.2372923 -0.13585153
0000d0 85 b4 95 bd 48 46 04 be e3 70 ab bd a5 29 1d be
       -0.07309822 -0.12917435 -0.08371141 -0.15347917
0000e0 ba 4d bc bd cd 9e 4a be 12 70 fe bd 9e 1b c9 3c
       -0.09194513 -0.1978714 -0.124237195 0.024549302
0000f0 58 c1 89 bc c5 be f3 bc d3 de d4 be 01 f4 f2 bd
       -0.016815826 -0.029754052 -0.4157625 -0.11862946
000100 cf 9e 01 3d fc 26 fe 3c 8c f8 e7 bd 5f 8b 55 be
       0.031645592 0.031024449 -0.113267034 -0.20853947
000110 f1 1c 52 bd cb f9 7b 3d a9 b8 bb 3d dc 10 04 3c
       -0.051297132 0.061517518 0.091660805 0.00806066
000120 19 f7 5c bc a6 bf 24 3e 06 20 82 3d 58 c9 a4 bd
       -0.013486647 0.16088733 0.06353764 -0.08046216
000130 93 1e 34 be 03 e4 ed bd 1c a9 91 be d4 da 5c be
       -0.17589788 -0.116157554 -0.28449333 -0.21567851
000140 55 1b ee bd 72 0d 49 be 1c 75 1a be 4c 8f 80 be
       -0.11626307 -0.19634035 -0.15083736 -0.25109327
000150 c0 a7 70 be 49 bd 3b bd 9b 73 0b be 18 eb f1 bd
       -0.23501492 -0.045834813 -0.13618319 -0.11812419
000160 d3 69 13 be d4 97 ab bd f9 99 23 3a 8c cf e0 bd
       -0.14395837 -0.08378568 0.00062409 -0.109770864
000170 54 16 08 be 6e 01 34 be 42 75 12 bd bc b8 9c bd
       -0.13289768 -0.1757867 -0.035756357 -0.07652423
000180 d3 c6 a4 bd 58 e0 19 be 8b f4 25 be 46 ba 80 bd
       -0.08045735 -0.15026987 -0.16206567 -0.06285529
000190 48 4f 91 3d 73 9c d0 bd 3d db 00 be 58 94 2f bd
       0.070952 -0.1018609 -0.12583633 -0.04286608
0001a0 9a 23 38 3d ea c0 13 3e c5 66 f8 bd ca b2 db bd
       0.044955827 0.1442906 -0.12128977 -0.10727461
0001b0 34 b3 2f 3d c9 5f ad 3d 6f f1 bf 3c d5 c6 39 be
       0.04289551 0.08465535 0.023430554 -0.18142255
0001c0 80 1c af 38 dd ac 77 bd 3f 67 30 bd 34 51 95 bd
       8.349959e-05 -0.06046759 -0.043067213 -0.07290879
0001d0 a1 30 44 bd dd 21 2c 3e 51 17 12 be ab 1f 88 bd
       -0.04789794 0.16809793 -0.14266707 -0.06646665
0001e0 a0 29 4e bc 62 6e 17 3d b0 aa cb 3d 23 a0 3e be
       -0.012583166 0.036970504 0.099446654 -0.18615775
0001f0 f6 1b 70 bd 70 d0 c9 bd b0 be 03 3e bc 92 42 bc
       -0.058620416 -0.098542094 0.1286571 -0.0118758045
000200 b0 a6 8f 3c b3 b5 c6 bd 61 a7 5a bd d7 e1 64 3e
       0.017535537 -0.09702625 -0.05338228 0.22351776
000210 bd 00 b9 bd 9c fa 32 3c 30 fb 37 ba 17 6c 86 3d
       -0.09033344 0.010924008 -0.0007018326 0.06563585
000220 a8 bc 0e 3e c8 a4 c6 be a7 10 21 bb 01 7c 47 3d
       0.13939154 -0.38797593 -0.0024576576 0.048702244
000230 3c 07 94 3d c8 6e 00 3d fd 24 fc be e4 f4 a6 3b
       0.07227942 0.03135565 -0.4924697 0.005095111
000240 7f 12 31 3e 18 ee 02 be b2 33 d1 bd a4 68 fb be
       0.17292212 -0.12786138 -0.10214938 -0.49103272
000250 1e 76 a9 bd c0 2a 85 3d fd 83 71 bc a8 6d fa 3d
       -0.08274482 0.065022945 -0.014740941 0.122279465
000260 2f 6d 05 3e 9c 9a 28 be a9 eb e9 bd 8a c7 ef 3d
       0.13029931 -0.16465229 -0.11421902 0.11707981
000270 0d 22 4c 3e 29 46 4c 3d 9d 98 44 be da 7c 07 be
       0.19934864 0.049871597 -0.19198842 -0.13231221
000280 13 84 59 3e 19 c6 1b 3e 6c c1 48 be d9 bb 4a be
       0.21241789 0.15212287 -0.19605035 -0.1979822
000290 51 33 5b 3d 5c 54 82 3e 36 d8 28 3d d3 9e 99 be
       0.053515736 0.25454986 0.04122182 -0.30003986
0002a0 69 34 81 bd 26 40 31 3e d4 62 d1 3d 63 e2 dc bc
       -0.063088246 0.17309627 0.10223928 -0.026963418
0002b0 1f 51 6c be ba 69 ad bd 74 9b cf bd 05 69 ba bd
       -0.2307782 -0.08467431 -0.10137072 -0.09102062
0002c0 60 d2 81 bd 57 a2 a4 bd 34 55 20 3d 0d 20 8e 3d
       -0.06338954 -0.08038776 0.039143756 0.06939707
0002d0 17 54 62 bd 8d 80 16 bd ef 6c 8b bd 70 9c 94 bd
       -0.055255976 -0.03674369 -0.06807887 -0.072564006
0002e0 da a4 0d bd a9 48 8e bd 38 12 ad bd 59 c2 c7 bd
       -0.034581043 -0.069474526 -0.084507406 -0.09753866
0002f0 21 03 80 bd d0 d3 ca bd 15 6d 13 be 43 fb 32 be
       -0.06250597 -0.09903681 -0.1439708 -0.17478661
000300 60 11 75 bd 75 07 d0 bd f8 7c c3 bd 61 21 57 be
       -0.059831023 -0.10157672 -0.0954532 -0.21008827
000310 7f 1f 5d be 7b d1 c3 bd c5 df e4 bd 92 1f bf bd
       -0.21594046 -0.095614396 -0.11175493 -0.093321934
000320 c7 95 04 3c a3 8e 8d bb f1 e3 0c 3d 8e 72 6b 3c
       0.00809235 -0.004319982 0.03439707 0.014370574
000330 4c fa 2f 3e 66 dc 8d 3c 9a c5 cc 3b 74 36 2a be
       0.17185324 0.017317008 0.006249142 -0.16622335
000340 ce aa 43 bd 5e dc 16 3e d0 f6 a1 3c 56 e3 a1 3b
       -0.047770314 0.14732501 0.01977101 0.0049404306
000350 96 c3 67 be 0f e2 01 be 53 4c 2d 3e 61 74 1c 3d
       -0.22633204 -0.12683891 0.16923647 0.038196925
000360 c1 26 6c 3c 06 f2 85 bd 55 55 95 bd ef 3c cc 3d
       0.0144135365 -0.06540303 -0.072916664 0.0997256
000370 35 e1 98 bd d5 62 28 be 08 4a 82 bd 50 0d 91 bd
       -0.0746483 -0.16443951 -0.063617766 -0.07082617
000380 e0 9a d5 bd aa d8 57 bd c8 dc 42 be 65 ae 7a 3e
       -0.10429931 -0.05269686 -0.19029534 0.24480589
000390 4e fb 11 bd dc 59 41 be 62 ea 60 be f9 13 c3 bd
       -0.035640053 -0.18881935 -0.2196441 -0.09525294
0003a0 b1 13 b6 3e 0c be bc bd c7 ae f3 bd e8 34 37 bd
       0.35561898 -0.09215936 -0.118985705 -0.04472819
0003b0 7e 45 87 3d 7e d7 9c 3e 33 66 7d bd 6c 25 ec bc
       0.066050515 0.30633157 -0.061865043 -0.028826438
0003c0 5e f9 37 3d 28 bb 59 3c 13 07 87 bc f4 77 a9 bb
       0.04491555 0.01328925 -0.016482865 -0.00517177
0003d0 75 1b 35 3d 5c 1b 88 3d 68 d3 e6 bc a6 3f a9 bd
       0.04421564 0.066458434 -0.028176978 -0.08264093
0003e0 e2 3d 8a 3d 48 72 19 3d 20 f2 16 3c aa 3d 0c 3d
       0.067500845 0.037462503 0.009213001 0.034238495
0003f0 77 36 1f be 51 4a f3 bc 5c f0 9e 3d de f3 a3 bd
       -0.1554812 -0.029698523 0.07760689 -0.08005498

conv2.bias f4 [12]
000000 80 0e cf bd 90 65 c7 bc a2 c4 8f 3d de 18 27 be
       -0.101101875 -0.024340421 0.070199266 -0.1631808
000010 c1 08 44 bd e0 0d 0c bd 23 bd 6c bc f2 38 e1 bd
       -0.04785991 -0.03419292 -0.014449391 -0.109971896
000020 aa de fc bd 08 46 34 bd 0c 3f 16 be 31 9a b9 bd
       -0.12347157 -0.0440121 -0.14672488 -0.09062613

bn2.weight f4 [12]
000000 10 91 54 3f 65 81 48 3f a9 fb 3c 3f ab fd 50 3f
       0.8303385 0.7832244 0.738215 0.81637067
000010 ff 2d 42 3f 0b 20 50 3f 98 43 66 3f 7b 60 76 3f
       0.75851434 0.81298894 0.8994689 0.9624097
000020 48 88 47 3f a0 62 24 3f 42 d8 7d 3f fb 49 58 3f
       0.77942324 0.6421299 0.9915811 0.84487885

bn2.bias f4 [12]
000000 65 7f 34 be d5 9c 68 be 1e 93 e1 bd ba e9 b9 be
       -0.17626722 -0.22716077 -0.110143885 -0.36311132
000010 bc 4a 90 bd 89 b7 74 be f8 40 82 bd 15 16 8a be
       -0.070455045 -0.23898138 -0.06360048 -0.26969972
000020 aa 29 c3 be 02 00 99 be 44 3f 8f be 68 0d 37 be
       -0.38117725 -0.29882818 -0.27977955 -0.17876208

bn2.running_mean f4 [12]
000000 68 6c 06 c0 29 5e da bf 1f 58 b9 bf a3 d7 76 bf
       -2.1003666 -1.7059985 -1.4480017 -0.96422786
000010 58 51 2e be 44 a5 3b bf d7 6c 00 bf 00 3a cc be
       -0.17023218 -0.7329905 -0.50166076 -0.39888
000020 75 4d 5e bf 19 9d 4a bf 05 c9 09 bf 06 ed 68 bf
       -0.8683694 -0.7914596 -0.53822356 -0.9098667

bn2.running_var f4 [12]
000000 ba ef ca 40 40 39 d1 40 c0 c1 ad 40 51 a9 7b 40
       6.3417635 6.5382385 5.429901 3.9322093
000010 cc 28 a0 40 0c 68 40 40 93 a1 04 41 d4 10 9a 40
       5.00498 3.0063505 8.289447 4.814554
000020 e0 a0 1f 40 58 a1 25 40 c1 8b af 40 2e 4f 3f 40
       2.494194 2.5879726 5.48581 2.9892077

conv4.weight f4 [24, 12, 5, 5]
000000 16 9e 22 be c8 77 f1 bd 8e 3e 5d be 47 41 5f bd
       -0.15880617 -0.117904246 -0.21605894 -0.054505613
000010 3e df c1 bd 7f e2 71 3d 1b e1 0a 3d 0d bb 10 bd
       -0.09466408 0.059053894 0.033906084 -0.035334636
000020 69 50 c1 3d 1a 44 ac 3d 04 25 7f 3d 78 94 55 bc
       0.09439165 0.08411427 0.06229116 -0.013035886
000030 80 af 1f be e9 95 4b be 29 e9 91 3c 63 bb ae bd
       -0.15594292 -0.19881405 0.017811375 -0.08531835
000040 0b 73 bd be 8f ce e1 be cb f9 a6 be 91 03 73 be
       -0.37001833 -0.44102904 -0.32612452 -0.23731829
000050 94 cf b5 bd d0 2a 60 bd 39 9c 9c bc 16 5d 47 bd
       -0.08877483 -0.05472833 -0.019117462 -0.048672758
000060 27 f5 b8 3b e6 1a 8a 3d ef 39 f3 3c 19 59 a0 3c
       0.005644459 0.06743412 0.02969071 0.019573735
000070 f2 47 09 3e 85 d6 e8 3d 62 07 e9 bd 6d f3 d0 bc
       0.13406351 0.11369041 -0.11378361 -0.0255067
000080 0f 76 c4 3d c0 ee de 3d 34 68 ed bb c5 88 3c bd
       0.095928304 0.10885382 -0.007245088 -0.04602887
000090 4f 1e 18 3e 92 b2 dd 3d 24 10 95 3d f1 f1 37 be
       0.14855312 0.10825075 0.07278469 -0.17963387
0000a0 ed 3d 1d 3e af 50 27 3e eb 5d c3 3d 2a 5f 82 3c
       0.15355654 0.16339372 0.09539398 0.015914518
0000b0 85 8a 5a be 4b e7 19 bd 95 ea 56 be 24 41 04 be
       -0.21341904 -0.037574094 -0.20987923 -0.12915474
0000c0 44 b3 31 bd d9 4f 57 be 70 6c 0d be eb 9e e9 bd
       -0.04338385 -0.21026553 -0.13810897 -0.11407264
0000d0 e2 1d 6a bd 55 a8 12 3e 12 de f7 3d 03 f5 10 be
       -0.057157405 0.14322026 0.121029034 -0.14155965
0000e0 02 9e 03 bd 08 49 87 3d 76 dc 0f 3e 3c 30 ae 3d
       -0.03213311 0.066057265 0.14048943 0.08505294
0000f0 c6 f7 32 3d 24 95 13 3e 33 a5 2e 3e 34 0f 54 3e
       0.043693326 0.14412361 0.17055206 0.20708925
000100 d7 3e 09 3e e1 e2 fc 3d 94 2a 96 bd 50 97 a5 bd
       0.13402878 0.12347961 -0.0733234 -0.08085501
000110 11 7c d3 3d 88 68 01 3e 28 be fc 3b 05 bc f8 bd
       0.10326398 0.12637532 0.007713098 -0.12145237
000120 b9 43 a2 bd 47 b3 e2 3d c5 f9 21 bc ae 1c fa 3c
       -0.07923073 0.11069351 -0.00988621 0.030531254
000130 f9 7c e7 bc 6a 13 96 3d af cd ff bc 32 ad 9e be
       -0.028257834 0.07327922 -0.031226007 -0.30991513
000140 e3 89 42 3d 1d d6 90 bc 10 85 e9 37 5a 6f 91 bd
       0.04749478 -0.017680222 2.7837727e-05 -0.07101317
000150 d5 ac 1a be 8c 56 cf 3d 96 ee e0 bd 69 90 06 be
       -0.15104993 0.101239294 -0.10983007 -0.13141026
000160 b9 18 e6 bd ae 51 fa b9 e0 c7 83 3d 28 67 86 3c
       -0.11235184 -0.00047744572 0.064346075 0.01640661
000170 cf 68 af bc 5e b3 36 3d 3b ef 09 bd c8 8c 31 bd
       -0.021412281 0.04460465 -0.033675414 -0.04334715
000180 0d 3a b6 3c 0b df 7e 3d d6 ac a5 3c 4f 09 99 bb
       0.022244478 0.06222443 0.020224016 -0.004670299
000190 f5 c6 dd bb ca d3 ef 3c 32 4f 94 3c 89 93 ae 3d
       -0.0067681023 0.029275794 0.01810417 0.08524234
0001a0 7b cd d9 3d ba 68 a9 3d b0 44 01 3e 17 f5 89 3e
       0.106348954 0.08271928 0.12623858 0.269448
0001b0 24 6e a7 3e 16 7d 9a 3e b2 63 c2 bd a2 8f 6e bd
       0.32701218 0.30173558 -0.094916716 -0.058242448
0001c0 cd ff 22 3d 12 a7 39 3e 8e a5 58 3e cd 78 30 be
       0.039794732 0.18130139 0.21156904 -0.17233582
0001d0 84 81 31 be 72 01 03 be a7 3a 39 bd cd 85 68 3d
       -0.17334563 -0.1279352 -0.04522195 0.056768227
0001e0 35 10 34 bd 27 1f 6d be 51 7c b4 be f3 f9 78 be
       -0.04396077 -0.23156415 -0.35251096 -0.24314098
0001f0 4e 1f 8b be a0 01 e1 3c 40 12 e9 bc e0 0c 56 3a
       -0.2717232 0.027466595 -0.028451085 0.00081653707
000200 e5 ec 8c 3d bf 75 59 3c e8 04 02 be 79 08 4c bd
       0.068811215 0.013272702 -0.12697184 -0.049812768
000210 6d 52 18 3e 9b d0 d9 3d 7f e4 64 bd 67 c9 cc bd
       0.14875193 0.106354915 -0.055881973 -0.09999352
000220 c4 50 57 3c b7 47 4e 3e 40 77 2f 3d 13 18 18 be
       0.013141815 0.20144545 0.042838335 -0.14852934
000230 4e c8 f1 3c 2f 63 fb 3d 38 96 a6 3d 1c ae 9c 3d
       0.029514458 0.12274777 0.08134121 0.07650396
000240 c6 1b 5b be 29 be a2 3d 2d 19 c9 bd 66 0e 82 be
       -0.21397313 0.079464264 -0.09819255 -0.2540161
000250 a9 92 75 be bb 54 9d bd 95 8c b7 3d c2 6b 88 bb
       -0.23981728 -0.07682177 0.08962361 -0.0041632364
000260 3f 93 e5 bc 4d 83 38 bd 69 1c c1 3c 94 2b 3d 3e
       -0.028024314 -0.045047093 0.023573117 0.18473655
000270 e7 34 df bc db bd 51 3c 76 5c 8d bd 9d 66 1a 3e
       -0.027246905 0.012801613 -0.06902401 0.15078206
000280 5a 5c 10 3e 03 e0 c1 bd 09 b3 2e be 1a 52 d5 bd
       0.1409773 -0.09466555 -0.17060484 -0.1041605
000290 05 04 35 3d 5b ab 9b bd 6b fa 8b be a5 09 15 bf
       0.044193286 -0.07601043 -0.2733949 -0.5821784
0002a0 d6 22 f4 be 98 05 58 be 92 25 88 be 5e 38 63 be
       -0.47682828 -0.21095884 -0.26591164 -0.22189471
0002b0 fc 54 ae be 09 f8 92 be a4 e4 1d be 62 a0 7e 3d
       -0.34049213 -0.2870486 -0.1541925 0.06216467
0002c0 56 28 00 3e a3 16 e4 bc 8e 5b 0d bd a5 94 fb bb
       0.12515387 -0.027842825 -0.03451114 -0.007677632
0002d0 7a 21 d2 3d 79 d8 2e 3d ff c7 29 3d 1d 52 07 bc
       0.102602914 0.042686913 0.041450497 -0.008259323
0002e0 74 32 ac bb b4 bd 57 3d 7d 80 b3 3d 50 15 be 3d
       -0.005255038 0.05267115 0.087647416 0.09281409
0002f0 26 7f a4 3d fc ca bc bd e7 41 e1 bd e7 07 0e be
       0.08032064 -0.09218404 -0.10998898 -0.13870202
000300 3b 9a aa 3b 43 bd fc bd db 8e 02 be 33 fc a8 be
       0.005206374 -0.12340786 -0.12749808 -0.33004913
000310 14 f6 4e be b3 37 6d be 03 1d 09 be da 4c f1 bd
       -0.20211059 -0.23165779 -0.13389973 -0.117822364
000320 7a 1c c1 3d d1 f7 85 3d 51 85 9c 3d 94 37 be 3d
       0.094292596 0.06541408 0.076426156 0.092879444
000330 e0 27 fc 3d 3f d5 9c 3d 40 53 1a 3e c1 00 f6 3d
       0.12312293 0.07657861 0.1507082 0.120118625
000340 05 c9 fc 3d 34 76 de 3c f9 01 9b bd 71 d8 42 bc
       0.12343029 0.027155973 -0.07568736 -0.011892424
000350 6f ef 00 be 84 dd ef bd 5a b7 91 be 5b 1f 99 be
       -0.12591337 -0.117121726 -0.284602 -0.29906735
000360 70 6e f9 be d4 25 10 bf 1a b8 03 bf d9 0c b0 be
       -0.4871707 -0.5630772 -0.5145279 -0.34384802
000370 4f 66 d1 be 35 ae e8 be c0 0a af be f3 da be be
       -0.40898368 -0.4544541 -0.3418789 -0.3727642
000380 f6 ba be be d0 c6 80 3e 49 a7 e3 3d 74 6b 2a 3b
       -0.37252015 0.25151682 0.111158915 0.0026003988
000390 25 f1 dc bd 55 1c 4c be 62 31 29 3a c1 ab 9a bd
       -0.10788182 -0.19932683 0.0006454197 -0.07552291
0003a0 33 09 90 bd 1c 88 ee bd ec 9b 70 be c6 4a 0e be
       -0.070330046 -0.116470546 -0.2349698 -0.13895711
0003b0 5c d7 f7 bd e2 2e 8f bb f0 15 0e bd 48 ad 94 be
       -0.121016234 -0.0043696025 -0.03468889 -0.29038453
0003c0 18 72 ca bd 0c 28 0d 3d d2 4a d5 3d b5 5f c7 3d
       -0.09885043 0.03446202 0.104146615 0.097350515
0003d0 f6 67 4a bd e1 5f 4b be a6 9c 76 be 04 c3 8e be
       -0.04941555 -0.19860794 -0.24083194 -0.2788316
0003e0 8a b7 4c be 11 7d 2a be 09 94 57 3d a8 b4 bf bc
       -0.1999189 -0.16649272 0.05263141 -0.023401573
0003f0 72 3d 3a bd 9e 32 bf bb 4c 07 28 3e 6b e4 1d 3e
       -0.045468755 -0.0058348915 0.16409034 0.15419166

conv4.bias f4 [24]
000000 d9 a4 8a 3b cb 94 e4 bc 78 7c 60 3e 64 f1 02 3c
       0.004231077 -0.027902981 0.21922481 0.007992122
000010 f6 31 a8 bd 35 09 7d bd bd 39 ac 3d 88 25 8a 3c
       -0.08212654 -0.06177636 0.0840945 0.0168636
000020 be 2b d0 bd 99 32 0c 3e c6 da 05 be df c6 f3 bc
       -0.10164593 0.13691176 -0.13071737 -0.029757915
000030 58 44 4b bd 63 ed e6 bd 80 a7 4e 3c aa 27 49 be
       -0.049625725 -0.11275747 0.012613177 -0.19644037
000040 c1 f9 53 3c f7 77 20 3d a0 99 26 bd 35 cb 9a 3d
       0.012937964 0.039176907 -0.040673852 0.0755829
000050 4e 35 04 3d 03 72 dc bc 42 79 c2 bd f2 7f b6 bd
       0.032277398 -0.026909834 -0.09495784 -0.089111224

bn4.weight f4 [24]
000000 33 d4 81 3f ec 27 64 3f 0d 48 4a 3f ff 8d 3a 3f
       1.0142883 0.89123416 0.7901619 0.7287292
000010 64 a1 68 3f cf 48 65 3f 67 c1 5d 3f 60 4b 57 3f
       0.9087126 0.8956422 0.86623234 0.8409939
000020 a9 ba 45 3f 9d 21 4b 3f 9e b9 7c 3f ce 4a 33 3f
       0.77237946 0.79348165 0.9872073 0.7003602
000030 a6 7b 47 3f c3 5c 3c 3f 47 73 45 3f 80 45 4a 3f
       0.7792305 0.73579043 0.77129024 0.790123
000040 a4 ee 1b 3f d5 5b 3c 3f ed 3b 72 3f ec c7 4e 3f
       0.6091101 0.73577625 0.9462269 0.80773807
000050 2d ae 32 3f 26 43 48 3f a7 b0 43 3f d2 92 33 3f
       0.6979702 0.7822746 0.76441425 0.70145905

bn4.bias f4 [24]
000000 74 99 2e be 86 04 d8 bd e0 c9 1c 3d b4 4b 27 3c
       -0.17050725 -0.10547738 0.03827846 0.01021092
000010 9b f0 c5 bd e3 7c 81 bd cd 08 2e bd e9 07 c6 bd
       -0.096650325 -0.063226484 -0.04248886 -0.096694775
000020 58 ea e5 bd d5 b7 4c 3d 34 a2 a4 be 25 13 f6 bd
       -0.11226338 0.049980003 -0.32155 -0.1201537
000030 d3 1f 35 be f0 55 d8 bd 4c b7 0d be 8d 62 76 be
       -0.17687921 -0.10563266 -0.13839453 -0.24061032
000040 a3 b3 61 bd f3 70 8f bd d3 cf 12 be 05 6f fb 3c
       -0.055102956 -0.07003965 -0.14337091 0.030692587
000050 5c 3e fa bd f2 48 c7 3b cb cc 08 be 53 dc 4e be
       -0.12218925 0.006081694 -0.13359372 -0.20201235

bn4.running_mean f4 [24]
000000 ee 3f 15 c0 9d db 2b c0 6a da 8e bb 78 51 76 bf
       -2.332027 -2.6852791 -0.004359533 -0.9621806
000010 68 56 fa bf a1 cc 61 c0 a7 77 da 3e e6 23 3a 3e
       -1.9557619 -3.5281146 0.42669412 0.18177757
000020 23 92 5b c0 fb 64 a6 be ce 00 ac be a6 49 73 3c
       -3.4307945 -0.32498917 -0.33594364 0.014849102
000030 31 d2 c1 3f 37 16 77 3e 15 56 ca be fd 85 27 bf
       1.514227 0.24129568 -0.395188 -0.65438825
000040 f8 c4 77 be 0a d7 c7 3e ec a1 e1 be 70 a0 2f 3e
       -0.24196231 0.3903125 -0.4406885 0.17151046
000050 bd e4 5d 3f 6c 4f 11 c0 21 5f f7 bf ec f4 75 3e
       0.8667715 -2.2704725 -1.9325906 0.24019212

bn4.running_var f4 [24]
000000 87 9e 3f 40 73 88 18 40 9c d0 25 40 5d b2 33 40
       2.9940507 2.3833282 2.5908575 2.8077614
000010 ad 2d 37 40 13 7f 81 40 a9 b0 1f 40 ff 6e d2 3f
       2.8621628 4.046762 2.4951575 1.6440123
000020 7d 89 7b 40 e5 ce 0f 40 ee d3 fd 3f 2c 6f 3a 40
       3.9302666 2.2470028 1.9830301 2.9130354
000030 75 eb 2a 40 1a 8c 07 40 dd 1b 29 40 b2 37 17 40
       2.6706212 2.1179261 2.6423256 2.3627744
000040 1c 0b 06 40 10 8f 01 40 be 78 0a 40 89 19 12 40
       2.094428 2.0243568 2.1636195 2.2828085
000050 27 0c 38 40 18 95 65 40 f4 65 38 40 08 b1 1f 40
       2.8757417 3.587225 2.8812227 2.4951801

conv5.weight f4 [24, 24, 5, 5]
000000 fe 08 b1 bd 47 db ba bd e7 20 3a be 4b 5d 6b be
       -0.08644293 -0.09123855 -0.18176614 -0.22984807
000010 58 09 0d 3e 81 d6 14 3c 3d bd 1b 3d b4 6d e5 bd
       0.13773096 0.009084345 0.03802227 -0.11202565
000020 ef 7c 65 be fb 61 81 3e 76 ed ab 3d cb 21 c8 bd
       -0.2241094 0.25270066 0.083949015 -0.097720705
000030 cf 31 15 be bc 36 b3 be 46 d4 a1 bb e6 b4 c9 3c
       -0.14569782 -0.35002697 -0.004938635 0.024622392
000040 cd 05 0f bd eb 8f 31 be a1 d8 1f be 42 56 90 bd
       -0.03491764 -0.17340057 -0.15609981 -0.07047702
000050 5a 6c 8e 3d 6c ef b0 3d f3 46 f9 bd 01 dc 3c be
       0.0695426 0.08639416 -0.121717356 -0.184433
000060 df f0 a6 bd 3f c2 7e be 69 cb e4 bd 57 30 43 be
       -0.08151411 -0.24878787 -0.1117161 -0.19061409
000070 3d 15 93 bd e5 de 04 be 0b c3 e6 bd e4 9e 28 bd
       -0.07181785 -0.12975653 -0.1126767 -0.041167155
000080 be d6 48 be 99 c8 cf bd 83 aa 25 be 88 04 b7 bc
       -0.19613168 -0.10145683 -0.16178326 -0.022341028
000090 b2 ad 15 be 7d 06 24 be 1c 34 92 3c 05 b9 ac bd
       -0.14617041 -0.160181 0.017847113 -0.08433727
0000a0 87 9d b7 bc a0 39 d0 bd 96 97 28 bd 2f 68 26 3c
       -0.022413982 -0.10167241 -0.04116019 0.010156675
0000b0 48 d8 a6 3d 0c 34 ea bc 55 ce da bd f6 19 0d be
       0.08146721 -0.028589271 -0.10683886 -0.13779435
0000c0 3e 4e 40 3c c3 62 c3 bc 64 07 a6 3c f6 9a 3d 3e
       0.011737404 -0.023850804 0.020267196 0.18516144
0000d0 ee d0 a8 3d b7 73 c3 3d 60 57 e0 3d 90 86 c0 3d
       0.08242975 0.09543555 0.109541655 0.09400666
0000e0 d0 39 af 3d 9c 6b d1 3c b0 ec 26 bd 46 46 86 be
       0.08555949 0.025564007 -0.040753067 -0.2622549
0000f0 fe f8 8a 3d 1b 6b 1a 3d 9c 1c 31 be da ee 34 bd
       0.06785773 0.0376998 -0.1729607 -0.0441731
000100 9a 2a 01 be ec b4 fe 3d 65 ca a1 3d 06 a7 02 3d
       -0.12613907 0.12436852 0.07899932 0.031897567
000110 56 fb 54 bd 8a e1 b3 bc 68 dd 01 bd a8 70 d4 3d
       -0.051997505 -0.021958131 -0.03170529 0.1037305
000120 7e 48 3b 3e 6b 61 00 3e 33 5c 80 3d 7c d6 f9 bd
       0.18289372 0.12537162 0.062675856 -0.12199113
000130 1d b8 90 bc 66 7a af 3b 8c 36 f4 bd 35 6c ef 3c
       -0.017665917 0.005355167 -0.119244665 0.029226402
000140 74 e0 49 be 50 d0 93 bd 67 ea 9d bc 7d dc 2d bd
       -0.19714528 -0.07217467 -0.01927681 -0.042446602
000150 d1 f2 1d 3e 98 f9 17 3d ae f2 ae 3d 16 05 45 3d
       0.15424658 0.037103266 0.08542381 0.048100553
000160 92 fd b5 bd 92 a7 23 3e c1 98 13 3e 84 4f c9 3d
       -0.08886255 0.15981892 0.1441374 0.098296195
000170 2a 16 e0 3c f8 68 d0 bd 35 6c 0b 3e c0 8d 4b 3d
       0.027354319 -0.10176271 0.13615496 0.04969573
000180 9b a1 49 bd 10 e9 8e bc 60 0e 06 be 14 f5 ba bc
       -0.049226385 -0.017445117 -0.13091421 -0.02282194
000190 95 d7 10 3e 96 62 89 3d 1e e0 89 3d 2e fe 18 3d
       0.14144738 0.06708257 0.067322 0.03735178
0001a0 19 f6 ba 3d d0 1f a1 3c c0 a1 2e 3d cc dd 89 3d
       0.09128971 0.01966849 0.042634726 0.067317575
0001b0 14 30 84 3d ce 6d cc 3d 4e 20 c5 3c a5 42 4a bc
       0.06454483 0.09981881 0.024063256 -0.012344991
0001c0 d2 b2 22 3d 67 60 a3 3d 19 e0 38 bc 81 1e b0 bd
       0.039721318 0.07977372 -0.011283898 -0.08599568
0001d0 33 3d fc bd 1f f1 83 bd d6 01 09 3e 96 e2 b3 bd
       -0.1231636 -0.064424746 0.13379607 -0.08783452
0001e0 d5 1c 01 be b3 5b 10 be 9f 82 ed bd 4d fa d2 3c
       -0.12608655 -0.1409748 -0.115971796 0.025754118
0001f0 11 1f 43 be 8a 87 fa bc 15 9e 66 be 5a d0 4b be
       -0.1905482 -0.030582208 -0.22521241 -0.19903699
000200 20 dd 34 be c8 2c 4e 3c d3 d0 d6 bd 8c 76 4c be
       -0.17662477 0.012583919 -0.10489049 -0.19967097
000210 18 f9 69 be d6 d3 52 be ea 4c ac 3c 83 1f e3 bd
       -0.22848928 -0.20588621 0.02103277 -0.11089995
000220 d0 d7 48 be aa 04 d8 bd 6c 03 fd bd 42 f0 15 3d
       -0.19613576 -0.105477646 -0.12354168 0.03660608
000230 f8 4e cf bd d3 51 f2 bd 7f 0b e1 3c 39 77 15 3d
       -0.10122484 -0.11832013 0.027471302 0.036490653
000240 c2 54 5b 3e 2e 3f 1a bd e8 11 3a bd df 38 fb 3d
       0.21419051 -0.03765791 -0.045427233 0.12266707
000250 89 a5 18 3e 3b 3a c5 3d 0b d7 b9 bd 48 f8 66 3d
       0.14906897 0.09630247 -0.09074219 0.056389123
000260 01 a2 12 3e db 3a 2b be 95 ab 98 be 52 20 9e bd
       0.14319612 -0.1672167 -0.29818407 -0.07721008
000270 5c 17 e5 bc ee fc 94 3c 3b 0a b5 bc 54 14 f0 bd
       -0.02796524 0.018187013 -0.022099605 -0.11722627
000280 f9 05 43 bd 41 e0 27 bd 8b 25 43 3d 7c 82 dc 3b
       -0.047613118 -0.04098535 0.047643226 0.006729422
000290 0e 07 20 3d 8f c7 03 3e 50 b7 f7 bc 36 e8 21 be
       0.039069228 0.12869094 -0.030238777 -0.15811238
0002a0 4c 05 29 be 65 4b fa 3d fb 10 bc 3d 2c 57 0a 3d
       -0.16505927 0.122214116 0.09182926 0.03377454
0002b0 6f 52 22 be 6c 93 81 be 21 de af bb db b5 ed 3d
       -0.15851758 -0.25307786 -0.005367056 0.11606952
0002c0 fa cc 04 3d 75 ae 40 3b c8 21 77 3d 57 fd 92 be
       0.032422043 0.002940086 0.06033495 -0.28708908
0002d0 67 8a a9 bc 91 00 7f 3d 50 e0 fe 3b e2 eb 11 3d
       -0.020695878 0.0622564 0.007778205 0.035625346
0002e0 cd b5 d6 be 66 f6 01 be 12 63 1c be da 5c c3 bd
       -0.41935578 -0.1269165 -0.15272167 -0.095391944
0002f0 c3 6e 94 3c c4 6a 87 be 36 12 6c bd 76 81 bf 3d
       0.018119222 -0.26448643 -0.057634555 0.093508646
000300 62 8b 15 3d e1 c3 46 3d 60 96 f0 bd a1 41 93 bd
       0.03650988 0.04852665 -0.11747432 -0.07190252
000310 93 9e 0d 3e a2 e7 a7 3d be 6e d1 3c 07 f4 8f bd
       0.13830023 0.08198477 0.025565501 -0.070289664
000320 ec ce 89 bd bd c5 12 be 3b 64 6d be a8 b1 a9 be
       -0.0672892 -0.14333244 -0.23182766 -0.33143353
000330 4b 2f f9 bd fe b8 3d 3c c0 c5 a8 bc c7 59 b9 bd
       -0.121672235 0.01157975 -0.020602107 -0.09050327
000340 e8 4c 13 bd bd f5 85 3d 81 67 6b 3d 52 97 9a 3c
       -0.035962015 0.065410115 0.057471756 0.018870983
000350 5c e6 c2 bc 8e 0a a3 3c 19 91 15 bd e0 f4 b3 bd
       -0.023791485 0.019902494 -0.03651533 -0.087869406
000360 29 c6 aa 3d 28 19 09 bd 65 d3 54 bc bb bb ca bd
       0.08338577 -0.033471256 -0.0129898535 -0.09899088
000370 c6 58 97 be 62 bf fa bc d6 4e a0 bd c0 93 4e 3c
       -0.29559916 -0.030608837 -0.07827537 0.0126084685
000380 ff 59 4a be b2 f5 2a 3d 26 f6 d7 ba 4f 2c b4 3c
       -0.19760893 0.04173822 -0.0016476556 0.021993784
000390 87 41 ca bd cc 45 15 be cc 35 ee 3d 71 1f b7 3d
       -0.098757796 -0.14577407 0.11631355 0.08941544
0003a0 02 35 91 3d 8e fa 21 3d c5 4f 57 bd 10 f8 94 bd
       0.070901886 0.03954559 -0.05256631 -0.07273877
0003b0 a9 b4 39 3d ca 55 87 3d dd a2 3b bb 1c d8 12 bd
       0.045338307 0.0660816 -0.002863101 -0.03585063
0003c0 ed 74 df bc 74 1a c4 3d 2c a8 77 3d 37 15 27 3e
       -0.027277434 0.09575358 0.060463116 0.16316687
0003d0 cb 3c c4 3d ed 78 da bc a1 2f 0b 3d b7 51 bc bd
       0.09581908 -0.02666899 0.03398097 -0.09195273
0003e0 01 95 a5 3d 16 14 49 bc 77 8e a0 3d 27 75 80 3c
       0.08085061 -0.012272855 0.07839673 0.015680863
0003f0 4d b7 b3 be 1b 3f b0 bd 34 3e d9 3d 26 c4 e8 3d
       -0.35100785 -0.086057864 0.106075674 0.11365537

conv5.bias f4 [24]
000000 b9 f7 f8 bc 2b af e2 bb 1a 2e a5 3d ce a8 e4 bc
       -0.03039156 -0.0069178543 0.08065434 -0.027912524
000010 b2 53 fb 3c 16 4a 0a 3c 4f 7b ec 3d 98 ba cc 3d
       0.030679557 0.008440515 0.11546957 0.099965274
000020 b2 df e0 bd 06 4a 38 3d de 37 9f bc 0b 6e d7 bd
       -0.109801665 0.04499247 -0.01943582 -0.10519036
000030 91 07 e1 3d bd c0 98 bd 2b 95 58 bd 1c bc dc 3c
       0.10987771 -0.07458637 -0.052876633 0.026945166
000040 52 d2 f3 bc 09 df 0c bd 04 7c 10 bd 35 11 9a bd
       -0.029763374 -0.03439239 -0.03527452 -0.07522813
000050 cd 79 a7 3a 96 82 8a 3d fc 9b 75 bd 4b fd 8f bd
       0.0012777388 0.067631885 -0.05996321 -0.07030734

bn5.weight f4 [24]
000000 ac c6 d9 3e 4d d9 fb 3e b7 6b cb 3e 05 93 d6 3e
       0.42534387 0.49189225 0.39730617 0.41909042
000010 1f ab 11 3f 91 b4 08 3f 21 f9 d6 3e 00 56 f3 3e
       0.56901735 0.5340052 0.41986945 0.4752655
000020 94 e7 e4 3e 4e 1f 10 3f 53 8c e1 3e 17 ff e6 3e
       0.4470793 0.5629777 0.4405237 0.45116493
000030 76 f5 ee 3e a9 06 f3 3e 95 57 db 3e 61 58 ec 3e
       0.46671647 0.4746602 0.42840257 0.46161178
000040 78 9d 00 3f de a3 05 3f f4 5c f8 3e b2 11 ea 3e
       0.5024028 0.52203166 0.48508418 0.45716625
000050 f3 9c 11 3f 7c fd ee 3e d1 04 f7 3e 37 05 f0 3e
       0.5688011 0.46677768 0.48245862 0.4687898

bn5.bias f4 [24]
000000 be 03 a6 be 1c 2c ad be f7 a4 3f be 4a 4a b9 be
       -0.3242473 -0.33822715 -0.18715273 -0.3618949
000010 2d a1 95 be 2f b6 ba be 8d 9b 82 be b0 68 99 be
       -0.2922453 -0.3646712 -0.255093 -0.29962683
000020 d1 1f b4 be 6b 4e 85 be 91 12 b8 be 3a ae a7 be
       -0.35180524 -0.2603639 -0.35951665 -0.32750112
000030 af bb 45 be 50 81 f2 be d4 18 f9 be cb 31 be be
       -0.19309877 -0.47364283 -0.48651755 -0.37147364
000040 14 63 a6 be 50 f0 a5 be c9 c8 b0 be 63 83 bc be
       -0.32497466 -0.32409906 -0.34528187 -0.3681899
000050 78 c2 c4 be 02 5d 86 be 36 57 a0 be 33 7d 98 be
       -0.38429618 -0.26242834 -0.31316537 -0.2978302

bn5.running_mean f4 [24]
000000 40 5c 7a c0 56 12 07 c0 63 96 e8 be b6 80 11 bf
       -3.9118805 -2.1104941 -0.45427236 -0.5683702
000010 a3 10 ed bf 05 f9 e6 bf 3c d8 ad bf 7f 9e f2 bf
       -1.8520702 -1.8044745 -1.3581614 -1.8954619
000020 ba 44 a6 c0 56 3f cf bf ba 6d 5a c0 f6 4c 82 c0
       -5.1958895 -1.6191204 -3.4129472 -4.0718946
000030 da ad ab 3e c2 4d 7d c0 ca 44 21 c0 da a2 4d c0
       0.33531076 -3.957871 -2.5198236 -3.2130647
000040 4c a3 0f c0 9b db 00 c0 f3 01 8e c0 4d 35 99 c0
       -2.2443419 -2.0134037 -4.437738 -4.7877564
000050 d3 74 ba bf e6 5a b2 be 8c 54 a8 c0 00 b6 2c c0
       -1.4566902 -0.34834975 -5.2603207 -2.6986084

bn5.running_var f4 [24]
000000 17 00 b5 40 3f 50 81 40 62 41 a5 40 01 a5 b7 40
       5.656261 4.0410457 5.1642313 5.738892
000010 32 74 bd 40 3c fc a6 40 a0 b1 96 40 19 79 9f 40
       5.920434 5.2182903 4.7091827 4.9835324
000020 42 7b 14 41 e6 0c 85 40 82 f4 b9 40 d5 c6 d9 40
       9.280092 4.1578245 5.811097 6.8055215
000030 03 9e 65 40 33 01 ba 40 a0 25 a5 40 8e bb 9f 40
       3.5877693 5.8126464 5.160843 4.991645
000040 27 de c5 40 17 cd 19 41 ad 59 18 41 7b b0 a6 40
       6.183368 9.612571 9.5218935 5.209043
000050 58 33 e4 40 87 21 9a 40 0c 8b 2a 41 c2 e2 8f 40
       7.1312675 4.8165927 10.658947 4.4964304

fc1.weight f4 [10, 2400]
000000 78 06 60 be be 5c b4 be 8b e4 55 be 77 5d fb bd
       -0.21877468 -0.35227007 -0.20887963 -0.122736864
000010 f5 93 97 bd 41 ad c6 bd 5e e3 25 bd fa 4c aa 3d
       -0.074012674 -0.09701014 -0.040500037 0.08315463
000020 67 7f 2e 3e 2a 6f e6 bd 3c 5a 4e be bc 5c 7f be
       0.17040788 -0.112516716 -0.20151609 -0.24937719
000030 06 06 34 bd 6a de 4b 3b 23 7d 43 bd 97 42 bf 3d
       -0.043951057 0.003110791 -0.04772676 0.09338873
000040 f8 bd 1f bd 39 7e f0 bc ef bf 31 3c 91 cf 8f bd
       -0.038999528 -0.029357063 0.010848983 -0.07022012
000050 ad b6 4a be 4b b3 e7 bd 03 2c 95 bd c5 3d 6f be
       -0.19796248 -0.11313494 -0.07283785 -0.23363407
000060 46 58 7d be 24 9f 97 bc b2 cd 6a bd 28 53 3c 3d
       -0.24740705 -0.018508501 -0.057325073 0.04597774
000070 d9 79 aa 3d 78 54 f7 bb 03 60 45 be d2 a9 e3 bd
       0.08324022 -0.0075479113 -0.19274907 -0.11116375
000080 14 82 d6 bd 72 7e d9 bd bd aa 18 be aa 3f eb bd
       -0.10474029 -0.10619821 -0.14908881 -0.11486752
000090 7b 97 0b bd 66 55 cb bc 52 ea cf 3d 34 b6 85 bd
       -0.03408001 -0.024820995 0.10152115 -0.06528893
0000a0 9e 3c 6d be 51 58 66 bd 3d f0 b2 bc 2a 86 01 3e
       -0.23167655 -0.05623657 -0.02184307 0.12648836
0000b0 fc aa cc bd c1 21 57 be 5f 4c 69 be 87 3a 20 be
       -0.0999355 -0.2100897 -0.2278304 -0.15647326
0000c0 b6 37 59 be fe ac 6b bd 72 a3 c8 be 4c 8a 1e be
       -0.21212658 -0.057538025 -0.391872 -0.15482444
0000d0 88 62 e2 bd cc d3 8b bd 8c 71 69 be 3e 98 93 bd
       -0.110539496 -0.068275064 -0.22797221 -0.07206772
0000e0 57 b9 94 bd 69 27 70 bd 34 37 0a be 1f ed a7 bd
       -0.07261913 -0.058631334 -0.13497621 -0.08199524
0000f0 63 f6 a1 be 3a 3f ab bd b6 a0 1a be 20 e4 77 be
       -0.3163329 -0.08361669 -0.15100369 -0.24208117
000100 c8 9d 7f be 44 c0 fc bd 39 1d b0 bc 99 77 0b be
       -0.24962533 -0.12341359 -0.02149831 -0.13619842
000110 56 ed 1c be 90 9c b8 bd f0 be 08 be 5c 81 83 3d
       -0.15324911 -0.09014237 -0.13354087 0.06421158
000120 3c 87 a7 3c 41 ec 7f be d5 3b 89 bc 37 a3 db bc
       0.020450227 -0.24992467 -0.016752163 -0.026811225
000130 7e b8 43 be d8 15 5f be 85 fa 45 bd 75 11 f7 bc
       -0.19113347 -0.21785676 -0.048334617 -0.030159691
000140 42 e4 79 be ba c6 05 be af 76 cb 3b c8 dc 97 bd
       -0.2440348 -0.1306409 0.0062092165 -0.074151576
000150 89 55 bd bc c9 f8 67 bd 9e 53 f8 be 5d e8 7a be
       -0.023112075 -0.056633744 -0.48501295 -0.24502702
000160 5c 1e 70 3b 53 d3 1a 3d d0 9f 2d be f9 a1 3a 3d
       0.003663919 0.03779919 -0.16955495 0.045564625
000170 12 0f 01 bd 30 ec 02 bd 7a b6 d8 3b 40 29 23 bd
       -0.031508513 -0.031963527 0.00661355 -0.03983426
000180 ed 90 8f be 23 43 25 be 06 1d 24 be 2e ce 57 be
       -0.28040257 -0.16138892 -0.16026697 -0.21074745
000190 ce e4 c3 3d 5d 21 ab bd 92 94 96 bd 71 ed e1 bd
       0.095651254 -0.08355973 -0.07352556 -0.110316165
0001a0 65 98 44 bd 26 c4 a7 bd b7 1c 24 be eb 03 2f be
       -0.047996897 -0.08191709 -0.16026579 -0.17091338
0001b0 e4 7d 93 be d0 2d 54 be 72 c8 c9 3b e0 8a 24 3d
       -0.28806984 -0.20720601 0.006157928 0.040171504
0001c0 aa d4 35 3e dd a7 cd 3b 5a 2f cb bc 7f bc 63 3d
       0.17756906 0.0062761144 -0.024802852 0.055599686
0001d0 36 d8 ce bd 5c 10 a5 3d fd 7b 79 3d 10 69 77 3d
       -0.10099833 0.08059761 0.06090926 0.06040293
0001e0 79 1b 8e bd 43 00 83 3d aa 79 75 3d a2 12 53 b9
       -0.06938834 0.06396534 0.05993048 -0.0002012947
0001f0 f3 50 47 3c 43 24 97 bd e9 cb 52 be 4c 7c 5f 3c
       0.012165296 -0.07379963 -0.20585598 0.0136404745
000200 67 ac 80 be 9d 32 86 be 1b 79 a8 bd 49 e5 9b 3c
       -0.25131533 -0.2621049 -0.08226224 0.01903023
000210 e4 fb 92 bd 87 68 1a bc 24 5b f6 bb be 86 c5 bd
       -0.071769506 -0.009424335 -0.007518189 -0.09644841
000220 05 42 87 be be 20 98 be ad 3a 88 be 6f 7f 18 be
       -0.26417556 -0.2971248 -0.26607266 -0.14892362
000230 76 16 1e be 0c 88 ee bd c5 f8 f8 bd 69 9d 20 be
       -0.15438256 -0.11647043 -0.12156824 -0.15685047
000240 d6 ac 01 be 9a 47 9a be 73 10 21 be 41 01 54 be
       -0.12663588 -0.30132753 -0.15728931 -0.20703603
000250 27 71 69 be bc 14 10 bd 27 1e 74 bd d0 33 7e bc
       -0.2279707 -0.035176024 -0.059599068 -0.015515283
000260 cd 35 8f bd 4f 5d 61 be ed db 47 be 1c 7f 8d be
       -0.069926836 -0.2200825 -0.19517489 -0.2763604
000270 41 57 80 be 30 9d 29 bc 22 2c 96 be d3 5c 5a be
       -0.2506657 -0.010352418 -0.29330546 -0.21324472
000280 e7 4f 93 b9 53 be 8c bd c4 b6 3a bc 29 f8 3c 3c
       -0.00028097557 -0.06872239 -0.011396114 0.011533775
000290 e5 ac 3b be 52 05 27 be 00 41 a1 be bd 24 fa bd
       -0.18327673 -0.16310623 -0.31494904 -0.122140385
0002a0 1f 50 48 be f4 7a 12 bd 58 b0 ea bd 20 1a 0e be
       -0.19561814 -0.03576179 -0.11459416 -0.13877153
0002b0 62 d9 e4 bd 5a 47 7e bd 87 85 8b bd 74 d7 bb bd
       -0.11174275 -0.062079765 -0.06812578 -0.09171954
0002c0 1a 29 88 be d8 ff 13 be d9 aa 5a 3c 95 63 7b be
       -0.26593858 -0.14453065 0.013346397 -0.24549706
0002d0 74 20 b6 be d5 94 ed bd c1 3c 6e be 78 12 5e bd
       -0.35571635 -0.11600653 -0.23265363 -0.054216832
0002e0 8f 73 c8 3c 11 07 69 bc 6f 77 df bd 5e 9b 76 be
       0.024469165 -0.014222876 -0.10911452 -0.24082705
0002f0 b7 64 de bd c7 fe bd be 88 60 f2 bd 00 98 2f be
       -0.108590536 -0.37108442 -0.11834818 -0.17147827
000300 f1 39 16 be 3d 09 45 3d eb 99 52 3d 3c de 96 3d
       -0.1467054 0.048104513 0.05141632 0.073666066
000310 b1 20 17 bc a1 49 75 bd 00 45 9d be 70 81 9e be
       -0.009224103 -0.05988467 -0.30716705 -0.30958128
000320 70 fc 43 bd 14 ab 07 be f9 b3 c0 bc 89 ac 46 bd
       -0.047848165 -0.13248855 -0.023523318 -0.048504386
000330 5a 2d d7 bd 75 52 cb bd a1 36 98 bd 20 db a0 bd
       -0.10506697 -0.09927837 -0.07432295 -0.07854295
000340 f7 9f 0f bd 55 78 e6 bc a4 8b 8f 3b 8e b1 cb bd
       -0.035064664 -0.02813355 0.00438066 -0.09945975
000350 46 f8 68 be 13 f9 82 be 2b 34 90 be 6a 67 4e be
       -0.22750959 -0.25580654 -0.281648 -0.20156637
000360 8d f4 12 be 26 26 8c bd b2 e9 cc 3b c6 65 03 bd
       -0.14351101 -0.06843214 0.0062534446 -0.03207948
000370 9d 4f 62 3d 5d 4a e0 bb c2 f2 01 3d dd df 61 bc
       0.055251706 -0.0068448023 0.031725653 -0.013786283
000380 7e 81 08 bd d7 31 7e bb 28 04 e5 bb b2 b8 04 3d
       -0.03332662 -0.003878703 -0.006989021 0.0324027
000390 8b 6f a5 3c 7f 1c 05 3e e9 7b 5f 3e cf 6d d2 3c
       0.02019479 0.12999152 0.21824612 0.025687126
0003a0 24 10 23 bb a9 d8 06 3d 1c 70 c3 bc 97 10 6c 3b
       -0.0024881447 0.032921467 -0.023857169 0.003602063
0003b0 95 b1 2b bd bf 46 e2 3c 1e 5f de 3c 79 fd c7 3d
       -0.041917402 0.027621625 0.027144965 0.09765143
0003c0 27 c2 80 3e 5c bd 73 bc cf 1d 34 3d 10 dc 94 bc
       0.25148126 -0.01487669 0.04397374 -0.01817134
0003d0 2e bd a6 3d 0b a3 90 bc d4 90 f0 3d 1f a1 37 3d
       0.08141552 -0.01765587 0.11746374 0.04483139
0003e0 42 6a a2 bd e2 36 a0 3d 62 86 93 3e 25 24 86 3d
       -0.07930423 0.07822968 0.28813463 0.06549863
0003f0 17 32 fd 3d 3b 36 84 bd e5 3f 54 bb 08 aa 7f bb
       0.123630695 -0.06455656 -0.0032386717 -0.0039011259

fc1.bias f4 [10]
000000 1c 26 13 3e ee 2d 1c be 7c 96 ae 3c 7a f8 0b 3e
       0.14370006 -0.15251896 0.02131199 0.13669005
000010 f1 e3 cf 3d 57 f2 42 3d 38 1d 0f be 6a 88 f0 bd
       0.10150898 0.047594395 -0.1397599 -0.11744769
000020 28 7b 72 3d 06 d7 19 be
       0.059199482 -0.15023431
