myFourthModel.pth (torch, 209803 bytes, 26 tensors)

conv1.weight f4 [12, 3, 5, 5]
0	0xbb84ce9e	-0.004052951
1	0xbc9ac110	-0.018890887
2	0xbd5a71f6	-0.053331338
3	0x3d4559aa	0.048181213
4	0x3db419d3	0.08793988
5	0xbdb65a88	-0.08903986
6	0x3cd5b424	0.026086874
7	0x3d4e87c5	0.05042245
8	0xbd618159	-0.055054996
9	0x3e0e7b5b	0.13914244
10	0xbd1a98f1	-0.037743513
11	0x3d2dd011	0.042434756
12	0x3dba0936	0.09083788
13	0xbd6e519d	-0.0581833
14	0x3cfc7496	0.030817311
15	0x3ceaa75e	0.02864426
16	0xbdbbeb9e	-0.091758
17	0xbd7cc1b9	-0.061708186
18	0x3c6177d2	0.013761478
19	0xbd873e03	-0.06603625
20	0xbde480d9	-0.11157388
21	0x3d30faf8	0.043208092
22	0x3e29bfa1	0.16577007
23	0x3df475be	0.1193652
24	0xbdf346a0	-0.11878705
25	0x3d8020d8	0.062562644
26	0xbe02e732	-0.12783507
27	0x3d5e4b97	0.054271307
28	0xbdf0b1d3	-0.11752667
29	0xbcb102c3	-0.021607762
30	0xbdcc1ffb	-0.09967037
31	0xbe5e6579	-0.21718396
32	0xbdc9f9e9	-0.0986212
33	0x3d8db58d	0.06919394
34	0xbd947212	-0.0724832
35	0xbd80aa89	-0.06282527
36	0xbd8dfa9a	-0.06932564
37	0xbbecc406	-0.0072255163
38	0xbd8d7245	-0.06906561
39	0x3d851d80	0.06499767
40	0x3caa5dc0	0.020796657
41	0xbda8eda7	-0.082484536
42	0x3e20c8d3	0.15701608
43	0xbd1fccec	-0.039013788
44	0x3dab62d5	0.0836846
45	0xbd5805be	-0.05273985
46	0xbd1b7492	-0.037952967
47	0x3e1e7d02	0.15477374
48	0x3d5da5e8	0.0541133
49	0x3d7e952b	0.062153976
50	0xbd88f71a	-0.06687756
51	0xbe00a038	-0.12561119
52	0xbe01265b	-0.12612288
53	0xbd2ecca0	-0.042675614
54	0x3e17130a	0.14753357
55	0xbdb06cea	-0.08614524
56	0xbe5f4fca	-0.21807781
57	0x3c15254f	0.009103133
58	0x3db16c67	0.08663254
59	0xbd1c140a	-0.03810505
60	0xbd8c0093	-0.06836047
61	0xba6ab417	-0.0008953227
62	0x3d818393	0.06323924
63	0xbd395c7e	-0.045254223
64	0xbd717bcd	-0.058955956
65	0xbd309438	-0.043110102
66	0xbcf94257	-0.030427141
67	0x3dae671f	0.085157625
68	0x3d3b9486	0.04579594
69	0x3e12c3ee	0.14332554
70	0xbd7c775c	-0.061637267
71	0x3db3153f	0.08744287
72	0x3e56f851	0.20993163
73	0x3e35c844	0.17752177
74	0x3ccfe189	0.025376098
75	0x3d51e7cb	0.051246446
76	0x3be234a1	0.0069032465
77	0x3ca0124f	0.01953998
78	0xbd95cff5	-0.07315055
79	0xbdd8e329	-0.10590202
80	0x3d1fbd45	0.03899886
81	0xbbe22d07	-0.0069023403
82	0x3de0d958	0.10978955
83	0x3dc1ad77	0.09456914
84	0x3d8681c5	0.0656772
85	0xbd97bc0d	-0.07408915
86	0x3d88bc4c	0.0667654
87	0x3e35be8c	0.17748469
88	0x3e38c200	0.18042755
89	0xbe093e9d	-0.13402791
90	0xbdf97071	-0.121796496
91	0x3d54d4c9	0.05196074
92	0xbd12166f	-0.035665926
93	0x3d652a7f	0.05594873
94	0xbc6d61a4	-0.014488611
95	0xbd1e0d58	-0.038586944
96	0xbdc7c8be	-0.097550854
97	0xbd98979d	-0.07450793
98	0x3ca6c433	0.020357227
99	0x3bfd2067	0.00772481
100	0xbe14ea67	-0.14542542
101	0xbc957950	-0.018246323
102	0xbd843a2c	-0.06456408
103	0xba231cfb	-0.0006222275
104	0xbe25e3fd	-0.16200252
105	0xbe21ec41	-0.1581278
106	0xbd591ad2	-0.053004093
107	0xbd019d35	-0.031644065
108	0x3d4b1a89	0.049585853
109	0xbcc816cb	-0.024424931
110	0xbcac74af	-0.021051733
111	0x3d0eb680	0.034842014
112	0xbcd80a94	-0.026372232
113	0x3cb0870e	0.021548774
114	0xbd664a3e	-0.056223147
115	0xbd8933a4	-0.06699303
116	0xbd0bc941	-0.034127478
117	0x3d6e8f07	0.05824187
118	0x3da05660	0.07828975
119	0xbb469bfd	-0.0030305379
120	0xbe244c6c	-0.16044778
121	0xbde85cdd	-0.11345837
122	0x3b4367be	0.0029816474
123	0x3d3126a3	0.043249737
124	0xbe2f25b6	-0.1710423
125	0x3dd5ccb3	0.10439434
126	0xbcf39ab9	-0.029736863
127	0x3dde6fc3	0.108611606
128	0xbd7743c5	-0.060367364
129	0xbdf2eedd	-0.11861966
130	0x3dc58deb	0.09646209
131	0x3e0fce00	0.14043427
132	0x3d6e7819	0.058220003
133	0x3dac1018	0.08401507
134	0xbcf4a9ad	-0.029866064
135	0xbdba6cbd	-0.091027714
136	0xbc11a4cb	-0.008889387
137	0x3e95ad57	0.2923381
138	0x3e1ff086	0.15619096
139	0xbda8856b	-0.082285725
140	0xbd20f6dd	-0.039297927
141	0x3dc16e9e	0.09444927
142	0x3d96313b	0.07333609
143	0x3d935a42	0.0719495
144	0x3c17ae67	0.009257889
145	0x3dc96de7	0.09835415
146	0x3dc86451	0.09784759
147	0x3e1578fd	0.14596935
148	0x3e1f758c	0.15572184
149	0x3dcdbc96	0.100457355
150	0x3d8857f1	0.066573985
151	0xbda921db	-0.082584105
152	0xbc97434d	-0.018464709
153	0x3e121d20	0.14268923
154	0xb98cc104	-0.0002684669
155	0x3dcbaa51	0.09944595
156	0xbde7376d	-0.112898685
157	0xbc258acc	-0.010103893
158	0x3e14a8f2	0.14517573
159	0x3d4ba336	0.049716197
160	0xbbe02671	-0.00684052
161	0x3dc29a3e	0.095020756
162	0xbdbaf508	-0.09128767
163	0x3d77ee2f	0.060529884
164	0x3d89e05d	0.06732247
165	0xbcefeb43	-0.029286986
166	0x3d801eaa	0.06255849
167	0x3b984485	0.00464684
168	0x3cfcc1d9	0.030854153
169	0xbe25e0c7	-0.16199027
170	0xbd8571ce	-0.06515847
171	0x3d409d69	0.047025118
172	0xbe2e478a	-0.17019477
173	0xbd546024	-0.0518495
174	0xbdc33473	-0.09531488
175	0x3d8ff700	0.070295334
176	0x3d3a7486	0.04552128
177	0x3d8e5153	0.06949105
178	0x3a47207e	0.0007596089
179	0xbcf75159	-0.030190157
180	0xbd7f0bc3	-0.062267076
181	0xbc8c3c5b	-0.017118623
182	0xbddb9b9a	-0.10723038
183	0xbd97426a	-0.07385714
184	0xbc78db89	-0.01518906
185	0x3cac13fe	0.021005627
186	0x3be382f3	0.0069431006
187	0xbda70b78	-0.08156484
188	0xbccd7438	-0.025079831
189	0x3d03e480	0.032200336
190	0x3cc299b2	0.023754928
191	0x3e0af385	0.13569458
192	0xbd74b562	-0.059743293
193	0xbd15c490	-0.03656441
194	0xbe0a139a	-0.1348404
195	0x3ce145de	0.027499136
196	0xbd660632	-0.056158252
197	0xbd88c529	-0.0667823
198	0x3da43597	0.08018034
199	0xbd7e3f1b	-0.0620719
200	0xbd335be0	-0.04378879
201	0xbd40101d	-0.046890367
202	0xbd32c319	-0.04364309
203	0xbe31077b	-0.1728801
204	0xbe2a6d76	-0.16643319
205	0x3de30a01	0.110858925
206	0x3e101f9e	0.14074561
207	0x3d1deb15	0.03855427
208	0xba07ae8a	-0.00051758497
209	0xbe133c93	-0.14378576
210	0x3e20cef4	0.15703946
211	0x3e5e67d2	0.21719292
212	0x3dd5a0b2	0.10431041
213	0xbdf09bef	-0.11748492
214	0xbe6126bc	-0.21987432
215	0x3e014002	0.12622073
216	0x3e401454	0.18757755
217	0x3dc60640	0.09669161
218	0xbdb6ea9f	-0.08931469
219	0xbe588349	-0.21143831
220	0x3e463768	0.19357073
221	0xbcd515f4	-0.026011445
222	0x3cc05d43	0.02348197
223	0x3d08e17a	0.033418156
224	0x3d2916a6	0.041281365
225	0xbd8e0b9f	-0.0693581
226	0x3d83494c	0.06410465
227	0xbd9a7666	-0.07542114
228	0x3d4dde2c	0.050260708
229	0x3de7a4f7	0.113107614
230	0xbc24420a	-0.010025511
231	0xbdcbea36	-0.099567816
232	0xbe6b8245	-0.22998913
233	0xbdd5367e	-0.10410784
234	0xbe206e53	-0.15667085
235	0x3e0c081b	0.13674967
236	0xbe082fab	-0.13299434
237	0xbe7ec179	-0.24878491
238	0xbd36e21f	-0.04464924
239	0xbc9f6e15	-0.01946167
240	0xbd844086	-0.06457619
241	0xbdad3f0e	-0.08459292
242	0x3d59dbba	0.053188063
243	0x3e782adc	0.242351
244	0xbd46eeb5	-0.048567493
245	0x3dbd947b	0.09256836
246	0x3da19be8	0.07891065
247	0x3de3d73d	0.11125038
248	0x3e301eb2	0.1719921
249	0x3da0dd6b	0.07854732
250	0xbd81e181	-0.063418396
251	0x3dc7b018	0.09750384
252	0x3dc48436	0.0959553
253	0x3e0a9a85	0.13535507
254	0xbcd549ff	-0.02603626
255	0x3dac7d7c	0.08422372

conv1.bias f4 [12]
0	0xbd6b81ae	-0.05749672
1	0xbd7b8492	-0.061405726
2	0xbd1c8184	-0.038209453
3	0x3cb619a5	0.022229025
4	0xbcd2cbf3	-0.025732016
5	0xbda345b9	-0.07972283
6	0xbd5032f3	-0.05082984
7	0x3cfa6f4d	0.03057065
8	0x3baf4be0	0.005349621
9	0xbd273370	-0.04082054
10	0xbde4a194	-0.11163631
11	0xbd5a38a1	-0.05327666

bn1.weight f4 [12]
0	0x3f40da1c	0.7533281
1	0x3f27fce6	0.6562027
2	0x3f3f6646	0.7476543
3	0x3f4fe178	0.81203413
4	0x3f35497d	0.7081526
5	0x3f6c3936	0.92274797
6	0x3f6289ae	0.8849133
7	0x3f9f2eda	1.2436173
8	0x3f6bf6cc	0.9217346
9	0x3f302491	0.68805796
10	0x3f760dc8	0.9611478
11	0x3f164236	0.5869478

bn1.bias f4 [12]
0	0xbdb5eec3	-0.08883431
1	0xbe2abe8a	-0.16674247
2	0xbd57cc1d	-0.052684892
3	0x3dbf9995	0.09355465
4	0xbdcf9f47	-0.101378016
5	0x3be8c317	0.0071033346
6	0x3d926366	0.07147865
7	0x3ef96b9e	0.48714918
8	0x3e486081	0.19568063
9	0xbdd1a10e	-0.10235797
10	0xbd962026	-0.073303506
11	0xbc790418	-0.01519873

bn1.running_mean f4 [12]
0	0x3ab18d81	0.00135462
1	0xbda88672	-0.082287684
2	0xbc87f9f7	-0.016598685
3	0x3bc8f3ea	0.0061325924
4	0xbc9dedfe	-0.019278523
5	0xbc8b8e8d	-0.017035747
6	0x3c2cdd9e	0.0105508845
7	0xbcaddcd4	-0.021223463
8	0x3cc17965	0.023617456
9	0x3ce445bc	0.027865283
10	0x3cf33638	0.02968894
11	0x3dc04b97	0.093894176

bn1.running_var f4 [12]
0	0x3da6e3c9	0.08148915
1	0x3d9dd729	0.07707054
2	0x3d97ed20	0.07418275
3	0x3d2d8119	0.042359445
4	0x3d589698	0.052877992
5	0x3d66f3a1	0.056384686
6	0x3d1f20e7	0.038849737
7	0x3c895c75	0.01676772
8	0x3d0c67e9	0.034278784
9	0x3db118eb	0.08647331
10	0x3d5bcaab	0.053660076
11	0x3d7e2bd2	0.06205351

conv2.weight f4 [12, 12, 5, 5]
0	0xbdadec26	-0.08492307
1	0xbd89d475	-0.06729976
2	0xbda90cd1	-0.08254398
3	0xbd6a20d6	-0.05716022
4	0x3dd106af	0.10206353
5	0x3d26804b	0.040649693
6	0xbd9a5c07	-0.07537084
7	0xbd92d522	-0.07169558
8	0x3ddfb75b	0.10923644
9	0x3e125db0	0.14293551
10	0xbd1fb0aa	-0.03898684
11	0xbc802356	-0.01564185
12	0x3df9be64	0.12194517
13	0x3cd6a101	0.02619982
14	0xbd75c849	-0.06000546
15	0xbdc28e57	-0.094998054
16	0x3d756b52	0.0599168
17	0x3b171e7f	0.0023058949
18	0xbe2c83ca	-0.16847149
19	0xbd51171e	-0.051047437
20	0x3cfd79a2	0.030941788
21	0xbd8e8d91	-0.069605954
22	0xbb98c6c6	-0.0046623675
23	0x3e06956c	0.13142937
24	0x3dae14df	0.085000746
25	0xbdf335aa	-0.1187547
26	0xbdf65e5c	-0.12029716
27	0xbe0ca13e	-0.13733384
28	0x3d76682f	0.06015795
29	0xbd5867c3	-0.05283333
30	0xbe1325c9	-0.14369883
31	0xbe170184	-0.14746672
32	0xbc919fc2	-0.017776374
33	0x3d4afe3b	0.04955886
34	0xbe23d97e	-0.16000935
35	0xbd8719b7	-0.065967016
36	0xbd8b754e	-0.068094835
37	0xbda60e08	-0.08108145
38	0xbbe29e3d	-0.006915836
39	0xbdc9124c	-0.09817943
40	0xbcc24212	-0.023713145
41	0xbd74c79b	-0.05976067
42	0xbd5e8c9a	-0.054333307
43	0x3e012fe7	0.1261593
44	0xbd3c84d9	-0.04602513
45	0xbe0e5258	-0.13898599
46	0xbe1104dd	-0.14162011
47	0xbcca5571	-0.024698945
48	0x3d5e8409	0.054325137
49	0xbda64f51	-0.08120597
50	0xbda9fa5b	-0.08299705
51	0xbd6ee770	-0.058326185
52	0xbe34789b	-0.17624132
53	0x3d4f3d7b	0.05059574
54	0x3ca3ddc6	0.02000321
55	0xbd664835	-0.056221206
56	0x3d903c63	0.07042768
57	0xbd81ff83	-0.06347563
58	0xbd3c0a25	-0.045908112
59	0xbcdd762a	-0.027033884
60	0xba550b40	-0.00081269816
61	0x3c597ee4	0.013274882
62	0xbdf77443	-0.12082722
63	0xbd6e5e3d	-0.05819534
64	0xbcaebbc8	-0.021329775
65	0x3c85c7a2	0.016330544
66	0x3cde2614	0.027117766
67	0xbdb1d66a	-0.08683474
68	0x3cca3696	0.024684232
69	0x3d02c6dc	0.03192793
70	0x3c6b2d93	0.014354127
71	0x3d742855	0.059608776
72	0xbd6edd4f	-0.058316525
73	0x3d002e20	0.03129399
74	0x3c205c55	0.009787639
75	0xbe2e9ef6	-0.17052826
76	0xbc84fbc1	-0.016233327
77	0x3d51fe91	0.051268164
78	0xbc9699e3	-0.018383926
79	0xbd62563d	-0.055258024
80	0x3db71d37	0.08941119
81	0x3dc7d86b	0.09758075
82	0x3db3a2dd	0.08771298
83	0x3dab25ce	0.0835682
84	0xbd84de23	-0.06487682
85	0xbe045b25	-0.12925394
86	0xbe43f6d6	-0.19137129
87	0xbe63a833	-0.22232132
88	0xbe3ef279	-0.18647183
89	0xbc134108	-0.008987673
90	0x3d12f51a	0.03587828
91	0xba937c9f	-0.001125235
92	0x3cf70d53	0.03015772
93	0x3d961050	0.0732733
94	0x3cff0d05	0.031134138
95	0x3ca912dc	0.020638876
96	0x3df3b10a	0.11899002
97	0x3d5d56c6	0.05403783
98	0x3d5f07e7	0.054450896
99	0xbcad1bbb	-0.021131387
100	0xbd523af2	-0.051325746
101	0xbddccdf3	-0.10781469
102	0x3c76e98f	0.015070333
103	0x3c512101	0.012764216
104	0x3b60f010	0.0034322776
105	0xbd97e3b9	-0.074164815
106	0xbd99f4b0	-0.075173736
107	0xbcb002c1	-0.021485688
108	0xbc65455a	-0.0139935855
109	0xbd161577	-0.036641564
110	0x3d1dbdbe	0.03851103
111	0xbc2c057b	-0.0104993535
112	0xbc79f790	-0.015256777
113	0x3da1cf74	0.07900897
114	0xbd992a3e	-0.0747876
115	0x3d52d3d6	0.051471554
116	0x3d031d2a	0.032010235
117	0xba190f17	-0.00058387354
118	0x3d894881	0.06703282
119	0xbd77de44	-0.060514703
120	0x3d905a93	0.07048526
121	0x3dd5bb3f	0.10436105
122	0x3d8d5335	0.06900636
123	0x3e00e707	0.1258813
124	0x3d111aa1	0.035425786
125	0xbd9a2dc1	-0.07528258
126	0xbda1404a	-0.0787359
127	0xbde3bc86	-0.11119942
128	0xbda3e63c	-0.08002898
129	0xbd0488bb	-0.03235696
130	0x3e16b1d7	0.14716278
131	0x3cf220e6	0.029556703
132	0x3d390d8f	0.045178946
133	0x3c6ae0a8	0.014335789
134	0x3d206d04	0.039166465
135	0xbe1aee79	-0.15130033
136	0xbe04c74f	-0.12966655
137	0xbda162a6	-0.07880144
138	0x3d43e702	0.047827728
139	0xbd4676e0	-0.04845321
140	0x3e0e0bc7	0.1387168
141	0x3e193364	0.1496101
142	0x3ddc5f39	0.1076035
143	0x3c911d6d	0.017714227
144	0x3ca6a4a7	0.020342184
145	0x3dfeca4f	0.12440931
146	0x3c9bb224	0.019005843
147	0xbd1f2e52	-0.038862534
148	0xbd1d71bb	-0.03843854
149	0xbda06414	-0.078315884
150	0x3b8fa02b	0.004383107
151	0xbdbe2d3d	-0.09285972
152	0x3b81e6b8	0.0039642714
153	0xbe1420b9	-0.14465608
154	0x3c9bb59c	0.019007497
155	0x3e06a6b3	0.13149528
156	0x3da4b0f3	0.08041563
157	0x3c5c3ea8	0.013442673
158	0xbdbfd427	-0.09366637
159	0x3d40e61a	0.047094442
160	0xbbeb51fe	-0.007181405
161	0xbe4a9f05	-0.19787224
162	0xbebe2a0b	-0.3714145
163	0xbe914bc2	-0.2837811
164	0x3bdf1ceb	0.006808867
165	0xbd704f61	-0.05866945
166	0xbd08177e	-0.03322553
167	0x3d268930	0.040658176
168	0xba815242	-0.0009866434
169	0x3d48883e	0.048958056
170	0x3de22054	0.11041322
171	0x3ce448bc	0.027866714
172	0x3d807e76	0.062741205
173	0xbd96a60b	-0.07355889
174	0x3c8071cb	0.01567926
175	0x3c25417e	0.010086415
176	0xbded376b	-0.11582836
177	0x3d8a6f21	0.067594774
178	0xbdac2856	-0.08406131
179	0x3d9bf399	0.07614822
180	0x3cc02d0b	0.023458978
181	0xbdd58a0c	-0.10426721
182	0x3d954018	0.072876155
183	0xbcc4fca8	-0.024046257
184	0x3d3247df	0.043525573
185	0x3ba4ea7b	0.005032835
186	0x3d19a7d2	0.03751356
187	0x3da37207	0.07980733
188	0x3d7d5b27	0.061854508
189	0xbd17b12e	-0.037034206
190	0x3cb945d4	0.022616304
191	0x3d2e9578	0.042623013
192	0xbd92173a	-0.07133336
193	0xbe3d83e6	-0.18507347
194	0xbd8634ef	-0.06553065
195	0x3d2162c6	0.03940084
196	0xbde5a6a2	-0.11213423
197	0xbbadd596	-0.0053050024
198	0xbd7b0b51	-0.06129009
199	0x3d9c76f0	0.07639873
200	0x3dd1336e	0.102148876
201	0xbd57073f	-0.052497145
202	0xbe3bdb28	-0.1834532
203	0xbbc4803c	-0.005996732
204	0x3e4cb144	0.19989496
205	0xbdaf900e	-0.08572398
206	0xbe8512c7	-0.25990888
207	0x3dbe3d56	0.09289043
208	0xbc391f44	-0.011298958
209	0xbce75eee	-0.028243508
210	0x3ac8b262	0.0015311951
211	0x3e190582	0.14943507
212	0x3dabd50c	0.08390245
213	0xbe1fcb66	-0.15604934
214	0xbdc62c1d	-0.09676383
215	0x3bf43b8e	0.0074533885
216	0xbe52abc6	-0.20573339
217	0xbeb31855	-0.349795
218	0xbe3efcf8	-0.18651187
219	0x3d8be770	0.068312526
220	0xbcda470a	-0.026645202
221	0xbdc45af4	-0.095876604
222	0x3cd8746c	0.026422702
223	0x3dc326f3	0.09528913
224	0x3d133ca7	0.035946514
225	0xbdac1529	-0.084024735
226	0xbe06d890	-0.1316855
227	0xbbbeaf4d	-0.0058192373
228	0x3d3d5f59	0.04623351
229	0x3c88b5c9	0.016688244
230	0xbe2c251d	-0.16811033
231	0xbe075858	-0.13217294
232	0xbcfd734a	-0.030938763
233	0xbe62ec4d	-0.22160454
234	0xbd96f15c	-0.073702544
235	0x3c8b965a	0.017039467
236	0xbc346b5f	-0.011011927
237	0x3c51e69e	0.012811331
238	0xbd94c2a4	-0.07263687
239	0x3e1af564	0.15132672
240	0xb9d99c5c	-0.00041505962
241	0xbc88196b	-0.016613683
242	0x3ca2ed3d	0.019888515
243	0x3d66cfe9	0.056350622
244	0x3b1e19d4	0.0024124281
245	0x3c65cd4b	0.014025996
246	0x3d1fb291	0.038988654
247	0x3d9c0319	0.07617778
248	0xbd5f0035	-0.054443557
249	0x3d9ba567	0.07599907
250	0xbe380e5c	-0.17974228
251	0xbe59752e	-0.21236107
252	0xbd90a27a	-0.0706224
253	0xbe522a51	-0.20523955
254	0xbdc35666	-0.095379636
255	0xbd453b43	-0.04815222

conv2.bias f4 [12]
0	0xbd421ce1	-0.047390822
1	0xbde1af06	-0.11019711
2	0xbe3d628f	-0.18494628
3	0xbd4903e1	-0.049075965
4	0xbde35a66	-0.111012265
5	0xbda9ea88	-0.082966864
6	0xbda2ae09	-0.07943351
7	0xbd9813d9	-0.07425661
8	0xbbdd35c2	-0.006750793
9	0xbdbaabb4	-0.09114781
10	0xbe1d339c	-0.15351719
11	0xbdc6e6af	-0.09711968

bn2.weight f4 [12]
0	0x3f4a050f	0.7891397
1	0x3f604b87	0.87615246
2	0x3f79bfa6	0.9755806
3	0x3f3a131b	0.726854
4	0x3f7351eb	0.9504687
5	0x3f7691fe	0.96316516
6	0x3f674e91	0.9035426
7	0x3f688185	0.9082263
8	0x3f50659d	0.8140505
9	0x3f66446a	0.8994814
10	0x3f539b52	0.82658875
11	0x3f3f6f4f	0.7477922

bn2.bias f4 [12]
0	0xbd9e0415	-0.07715622
1	0xbe58f968	-0.21188891
2	0xbe703f02	-0.23461536
3	0xbd3a7c49	-0.045528684
4	0xbe33d4f5	-0.17561705
5	0xbde59647	-0.11210304
6	0xbd45f283	-0.04832698
7	0xbe24d810	-0.16098046
8	0xbdf100aa	-0.11767705
9	0xbe0eb551	-0.13936354
10	0xbe34f484	-0.176714
11	0xbe3c676b	-0.18398826

bn2.running_mean f4 [12]
0	0xbf227170	-0.6345434
1	0xbed9bc00	-0.42526245
2	0xbf025c5f	-0.509222
3	0xbf023bca	-0.5087248
4	0xbeaf3786	-0.3422205
5	0xbe5cd338	-0.21564949
6	0xbf407d84	-0.7519152
7	0xbf065100	-0.52467346
8	0xbf04d075	-0.5188058
9	0xbeb8eee9	-0.36119774
10	0x3e379be0	0.17930555
11	0xbd37507c	-0.04475449

bn2.running_var f4 [12]
0	0x3f1af25c	0.6052606
1	0x3f49b72e	0.78795135
2	0x3fa78ba3	1.3089489
3	0x3f75f155	0.9607137
4	0x3f85668f	1.0421923
5	0x3f650e22	0.8947469
6	0x3f5921cf	0.8481721
7	0x3f4f21bb	0.80910844
8	0x3f7835ef	0.96957296
9	0x401162e8	2.2716618
10	0x3f77194e	0.96522987
11	0x3f53ee35	0.8278535

conv4.weight f4 [24, 12, 5, 5]
0	0x3dd63455	0.104592
1	0xbadc00f4	-0.0016784952
2	0x3e2a7bc2	0.16648772
3	0x3e3e7e22	0.18602803
4	0x3c368c18	0.011141799
5	0xbd61f428	-0.055164486
6	0xbd3ad087	-0.045609023
7	0xbe2b7c17	-0.16746555
8	0x3d748152	0.059693642
9	0x3dcd83e7	0.10034924
10	0xbd9ffb2a	-0.078115776
11	0xbdeca8dd	-0.115556456
12	0x3e0a2a5b	0.1349272
13	0x3e4bb470	0.1989305
14	0x3d08b43b	0.033375006
15	0x3d196b2d	0.037455726
16	0x3d61d217	0.055131998
17	0x3c715a37	0.014730982
18	0xbcd1c08c	-0.025604509
19	0xbe223ecc	-0.15844268
20	0x3d39f3d8	0.045398563
21	0x3babb318	0.0052398555
22	0xbd85ec10	-0.06539166
23	0x3d5239dd	0.051324714
24	0xbd35ce70	-0.044386327
25	0xbc1eeb2f	-0.009699627
26	0x3d6e5181	0.058183197
27	0xbbda783b	-0.0066671646
28	0x3d3b9b7c	0.04580258
29	0x3e35afc9	0.17742838
30	0xbe0ff641	-0.14058782
31	0xbd82ada7	-0.06380778
32	0xbc31100f	-0.010807051
33	0x3da10775	0.078627504
34	0x3d46cdf5	0.04853626
35	0x3c6d7f85	0.014495735
36	0x3bd0c315	0.006370912
37	0x3d5ec71f	0.054389115
38	0xbcef9a65	-0.029248426
39	0xbd38ec0d	-0.04514699
40	0xbc878af0	-0.016545743
41	0x3dadc80d	0.08485422
42	0x3d3e6bd1	0.04648954
43	0x3ca951ec	0.020668946
44	0x3d355762	0.044272788
45	0x3c6d53da	0.014485324
46	0x3d9e3885	0.07725624
47	0x3c3d0a69	0.0115381265
48	0xbe3d944f	-0.18513606
49	0xbdbba236	-0.09161799
50	0xbcad8d50	-0.021185547
51	0x3dc69515	0.09696404
52	0x3da094d7	0.07840889
53	0x3da5967c	0.08085343
54	0xbcb5a7d6	-0.022174757
55	0x3db1b7aa	0.08677609
56	0x3e2b3bb4	0.16721994
57	0x3e0c8b34	0.13724977
58	0x3d8b07d2	0.06788601
59	0xbdbf032a	-0.09326775
60	0x3d086a88	0.03330472
61	0x3e057f0c	0.13036746
62	0x3bc11907	0.005892876
63	0xbe6aad13	-0.22917585
64	0xbddc304b	-0.10751399
65	0xbceee79b	-0.029163172
66	0xbe13385f	-0.14376973
67	0xbead690d	-0.3386921
68	0xbea3793c	-0.31928432
69	0xbe5a6604	-0.21327978
70	0xbd9d448f	-0.07679092
71	0xbd59ef6d	-0.05320685
72	0xbe84f408	-0.2596743
73	0xbdab08ff	-0.08351325
74	0xbe293d09	-0.1652719
75	0xbd89a316	-0.06720559
76	0x3b118fd1	0.0022210965
77	0x3cdf42d2	0.027253542
78	0xbcc3d39e	-0.023904618
79	0xbd6998f2	-0.057030626
80	0xbcd8ccfc	-0.026464932
81	0x3c669e08	0.0140757635
82	0x3dbb5264	0.09146574
83	0x3d90d359	0.07071561
84	0xbcce7ba0	-0.025205433
85	0x3d5ee637	0.05441877
86	0xbca9e58d	-0.020739341
87	0x3d70a6db	0.058752876
88	0x3d164850	0.036690056
89	0xbd2bc554	-0.041936234
90	0xbcb6d0df	-0.022316394
91	0xbc70e556	-0.014703115
92	0x3aa2db3d	0.0012424957
93	0xbb772f98	-0.0037717577
94	0x3dc5a852	0.09651245
95	0xbc0444f4	-0.00807308
96	0xbd538041	-0.051635984
97	0x3d670fbe	0.056411497
98	0xbcd5d4e9	-0.0261025
99	0xbd9e99ba	-0.07744165
100	0xbe2cc340	-0.16871357
101	0x3c5a614b	0.0133288605
102	0xbd69a658	-0.057043403
103	0xbdef5a9f	-0.116872065
104	0xbec3f83e	-0.3827533
105	0xbe0ba0f0	-0.13635612
106	0x3d0e9732	0.03481216
107	0xbd8e6adb	-0.06953975
108	0xbe222798	-0.15835416
109	0xbdcda32e	-0.1004089
110	0xbd191187	-0.03737023
111	0xba196fe3	-0.0005853159
112	0x3d283ed6	0.04107555
113	0xbcff2a5a	-0.031148124
114	0xbdeffe31	-0.11718405
115	0xbcda685a	-0.026661087
116	0x3daf3ee2	0.08556916
117	0x3cdb034b	0.026734969
118	0xbc919273	-0.017770028
119	0x3d3be367	0.045871165
120	0x3cd186c8	0.025576964
121	0x3cff2236	0.031144243
122	0xbd04fd45	-0.0324681
123	0xbe6aefc1	-0.22943021
124	0xbdad21b8	-0.08453697
125	0x3d8f9c8f	0.07012283
126	0x3d61ef14	0.055159643
127	0xbdb5a70c	-0.08869752
128	0x3d8f461d	0.06995795
129	0x3e170cd1	0.14750983
130	0x3d78ee7d	0.060774315
131	0xbc87d5fb	-0.016581526
132	0xbdef1fb9	-0.116759725
133	0xbc5250b4	-0.012836624
134	0x3ddf8b80	0.109152794
135	0x3bca68ef	0.00617706
136	0xbd80550f	-0.06266224
137	0x3d487cc2	0.048947103
138	0x3d9e3d7f	0.07726573
139	0x3db01a72	0.08598794
140	0x3be47607	0.006972078
141	0x3dddf173	0.108370684
142	0x3dc51019	0.09622211
143	0xbd404c80	-0.046947956
144	0x3dd7988c	0.10527143
145	0xbe04bab9	-0.12961854
146	0x3c056f6b	0.00814424
147	0xbcd58fae	-0.026069488
148	0xbd8b57b4	-0.068038374
149	0x3d971838	0.07377666
150	0xbe0ba681	-0.13637735
151	0x3d1b22e5	0.037875075
152	0xbcd536c1	-0.026027085
153	0xbd209a15	-0.039209444
154	0xbe43aa71	-0.19107987
155	0xbcf52ef6	-0.02992962
156	0x3da75918	0.0817129
157	0xbd8c700c	-0.06857309
158	0x3d031c5d	0.03200947
159	0xbe07c73a	-0.13259593
160	0xbdb4bac6	-0.08824687
161	0xbd977243	-0.073948406
162	0xbd9819d3	-0.074268006
163	0xbd997119	-0.07492275
164	0xbe2ed666	-0.17073974
165	0xbdcfc0d1	-0.10144199
166	0xbd8b3fd7	-0.06799286
167	0xbeae500f	-0.34045455
168	0xbea52afe	-0.32259363
169	0xbe31b79b	-0.17355196
170	0x3dd627c8	0.104568064
171	0xbd192c16	-0.03739556
172	0x3cbd5bec	0.02311512
173	0x3e116681	0.14199258
174	0x3dbba154	0.0916163
175	0xbd5f3241	-0.054491285
176	0x3cf3ed13	0.029776132
177	0x3d7d09b2	0.061776824
178	0x3dfdd95f	0.12394976
179	0x39a6af25	0.0003179248
180	0xbe288c16	-0.16459689
181	0x3d0894d8	0.033345073
182	0x3dca3f6b	0.09875377
183	0x3c96d810	0.018413574
184	0xbdd10b8f	-0.10207283
185	0xbdc0059f	-0.09376072
186	0xbe129318	-0.14313924
187	0xbdab2657	-0.08356922
188	0xbde53365	-0.11191443
189	0xbd3bd38c	-0.045856044
190	0xbde005ea	-0.10938628
191	0x3d4fdf2f	0.050749954
192	0x3db62589	0.08893878
193	0x3cd31b62	0.025769893
194	0x3c77061f	0.015077143
195	0xbd99c737	-0.075087
196	0xbd21688e	-0.03940635
197	0xbceb6628	-0.028735235
198	0xbc81f34d	-0.015863085
199	0x3bc7c8ae	0.006096921
200	0xbd43ef72	-0.047835775
201	0x3c0e2502	0.008675816
202	0xbd06dd4c	-0.03292589
203	0x3d42cbc4	0.047557607
204	0x3d26bdcf	0.04070836
205	0x3d2641aa	0.040589966
206	0x3d49ddbc	0.049283728
207	0xbd921ac0	-0.071340084
208	0x3d656622	0.056005605
209	0xbd55f559	-0.052235935
210	0x3d38e989	0.04514459
211	0x3d8a6b53	0.06758752
212	0xbccd555f	-0.025065122
213	0x3d08e2c8	0.0334194
214	0xbd22264f	-0.039587315
215	0xbcb45bb3	-0.022016382
216	0xbd951c99	-0.07280845
217	0xbd931ff7	-0.07183831
218	0xbd7d10c1	-0.061783556
219	0xbe222834	-0.15835649
220	0xbcafb5a6	-0.021448921
221	0xbd06265a	-0.03275142
222	0xbd831461	-0.06400371
223	0xbcefaded	-0.029257739
224	0xbdc950c2	-0.098298565
225	0xbdf354b4	-0.1188139
226	0xbdc9d2e6	-0.09854679
227	0xbdaa516a	-0.0831631
228	0xbd018d2c	-0.031628773
229	0xbda3a7f1	-0.07991017
230	0x3bba487d	0.005684911
231	0x3c53ff9b	0.012939359
232	0xbb40e79c	-0.0029434925
233	0xbda76ef1	-0.08175457
234	0xbe30fd28	-0.17284071
235	0x3db19e4a	0.08672769
236	0x3d8b7f49	0.06811387
237	0xbd9f88c1	-0.077897556
238	0xbcf63009	-0.030052202
239	0xbdd05d65	-0.101740636
240	0x3d264391	0.04059178
241	0xbcb0902b	-0.02155312
242	0xbe3feb18	-0.18742025
243	0xbdb1ae98	-0.08675879
244	0xbd8b4597	-0.068003826
245	0xbd483bd8	-0.048885196
246	0xbca054f4	-0.019571759
247	0xbe32225b	-0.17395918
248	0xbdda2d21	-0.10653139
249	0xbe2933ab	-0.16523616
250	0xbcbbb176	-0.022911768
251	0xbdc4d9dd	-0.096118666
252	0xbcf4501c	-0.029823355
253	0xbd45aa77	-0.04825827
254	0x3d8cf023	0.0688174
255	0x3de7be7c	0.11315629

conv4.bias f4 [24]
0	0x3aa85b07	0.0012844511
1	0xbd6acafe	-0.057322495
2	0x3d4ebfb4	0.05047579
3	0xbc573bae	-0.013136787
4	0x3d353309	0.044238124
5	0xbc500068	-0.012695409
6	0xbcd4811f	-0.025940476
7	0x3d682aed	0.056681562
8	0xbd32ccf7	-0.0436525
9	0xbd71af4f	-0.059005078
10	0x3ce84582	0.028353456
11	0x3cd7cf48	0.026343957
12	0xbd9a9e97	-0.0754978
13	0x3c43de6c	0.011954885
14	0xbc8252b9	-0.015908586
15	0x3bdd8a2b	0.0067608557
16	0x3aaa58a7	0.0012996391
17	0xbc5e7179	-0.013576859
18	0xbd7058be	-0.05867838
19	0x3cc9eae9	0.024648147
20	0xbd81b937	-0.06334155
21	0xbce3a6c2	-0.027789477
22	0xbcd27a17	-0.025692983
23	0xbd5cfd76	-0.053952657

bn4.weight f4 [24]
0	0x3f6c88a5	0.92396003
1	0x3f53de43	0.8276102
2	0x3f6d2ccf	0.926465
3	0x3f4ec692	0.80771744
4	0x3f619078	0.88111067
5	0x3f648730	0.8926878
6	0x3f517fd5	0.8183568
7	0x3f85d6a5	1.0456129
8	0x3f50e1a1	0.8159428
9	0x3f5c0d08	0.85957384
10	0x3f55b329	0.834765
11	0x3f43156b	0.76204556
12	0x3f6b237e	0.9185103
13	0x3f688fa7	0.90844196
14	0x3f6257b8	0.884151
15	0x3f657388	0.8962941
16	0x3f6ab00c	0.91674876
17	0x3f6c8782	0.9239427
18	0x3f574c13	0.84100455
19	0x3f7be2b3	0.9839279
20	0x3f4d3abb	0.8016774
21	0x3f6697bd	0.90075284
22	0x3f48eb53	0.78484076
23	0x3f64b786	0.89342535

bn4.bias f4 [24]
0	0x3b2b6993	0.0026155456
1	0xbdc181b4	-0.09448567
2	0x3d6adeda	0.057341434
3	0xbd2132e0	-0.03935516
4	0xbd33aafc	-0.043864235
5	0xbc0b2c7e	-0.0084944945
6	0xbd48ec9d	-0.049053777
7	0x3daad981	0.08342267
8	0xbd9d433c	-0.076788396
9	0xbd95683d	-0.072952725
10	0x3b8035fe	0.0039126864
11	0x3cf7dc71	0.030256482
12	0xbe32d5d0	-0.17464375
13	0xbd10130d	-0.03517442
14	0xbdafc6f8	-0.08582872
15	0xbccf8507	-0.025331987
16	0xbd527e2b	-0.051389854
17	0xbd963597	-0.0733444
18	0xbdc954f2	-0.09830655
19	0xbc0a7cb3	-0.008452582
20	0xbdeb5e2a	-0.1149257
21	0xbd084965	-0.03327312
22	0xbd941bea	-0.07231887
23	0xbdfd0b25	-0.12355641

bn4.running_mean f4 [24]
0	0xbf63676c	-0.88829684
1	0xbeff7ffa	-0.49902326
2	0xbfba925a	-1.4575913
3	0x3e36d7d8	0.17855775
4	0x3eb28434	0.34866488
5	0xbf282038	-0.6567416
6	0x3d2aa3c6	0.041660093
7	0xbfd26672	-1.6437514
8	0x3f2d756d	0.677573
9	0xbff853ac	-1.9400535
10	0x3e86d006	0.26330584
11	0x3e926ba4	0.28597748
12	0xbfa33f21	-1.275364
13	0xbf84524d	-1.0337616
14	0xbfa83e02	-1.3143923
15	0xbf893814	-1.0720239
16	0xbffdba02	-1.982239
17	0x3dabbff7	0.08386224
18	0xbf35b69a	-0.7098175
19	0xc01130ba	-2.268599
20	0xbd364f8a	-0.044509448
21	0xbf2d9980	-0.6781235
22	0xbf16f7a3	-0.58971614
23	0x3ebe9d94	0.37229598

bn4.running_var f4 [24]
0	0x3f5d1f02	0.8637544
1	0x3f2207cb	0.6329314
2	0x3fa69ffe	1.3017576
3	0x3fa1014d	1.2578522
4	0x3f4718ea	0.7777239
5	0x3f98e796	1.1945674
6	0x3f473738	0.7781863
7	0x3f9e9caf	1.2391566
8	0x3f456b37	0.7711672
9	0x3fcce65c	1.60078
10	0x3f9e6d4f	1.2377108
11	0x3f5671c3	0.83767337
12	0x3f9ff558	1.2496748
13	0x3f731fa6	0.94970167
14	0x3f8ed17d	1.1157681
15	0x3f8fbdef	1.1229838
16	0x3f8842d5	1.0645396
17	0x3f7905d5	0.97274524
18	0x3f60a8aa	0.8775736
19	0x3fc7e1eb	1.561582
20	0x3f56b09c	0.83863235
21	0x3f6527d1	0.8951388
22	0x3f53051c	0.8242967
23	0x3f606850	0.8765917

conv5.weight f4 [24, 24, 5, 5]
0	0x3d3b8cd5	0.045788605
1	0x3de07e3e	0.10961579
2	0xbd769f4a	-0.060210504
3	0x3daa938e	0.08328925
4	0x3d986f4c	0.07443103
5	0x3d4e2edd	0.05033766
6	0x3d753bb0	0.059871376
7	0xbcf5c12e	-0.029999342
8	0x3d0de950	0.034646332
9	0x3d1e7614	0.038686827
10	0xbe064844	-0.13113505
11	0xbca68597	-0.020327372
12	0x3d6aa3da	0.057285167
13	0x3e3bb55b	0.183309
14	0x3da63360	0.08115268
15	0xbd4cbf77	-0.049987283
16	0x3c905e21	0.01762301
17	0xbd524bd8	-0.05134186
18	0x3ce55722	0.02799565
19	0xbd831b31	-0.06401671
20	0xbd927374	-0.07150927
21	0xbd711af9	-0.058863614
22	0xbe3dc9a6	-0.18533954
23	0xbdb8aabb	-0.09016939
24	0xbe3df807	-0.18551646
25	0x3b4d82e1	0.0031358527
26	0x3ce6acd1	0.028158577
27	0xbc7be79f	-0.015375047
28	0x3beb54a3	0.0071817203
29	0xbbe38d60	-0.0069443434
30	0x3dc54d2d	0.09633861
31	0x3c9b4c52	0.01895729
32	0xbe195f78	-0.14977825
33	0x3ba6f7e8	0.0050954707
34	0xbc9b0b61	-0.018926324
35	0x3e19d296	0.15021738
36	0x3cf1bb49	0.02950825
37	0xbd677cf6	-0.056515656
38	0xbd5c5dd7	-0.05380043
39	0xbc3367ad	-0.010950011
40	0x3dae554c	0.08512363
41	0x3e0d459c	0.13796085
42	0x3c230587	0.009950048
43	0xbd4c2fd6	-0.049850307
44	0x3d9ca76e	0.07649122
45	0xbbc62241	-0.006046564
46	0x3e046bb7	0.12931715
47	0xbd347e5a	-0.04406581
48	0x3d94c225	0.07263593
49	0x3b851087	0.004060808
50	0xbd9140c5	-0.07092432
51	0xbd54caa3	-0.051951062
52	0x3c362f65	0.011119698
53	0xbe065b73	-0.13120823
54	0xbe6a3ca9	-0.22874703
55	0xbd7244be	-0.05914759
56	0xbde84a8a	-0.11342342
57	0xbd2ba918	-0.041909307
58	0xbe514276	-0.20435509
59	0xbe6e6639	-0.23281182
60	0x3dec4984	0.115374595
61	0xbd4e3833	-0.050346565
62	0x3aaeb6bc	0.0013329606
63	0xbd36d3ee	-0.044635706
64	0xbe75d826	-0.24008235
65	0x3dd83bf0	0.10558307
66	0x3ce033b1	0.027368398
67	0x3d28664b	0.04111318
68	0xbc982da2	-0.018576447
69	0xbd59ff21	-0.053221826
70	0x3e0fe504	0.14052206
71	0x3c7b4cf5	0.015338172
72	0x3c4ec52f	0.012620254
73	0xbd4f6aaf	-0.05063885
74	0xbe00fb78	-0.12595928
75	0xbda086dd	-0.07838223
76	0xbb38da57	-0.0028206313
77	0xbd37772a	-0.044791378
78	0x3b68104b	0.0035410102
79	0x3d5af887	0.05345967
80	0x3d9d1400	0.0766983
81	0x3d9fac9c	0.077965945
82	0x3cd36847	0.02580656
83	0xbc828feb	-0.015937766
84	0xbcdfbe0f	-0.027312307
85	0x3e122c92	0.14274815
86	0x3c267d7b	0.010161753
87	0x3ddb8c70	0.10720146
88	0x3cc9f7f9	0.024654375
89	0xbd78009e	-0.060547464
90	0x3cda8419	0.026674317
91	0xbcf90bb5	-0.03040109
92	0x3dc628d5	0.09675757
93	0xbc07ca5e	-0.008287994
94	0xbe03d8a2	-0.12875608
95	0xbe2cfcbd	-0.16893287
96	0xbdf0f838	-0.11766094
97	0x3c817a42	0.015805367
98	0xbe3ce1eb	-0.18445556
99	0xbe09fd5e	-0.13475558
100	0x3ca45f96	0.02006511
101	0xbd8c09e8	-0.06837827
102	0xbe44f438	-0.19233787
103	0xbe16efbf	-0.14739893
104	0xbccbd0d9	-0.02487986
105	0x3dd0a248	0.10187203
106	0x3d442c2c	0.047893688
107	0xbe4e101e	-0.20123336
108	0xbdc884b6	-0.097909376
109	0x3dd4d7cb	0.10392722
110	0x3daf4f9f	0.085601084
111	0x3da2188c	0.07914838
112	0xbaa006f5	-0.0012209105
113	0xbad8ce4b	-0.0016540972
114	0x3df4fd1a	0.11962338
115	0xbc9cd720	-0.019145548
116	0x3c922fd2	0.017845068
117	0x3cc7fb28	0.024411753
118	0x3cc25686	0.023722898
119	0x3d33e832	0.04392261
120	0xbdf35d34	-0.118830115
121	0xbe65c050	-0.22436643
122	0xbe571e0b	-0.21007554
123	0xbc90d1da	-0.01767819
124	0x3d18ac1e	0.03727352
125	0x3cb7e575	0.02244828
126	0x3ddc3876	0.107529566
127	0xbcf11cee	-0.02943274
128	0x3dbf8b2d	0.093527175
129	0xbd7c1536	-0.061543666
130	0x3d2cdf59	0.04220519
131	0x3d049c34	0.03237553
132	0x3d122190	0.03567654
133	0x3d5f5f48	0.054534227
134	0xbe042dfc	-0.12908167
135	0x3dd8cfb6	0.10586493
136	0x3d4cc51e	0.049992673
137	0xbb00b8bf	-0.0019641367
138	0xbda69151	-0.08133186
139	0xbdd1d2e7	-0.102453046
140	0xbb83a85e	-0.0040178737
141	0x3dda3039	0.10653729
142	0x3dad5a4d	0.08464489
143	0xbc8fe206	-0.017563831
144	0xbe35520f	-0.17707084
145	0xbd833930	-0.06407392
146	0x3dddb90d	0.10826311
147	0x3e145d2b	0.14488666
148	0x3df8262f	0.12116658
149	0xbdb0127d	-0.08597276
150	0xbd8fff5f	-0.0703113
151	0x3da08ddd	0.07839558
152	0x3d28656a	0.04111234
153	0x3e1f045a	0.15529004
154	0x3bc8c61d	0.0061271326
155	0xbe2dd18c	-0.16974467
156	0xbe3444f7	-0.17604433
157	0xbe33d5ed	-0.17562075
158	0xbd37ef0c	-0.044905707
159	0xbe3908fe	-0.18069836
160	0xbb8e1ec3	-0.004337163
161	0x3d039261	0.03212202
162	0xbc9ecb2a	-0.019383986
163	0x3dbe6fe7	0.092986874
164	0x3d3461f5	0.04403873
165	0x3cb7aab6	0.022420269
166	0xbd3d1d72	-0.04617066
167	0xbda0b690	-0.07847321
168	0xbdc0c175	-0.09411899
169	0xbd0105c1	-0.031499628
170	0xbcd4e51d	-0.025988156
171	0x3d70882a	0.058723606
172	0x3e260262	0.16211846
173	0x3ddbbd48	0.10729462
174	0xbd232ee3	-0.039839637
175	0xbe088b58	-0.13334405
176	0x3d9e7d56	0.0773875
177	0x3d87be82	0.06628133
178	0x3d3bb380	0.04582548
179	0xbca08a58	-0.019597217
180	0xbc8af7b6	-0.01696382
181	0x3df9579b	0.121749125
182	0x3d8cf5e5	0.06882838
183	0x3e0cf267	0.13764344
184	0x3d94b108	0.072603285
185	0x3a805e05	0.0009793645
186	0x3db25abd	0.08708713
187	0x3c80a565	0.015703866
188	0x3df3b82a	0.11900361
189	0x3d435f4f	0.047698315
190	0xbd2f77bb	-0.042838793
191	0x3d23c815	0.039985735
192	0x3c08ebb6	0.008356979
193	0x3df9073f	0.12159585
194	0x3bbf3270	0.00583487
195	0xbdf4f83c	-0.119614094
196	0x3af913a4	0.0019003046
197	0xbdbba1f4	-0.091617495
198	0x3c096be5	0.0083875405
199	0xbdfdec41	-0.123985775
200	0x3d34d3f8	0.04414746
201	0xbd7118f7	-0.0588617
202	0xbcfbc86b	-0.030735215
203	0x3dadf194	0.08493343
204	0x3da26b9b	0.0793068
205	0x3d62ac02	0.05533982
206	0x3d499ab8	0.049219817
207	0x3bd79493	0.0065789907
208	0x3c832e15	0.016013185
209	0x3c901316	0.017587226
210	0xbdd7f66b	-0.105450474
211	0xbcaa1514	-0.020762004
212	0x3d9fcb4f	0.0780245
213	0xbbc27a9c	-0.0059350263
214	0x3b825181	0.003977001
215	0xbe48c067	-0.19604646
216	0xbe23bdbb	-0.15990345
217	0x3ccab907	0.024746431
218	0xbcaea6c6	-0.021319758
219	0x3d41d7e8	0.047325045
220	0xbd9e6cb0	-0.07735574
221	0xbd93256f	-0.07184874
222	0xbde5df3c	-0.11224219
223	0xbe38a039	-0.1802987
224	0xbdb3caad	-0.08778892
225	0xbe42c774	-0.19021398
226	0xbe374128	-0.17895949
227	0xbe34503a	-0.17608729
228	0xbca9e8b2	-0.02074084
229	0xbe5b5385	-0.21418579
230	0xbdef1ee9	-0.116758175
231	0xbe0f0f6e	-0.1397073
232	0xbd193186	-0.037400745
233	0xbcd33788	-0.025783315
234	0x3ce01124	0.027351923
235	0xbe102090	-0.14074922
236	0xbe1d60e9	-0.15369
237	0xbdc8e438	-0.09809154
238	0xbe36cd27	-0.17851697
239	0xbe70c71b	-0.23513453
240	0x3e2a0980	0.16605186
241	0x3c73d61f	0.014882593
242	0x3d96fdea	0.07372649
243	0x3bf7364e	0.0075443154
244	0x3a9cad51	0.0011953508
245	0x3d62a2b3	0.055330943
246	0xbc028650	-0.007966593
247	0x3d75a359	0.059970234
248	0x3dba93f0	0.09110248
249	0xbca2bed0	-0.019866377
250	0x3d923a31	0.071400054
251	0x3d2eb8b4	0.042656615
252	0x3c9c0b93	0.019048488
253	0xbd95481e	-0.07289146
254	0xbe394ff3	-0.18096904
255	0x3d04adc0	0.032392263

conv5.bias f4 [24]
0	0x3c3a6d97	0.011378667
1	0xbdbf10f5	-0.09329406
2	0xbd495997	-0.049157705
3	0xbd8206b7	-0.06348937
4	0xbdd64031	-0.10461462
5	0xbb481a8e	-0.0030533406
6	0xbd5d8c81	-0.054089073
7	0x3da9ba78	0.08287519
8	0xbd0a7204	-0.03380014
9	0x3c176b1d	0.009241846
10	0xbbaf435a	-0.005348605
11	0xbd4a4dca	-0.04939059
12	0xbdb67cb9	-0.08910508
13	0xbd900064	-0.070313245
14	0xbda6ce03	-0.08144762
15	0xbc5d0eda	-0.01349231
16	0xbe1d8020	-0.15380907
17	0x3cd90b4b	0.026494643
18	0xbb3a45b4	-0.0028422894
19	0x3d9524f6	0.0728244
20	0x3c36a3b1	0.0111474255
21	0x3d8a125a	0.067417815
22	0xbda32dda	-0.0796773
23	0x3d9c781b	0.07640096

bn5.weight f4 [24]
0	0x3f0a551f	0.54036134
1	0x3f20237d	0.6255415
2	0x3f2bb599	0.6707397
3	0x3f2b868c	0.6700218
4	0x3f2aea38	0.6676364
5	0x3f3cc3c6	0.73736227
6	0x3f1c3df8	0.61032057
7	0x3f2f48e9	0.6847063
8	0x3f4518c3	0.7699091
9	0x3f3b2ea0	0.7311802
10	0x3f11aa26	0.5690025
11	0x3f2dbe14	0.6786816
12	0x3f0d3653	0.5516102
13	0x3f1b4598	0.60653067
14	0x3f13bc81	0.5770951
15	0x3f24503c	0.6418493
16	0x3f2835d0	0.6570711
17	0x3eff0930	0.49811697
18	0x3f1f2b1c	0.62175155
19	0x3f2aef32	0.66771233
20	0x3f05f152	0.5232135
21	0x3f206cc0	0.6266594
22	0x3f356472	0.7085639
23	0x3f23493e	0.63783634

bn5.bias f4 [24]
0	0xbe267052	-0.16253784
1	0xbe684db2	-0.22685888
2	0xbe85c966	-0.26130217
3	0xbe58ba31	-0.21164776
4	0xbe95a07f	-0.2922401
5	0xbe33a15c	-0.17542022
6	0xbe68413f	-0.2268114
7	0xbe02adfa	-0.1276168
8	0xbe699b77	-0.22813211
9	0xbe1199d3	-0.14218836
10	0xbe6f407c	-0.23364443
11	0xbe397bd6	-0.18113646
12	0xbe9a13fa	-0.30093366
13	0xbe6f8b5f	-0.2339301
14	0xbea12adf	-0.3147802
15	0xbe5123b8	-0.20423782
16	0xbea0b63a	-0.31389028
17	0xbe30361b	-0.1720814
18	0xbe8808ce	-0.26569217
19	0xbdfda592	-0.12385096
20	0xbe7fd64c	-0.24984092
21	0xbe328fd9	-0.17437686
22	0xbe3b7525	-0.18306406
23	0xbde1d1f1	-0.11026371

bn5.running_mean f4 [24]
0	0x3ea74dc2	0.32676512
1	0xc037eef4	-2.8739595
2	0xbf3d2278	-0.7388072
3	0xbfe6ce98	-1.8031797
4	0xc00814bb	-2.1262653
5	0xbf14e707	-0.5816502
6	0xbf8b11ff	-1.0864867
7	0xbeb10416	-0.3457343
8	0xbf8fb8f0	-1.1228313
9	0xbdb46263	-0.08807828
10	0xbdc39da1	-0.0955155
11	0xbfbbe475	-1.4679095
12	0xbfd4b270	-1.6616955
13	0xc00ce333	-2.2013671
14	0xbfc8176e	-1.563215
15	0xc0361e90	-2.8456154
16	0xbfb91e63	-1.4462398
17	0x3f09e273	0.5386116
18	0xbfa39c36	-1.2782047
19	0xbeed7fe8	-0.46386647
20	0x3dd249cd	0.10267983
21	0xbee114da	-0.4396122
22	0xc0481e3a	-3.126845
23	0xbf873fdf	-1.0566367

bn5.running_var f4 [24]
0	0x3f9729e6	1.1809661
1	0x401daa50	2.46352
2	0x3fd91c6e	1.6961801
3	0x3fde8e69	1.738721
4	0x3fdc0bed	1.719114
5	0x3fe1929f	1.762287
6	0x3fc3e733	1.5304931
7	0x3ff9b322	1.9507792
8	0x3fac0c58	1.3441267
9	0x3ff7f124	1.9370465
10	0x3f960aa0	1.1721992
11	0x4002b126	2.0420623
12	0x3fd509db	1.6643633
13	0x40139dc0	2.3065033
14	0x3f9fc4cb	1.2481931
15	0x400bf33b	2.1867206
16	0x3fe8a609	1.817567
17	0x3f995521	1.1979104
18	0x3fb3ad57	1.4037274
19	0x3fc4f39b	1.5386842
20	0x3f5453d2	0.829404
21	0x3fad4526	1.3536727
22	0x4019eed9	2.405203
23	0x3fae4668	1.3615236

fc1.weight f4 [10, 2400]
0	0xbbf91e84	-0.0076025147
1	0xbd18c581	-0.03729773
2	0x3dc51976	0.09623997
3	0x3df6c769	0.12049753
4	0x3c1d0db8	0.00958579
5	0x3d852fc9	0.06503255
6	0x3beb0a87	0.007172886
7	0x3cca9cae	0.024732914
8	0x3d693ca6	0.056942604
9	0x3d7d8741	0.061896566
10	0x3d3ea741	0.046546225
11	0x3ce43c3b	0.027860751
12	0x3cea2535	0.028582195
13	0xba9cfd0d	-0.001197727
14	0xbd98a148	-0.07452637
15	0xbd13389c	-0.03594266
16	0xbd49e897	-0.04929408
17	0xbdd8516a	-0.105624035
18	0x3cd21c12	0.02564815
19	0x3c3aed4c	0.011409115
20	0x3d9a3836	0.07530253
21	0x3dbc7aff	0.09203147
22	0x3cce1c41	0.025159957
23	0xbc282425	-0.010262524
24	0xbd93e727	-0.07221823
25	0x3ad1f4f3	0.0016018435
26	0x3d04778b	0.032340568
27	0x3b5f0be4	0.0034034187
28	0xbd63bc42	-0.05559946
29	0x3d80330d	0.06259737
30	0xbd815d9c	-0.06316683
31	0xbdd6c89d	-0.10487483
32	0x3c85d1e2	0.016335431
33	0xbdaba899	-0.08381767
34	0xbcf2b279	-0.029626118
35	0xbcf71b7f	-0.030164478
36	0xbd89b674	-0.06724253
37	0xbd742c46	-0.059612535
38	0xbd0a07fc	-0.03369902
39	0x3d1594da	0.03651891
40	0x3c6d336c	0.014477592
41	0xbd099787	-0.033591773
42	0x3c6312e3	0.013859483
43	0x3ba7a61c	0.0051162373
44	0x3ded2e1c	0.1158106
45	0x3d2e5266	0.04255905
46	0x3da2a603	0.079418205
47	0x3a400a64	0.0007325767
48	0xbbab1105	-0.0052205347
49	0x3db8f2c3	0.09030678
50	0x3dbe80a4	0.0930188
51	0x3d746506	0.059666656
52	0x3becdc00	0.0072283745
53	0x3c90ec47	0.01769079
54	0x3c57bca5	0.013167535
55	0xbc2d5804	-0.010580067
56	0x3ce589e2	0.02801985
57	0xbd46f8bd	-0.04857706
58	0xbd0ca258	-0.03433451
59	0x3d29a269	0.041414652
60	0xbc9c8524	-0.019106455
61	0x3d6bb042	0.05754114
62	0x3ce6c494	0.028169908
63	0xbdfcd90f	-0.12346088
64	0x3d4be50f	0.049778994
65	0xbcc9898b	-0.024601718
66	0xbb88ed3e	-0.004178672
67	0xbc93402a	-0.017974932
68	0x3d756013	0.059906077
69	0x3e13f054	0.14447147
70	0xbd2c4fe5	-0.04206838
71	0x3d5e94e6	0.05434122
72	0xbdb37b56	-0.08763759
73	0xbdb161f9	-0.08661265
74	0xbd2aa143	-0.041657697
75	0xbda311ca	-0.07962377
76	0x3ce482bd	0.027894372
77	0x3cdb7e99	0.026793765
78	0x3dcf784b	0.10130366
79	0x3d912fc1	0.070891865
80	0xbd192d8d	-0.037396956
81	0x3c920356	0.017823856
82	0xbcbddd96	-0.02317695
83	0xbd228c41	-0.039684538
84	0x3c82fbd9	0.015989231
85	0x3c29040e	0.010315908
86	0x3dc34021	0.09533716
87	0x3c9dc536	0.019259077
88	0xbcd4e3d4	-0.025987543
89	0x3d63527a	0.055498578
90	0x3ca66c2c	0.020315252
91	0x3d8f3537	0.06992572
92	0x387ca04a	6.0230763e-05
93	0xbdb807b9	-0.08985848
94	0xbd2768e6	-0.040871523
95	0x3d412dc2	0.04716278
96	0x3b5d7f8f	0.0033797955
97	0x3caaa34b	0.020829817
98	0x3d20b14d	0.039231587
99	0x3e15929b	0.14606707
100	0x3ced3c6d	0.028959477
101	0x3daf7f85	0.08569244
102	0x3d4523ba	0.048129775
103	0x3cea27f7	0.02858351
104	0x3d931e40	0.07183504
105	0x3d84348a	0.064553335
106	0x3d805263	0.06265714
107	0x3cdd3ea0	0.027007401
108	0x3d1ac4f7	0.037785497
109	0x3d5b78cb	0.053581994
110	0xbe8f350e	-0.27970165
111	0xbdf848aa	-0.121232346
112	0xbdd2f5e1	-0.10300804
113	0x3c4b1b90	0.012396708
114	0xbd77d42f	-0.06050509
115	0xbd649724	-0.0558082
116	0xbd85175c	-0.06498596
117	0xbc0b2243	-0.008492055
118	0x3c8e0306	0.017335426
119	0xbd2b2236	-0.041780673
120	0xbe4204e9	-0.18947186
121	0x3d88b424	0.06674984
122	0xbc38f7b0	-0.011289522
123	0x3db77e71	0.08959664
124	0x3e1d6017	0.15368687
125	0xbd8bfb0e	-0.06834994
126	0xbddac3ae	-0.10681854
127	0x3adc1ddf	0.001679357
128	0xbce9d43a	-0.02854358
129	0xbc13d31d	-0.009022501
130	0xbe4719cd	-0.19443436
131	0xbcbdb13c	-0.023155801
132	0xbdccbc33	-0.09996834
133	0xbe029d84	-0.127554
134	0xbbe095b7	-0.006853785
135	0xbd76d5c0	-0.06026244
136	0xbd787808	-0.060661346
137	0xbe0520db	-0.13000815
138	0xbe06c1f7	-0.13159929
139	0xb934f8e7	-0.00017258861
140	0xbd97b7e2	-0.0740812
141	0xbe49975a	-0.19686642
142	0xbdea8cb2	-0.11452617
143	0xbd88b963	-0.06675985
144	0xbe2aff1e	-0.16698882
145	0xbe00bb9e	-0.1257157
146	0xbd5aeacb	-0.053446572
147	0xbdd31786	-0.10307221
148	0xbc50fec4	-0.012756053
149	0x3d2cc56e	0.04218047
150	0xbe2d755c	-0.169393
151	0xbe77e3c2	-0.24207976
152	0xbdc0c33c	-0.09412238
153	0xbd9b58d5	-0.07585303
154	0xbe692f34	-0.22771913
155	0xbdbb323b	-0.0914044
156	0xbdc2b4fb	-0.095071755
157	0xbdffeb3a	-0.12496038
158	0xbd56d626	-0.05245032
159	0x3d34153e	0.04396557
160	0xbe83c2ef	-0.2573466
161	0xbe31af88	-0.17352116
162	0xbd9065fa	-0.070507005
163	0xbc93be7f	-0.018035172
164	0xbda94535	-0.08265153
165	0xbdab1d85	-0.0835524
166	0xbe30b3e9	-0.1725613
167	0xbdf4a86a	-0.11946185
168	0xbd9fb80e	-0.077987775
169	0xbc9d6c00	-0.019216537
170	0xbea6af74	-0.32555735
171	0xbcb2b3ea	-0.021814305
172	0xbdceb180	-0.10092449
173	0xbe133a09	-0.14377607
174	0xbdafe03b	-0.085876904
175	0xbd9169ce	-0.07100259
176	0xbe20b68e	-0.15694639
177	0x3c0a3368	0.008435108
178	0xbdc8befb	-0.09802052
179	0xbd58da23	-0.052942406
180	0xbe21a1cc	-0.15784377
181	0x3c7b2045	0.015327518
182	0x3d523cba	0.051327445
183	0xbe1d327d	-0.15351291
184	0xbd61fad7	-0.05517086
185	0xbdcd1dae	-0.100154266
186	0xbb8d3978	-0.0043098293
187	0x3d944e73	0.072415255
188	0xbc6df84c	-0.014524531
189	0xbd659f43	-0.056060087
190	0xbdce5f5f	-0.10076784
191	0xbca6f9fc	-0.020382874
192	0x3cb8cb41	0.022557857
193	0xbd8c9496	-0.06864278
194	0x3c0eb221	0.008709461
195	0xbccda999	-0.025105285
196	0xbe396c81	-0.18107797
197	0xbc949db8	-0.018141612
198	0xbd2ff08d	-0.042954016
199	0xbe417ad2	-0.18894508
200	0x3e428309	0.18995298
201	0x3e0a23d7	0.13490234
202	0xbceedb85	-0.02915741
203	0xbd6218ec	-0.05519955
204	0x3d7f0c97	0.062267866
205	0xbd829521	-0.063761
206	0xbd00b266	-0.031420134
207	0x3baa0004	0.00518799
208	0xbd30981e	-0.04311382
209	0xbe0e1aa3	-0.13877349
210	0x3e0ae766	0.13564834
211	0x3d4b281a	0.04959879
212	0xbc088d4b	-0.008334468
213	0xbda1a7d9	-0.078933425
214	0xbe04c013	-0.12963895
215	0xbd6da5fb	-0.05801962
216	0x3d8fb6b5	0.070172705
217	0xbd91c408	-0.07117468
218	0xbd85a832	-0.06526221
219	0x3df11384	0.117713004
220	0xbd8107fa	-0.063003495
221	0x3de52514	0.11188713
222	0x3acabe42	0.0015468078
223	0x3ce1b3a6	0.027551483
224	0x3dc12512	0.09430899
225	0xbca92e5c	-0.020651989
226	0xbd112dd6	-0.035444103
227	0x3d83d036	0.064361975
228	0x3caa037c	0.020753615
229	0x3d883a81	0.06651784
230	0xbda272b3	-0.079320334
231	0xbcff909a	-0.031196881
232	0xbc43d8db	-0.011953558
233	0x3cdd7fe5	0.027038524
234	0x3d47a9c0	0.04874587
235	0xbd3c09f8	-0.045907944
236	0xbd6a93ae	-0.057269745
237	0x3d487193	0.048936438
238	0x3cb172c9	0.02166118
239	0xba8c0c56	-0.0010684829
240	0x3aa646ad	0.0012685858
241	0xbd6bcb6d	-0.05756705
242	0xbb861bea	-0.004092683
243	0x3ce3a7fe	0.027790066
244	0x3c8f2fa0	0.017478764
245	0xbd0dc060	-0.03460729
246	0xbc3b19a0	-0.011419684
247	0xbdac59b4	-0.08415547
248	0x3d409feb	0.04702751
249	0x3e06d68f	0.13167785
250	0xbccef59c	-0.0252636
251	0x3e0a03a4	0.13477951
252	0x3d29fa3e	0.041498415
253	0xbca95327	-0.020669533
254	0x3ce56b46	0.028005254
255	0xbd2a07ab	-0.04151122

fc1.bias f4 [10]
0	0x3e0af882	0.1357136
1	0xbda6f818	-0.08152789
2	0xbcb2ec46	-0.02184118
3	0x3dc6eecc	0.09713516
4	0x3d2f146a	0.042744078
5	0xbc094752	-0.0083788205
6	0xbd0330a2	-0.0320288
7	0xbdb67480	-0.08908939
8	0xbbadc8eb	-0.0053034923
9	0xbdf2683c	-0.118362874
