mySecondModel.pth (torch, 209803 bytes, 26 tensors)

conv1.weight f4 [12, 3, 5, 5]
000000 a6 71 c1 bc 61 3b c5 bd a9 22 06 be 50 5d 92 bd
       -0.023613762 -0.09630466 -0.1309916 -0.07146704
000010 67 bc c6 bd aa 78 87 bd 64 cd 66 3c 53 37 47 3d
       -0.09703904 -0.06614812 0.014087055 0.048636746
000020 da 01 2d bd 4e 6f 25 bc 7a 2f 0b be c6 b1 c3 bc
       -0.042238094 -0.010097338 -0.1359233 -0.02388848
000030 e7 e8 95 be e1 33 84 be de 32 40 bd ab bb d8 3d
       -0.29279253 -0.2582083 -0.04692351 0.1058267
000040 80 a9 f7 bd 3f 63 38 be 63 c7 3b bd ed c3 00 be
       -0.120928764 -0.1800661 -0.045844447 -0.1257474
000050 4d a4 ed bd b9 11 8f bc 80 f1 1c bc 84 c0 d7 bc
       -0.116036035 -0.017464506 -0.009579062 -0.026336916
000060 ee 20 83 bd e9 00 61 bd 7a 2d 35 3e 3d d3 27 3e
       -0.06402765 -0.05493251 0.17693129 0.16389175
000070 bc 8c f7 3d e1 fd 19 3e 86 a6 15 3d 0a 8a 77 3e
       0.1208739 0.15038253 0.036535762 0.24173751
000080 c4 c5 8b 3e 29 f5 14 3e b2 a8 68 3e 37 b7 f1 3d
       0.2729932 0.14546646 0.22720602 0.118025236
000090 75 38 b5 3d 3a b2 94 bd 3d ea 98 3d ba 9b 96 3d
       0.08848659 -0.072605565 0.074665524 0.07353921
0000a0 7a 12 8b 3e 3f 66 0c 3e a2 dd 36 3e 7b 26 9e 3e
       0.27162534 0.13710879 0.17857984 0.30888733
0000b0 a5 70 3a 3e 48 1a 9b 3d aa c9 4f 3e 38 db b4 3e
       0.18207033 0.07573372 0.20291772 0.353235
0000c0 b3 1e a6 3e 74 09 23 bd 52 34 5f 3d 56 25 f9 bd
       0.32445297 -0.039803937 0.054493256 -0.121653244
0000d0 96 87 c0 bd 18 d3 1c bd 20 f9 d5 bc 0f 7a 34 be
       -0.09400861 -0.038287252 -0.026119769 -0.17624687
0000e0 f7 25 5d 3c 16 03 c5 bd 6a a2 04 be 5f df 8f bd
       0.013497821 -0.09619729 -0.12952581 -0.070250265
0000f0 19 1e 75 bd 60 26 55 be 28 b6 b0 be 9e f5 aa be
       -0.059843156 -0.2081542 -0.34513974 -0.33390516
000100 88 3f 16 be 24 79 fd 3d 9f c1 1e be 73 61 dc bd
       -0.14672673 0.12376621 -0.15503548 -0.107607745
000110 8e 91 7f be be f7 23 be 9c 63 cf 3d 6b 13 ff bc
       -0.24957868 -0.16012475 0.10126421 -0.031137189
000120 d1 89 e6 bb da 89 f6 b8 0f f5 6c be b4 94 d3 bc
       -0.007035472 -0.00011755871 -0.23140357 -0.025827743
000130 e1 3d fb 3d 52 dd 90 3d e3 cd 5f be 01 96 9c bd
       0.12267662 0.070734635 -0.21855883 -0.076457985
000140 b9 a5 17 bc 5b 27 7a 3d 33 01 10 3e 7e 23 3a be
       -0.00925582 0.06107269 0.14062957 -0.18177602
000150 fc 6a 8f bd eb 0a fd 3d 30 23 a6 be 66 cb 04 3e
       -0.070028275 0.12355598 -0.3244872 0.12968215
000160 8b d6 70 be 71 f6 e1 3c 4c 93 33 3e 1e 6b 9a be
       -0.23519342 0.027583333 0.17536658 -0.3015985
000170 86 4e e5 3e eb 26 89 3d 8c 3c 05 3c 15 0d 02 3e
       0.4478647 0.06696876 0.008132111 0.12700303
000180 27 24 b8 3d a0 fe 2a 3e 7c 8e 8c bd 8e 10 ad 3d
       0.089912705 0.16698694 -0.06863114 0.08450423
000190 64 11 17 3d d1 a9 c0 3d 13 fe e0 3b 9a fa 45 3d
       0.03688182 0.0940739 0.0068662255 0.048334695
0001a0 90 8a ab 3d 59 cd 0e 3e 5f 40 0c be 15 90 5e 3e
       0.08376038 0.13945521 -0.1369643 0.2173465
0001b0 d2 f2 e3 3b f0 c9 c9 3d b9 24 aa bc 7a 7c 17 bf
       0.0069564367 0.0985297 -0.020769464 -0.5917431
0001c0 3c 53 8f 3d 1d 44 1b be 96 97 25 3d 3d 39 27 3d
       0.069982976 -0.15162702 0.040427767 0.04082607
0001d0 e3 93 13 bf 4f 58 a3 3e 84 75 05 3c 2f f1 26 3d
       -0.5764753 0.31903312 0.008145694 0.040757354
0001e0 64 6a c0 bd 77 6e 57 be a5 d4 da 3c d4 52 4f be
       -0.093952924 -0.21038233 0.026712725 -0.2024644
0001f0 93 ec 5f bc 64 79 37 be 9e 6c 98 bc fd 7f ed bd
       -0.0136672435 -0.179174 -0.01860648 -0.115966775
000200 31 86 5e bd ca 3d 4e 3d f5 55 d4 3d 20 a1 6c 3d
       -0.054327194 0.050351895 0.103679575 0.05777085
000210 7d 43 5e 3e af ce fd 3c ae bd 03 3e 15 ae 79 bd
       0.21705432 0.030982343 0.12865326 -0.060957033
000220 65 c5 c0 be 0d 17 fe 3d ac b3 e7 bc 5c ae dc 3d
       -0.376506 0.1240674 -0.028283916 0.10775444
000230 aa 83 9b bd 01 fd dc be dc ca cc 3e de f4 57 3e
       -0.07593472 -0.43161777 0.3999852 0.21089503
000240 b5 6e c5 3d 19 36 b4 bd 69 42 ec bd a8 16 84 3e
       0.09640256 -0.08799381 -0.11536104 0.25798535
000250 e3 28 0a bd 58 48 8e 3d 2e 95 b7 bd 0a 19 51 bd
       -0.0337304 0.06947392 -0.08964001 -0.05104927
000260 db 71 1c 3d c7 44 4f be 4c 6c f0 bb c5 00 91 bd
       0.03819452 -0.2024108 -0.0073371287 -0.07080225
000270 4c b4 99 bc 74 36 cd bd 8b 0b 48 bd 97 fa 25 be
       -0.01876273 -0.10020152 -0.048839133 -0.16208874
000280 6e 30 f9 3d 7f de 60 3e 59 50 dd 3d 67 fc 3f bd
       0.1216744 0.21959876 0.10806341 -0.04687157
000290 d5 8b 93 bc e2 23 2c 3e 13 1f 36 3e ec 85 96 3e
       -0.018011013 0.16810563 0.17785291 0.2939905
0002a0 05 e1 e9 bb c4 d0 af bd 0f 46 04 bc 34 9c 74 3e
       -0.00713742 -0.08584741 -0.008073344 0.23887712
0002b0 db d8 88 3e 84 f8 20 3e 06 c7 cc bc fd 8e f7 bd
       0.26727948 0.15719801 -0.024997246 -0.1208782
0002c0 53 ab 14 be 35 bb 21 3d b6 a3 2c ba 8a df 0a 3d
       -0.1451848 0.039485175 -0.0006585674 0.03390459
0002d0 3b 99 8c bd e7 e9 36 3d e7 e8 36 bd 7c 6d 8d be
       -0.06865164 0.04465666 -0.044655707 -0.27622592
0002e0 80 2a 14 be 09 e6 46 3d 1a fe 09 3e 49 34 a9 3d
       -0.14469337 0.048559222 0.13475838 0.08261926
0002f0 25 30 d9 bd 7b 04 9d be 11 80 00 3e 2e fb 17 3e
       -0.10604886 -0.3066748 0.12548853 0.14841911
000300 87 51 1b 3e 39 18 50 be 26 a0 7e be ff 7b 8f 3c
       0.15167819 -0.2032174 -0.2486578 0.01751518
000310 67 56 2f 3d cf ab 34 3e 99 8b 54 3d 41 c1 0e be
       0.04280701 0.17643665 0.051890943 -0.13940908
000320 b9 8b ef 3c 58 7f 8f 3d 5a 49 51 3e d6 fa 4e 3e
       0.02924143 0.07006711 0.20438138 0.20212874
000330 3c 62 bd 3d 9a 7e 0c 3e d0 b0 22 3e c6 00 aa 3d
       0.09247252 0.1372017 0.15887761 0.08300929
000340 05 85 19 bd ec 5b 03 be 91 9c cf 3d 64 d8 60 3e
       -0.037480373 -0.12828034 0.101372845 0.21957546
000350 64 df 74 3e be 97 be bc 8d c8 ac bd 88 27 e6 3d
       0.23913342 -0.023265716 -0.084366895 0.11238009
000360 a3 66 83 3d 64 ee 97 b8 8e ea 8e bd f1 22 f1 bd
       0.06416061 -7.244645e-05 -0.069783315 -0.11774243
000370 52 a8 25 be 84 c1 29 3c 9d cd 95 3d bc de b9 bd
       -0.1617749 0.010361079 0.07314608 -0.09075686
000380 fd 0f d6 3b 89 a3 53 be 84 08 6e 3d 81 c0 6f be
       0.0065326677 -0.20667852 0.05811359 -0.23413278
000390 3a 59 56 be f7 f6 3b be e0 44 e1 3b 87 17 15 bd
       -0.20932475 -0.18355928 0.0068746656 -0.03639939
0003a0 bf 90 cb bd 18 6e 91 be 49 ad 03 be 6f 0a 57 3d
       -0.099397175 -0.28404307 -0.12859072 0.052500185
0003b0 eb db fc 3d fe 14 60 3e 4d 03 ee 3e 29 24 50 3e
       0.123466335 0.21883008 0.46486893 0.20326294
0003c0 34 b2 c4 3b e3 0b d5 bd 0f 18 a5 3e 88 1d df 3e
       0.006002689 -0.10402658 0.32244918 0.43577218
0003d0 61 c9 22 3e 38 76 48 bd c0 a6 b2 3d 7c 92 25 3e
       0.15897132 -0.048940867 0.08723211 0.1616916
0003e0 3b 28 75 bd a2 d1 68 bd 4b 91 a6 3d b8 39 60 3e
       -0.05985282 -0.056840546 0.08133181 0.21897018
0003f0 02 02 83 3d 5e b9 bc bd f1 7a 34 3e 07 03 b8 3c
       0.06396867 -0.092150435 0.17625023 0.022462381

conv1.bias f4 [12]
000000 04 24 d6 bd b9 32 01 bb d7 58 f5 bd cc 09 12 be
       -0.10456088 -0.001971407 -0.119798355 -0.1426155
000010 93 45 ad be b6 e0 a5 3d f5 d7 80 bd 6b 7f 5c be
       -0.33842143 0.08099501 -0.062911905 -0.21532981
000020 42 5a 32 3d a1 e8 2c bc e1 f5 b4 bd c3 5c 0a be
       0.043543108 -0.01055351 -0.0883596 -0.13511948

bn1.weight f4 [12]
000000 42 fb a3 3e 9f 85 6d 3f f3 8c ff 3e 08 15 24 3f
       0.32027632 0.92782015 0.49912223 0.6409459
000010 26 bd 30 3f 73 14 16 3f 82 26 f6 3e d9 af 0e 3f
       0.6903862 0.58624953 0.48076254 0.5573707
000020 b8 4f 8e 3f 2b ea 2b 3f bd be 0f 3f aa f5 06 3f
       1.1118078 0.67154187 0.5615042 0.52718604

bn1.bias f4 [12]
000000 ce fc 01 be 6c fa 1c 3f 2e 40 18 be eb 6e 89 3d
       -0.12694094 0.61319613 -0.14868233 0.06710609
000010 d4 1e fd be 8e 2a b1 bd bf 86 ab 3c 9b 29 ce be
       -0.49437582 -0.08650695 0.020938275 -0.40266117
000020 ae 3f 29 3f 06 35 c6 3d 0b 4f e1 3e 5a bf 01 be
       0.6611279 0.09678082 0.44005617 -0.12670651

bn1.running_mean f4 [12]
000000 5f 51 1e 3d a7 71 c6 bc e2 d1 74 bd d5 bb 95 3c
       0.03865182 -0.024224116 -0.059770472 0.018278042
000010 fa 6a 95 3d 81 9c f5 bd 41 34 48 bd 55 ed a4 bc
       0.07295795 -0.119927414 -0.04887796 -0.0201327
000020 46 80 fc bb ad 5b 31 3c 6f 64 81 3b 21 29 88 3d
       -0.007705721 0.01082508 0.00394874 0.0664847

bn1.running_var f4 [12]
000000 2d 7f 0d 3e f6 c2 9b 3d 7d f1 c0 3e 3d d5 d2 3d
       0.13818045 0.07605545 0.3768424 0.10294578
000010 8d 10 52 3f 9c 9a 68 3e 6b 7d f8 3d 90 c8 9d 3e
       0.82056504 0.22715229 0.121332966 0.3081708
000020 4b b6 75 3d a8 ec 24 3e 63 48 79 3d 48 bb 0f 3e
       0.0599883 0.16105902 0.06086005 0.14036286

conv2.weight f4 [12, 12, 5, 5]
000000 13 b3 fc 3d a2 ca 35 3e 84 ec 05 3e 3c 5f 0f 3e
       0.12338843 0.1775308 0.13078505 0.14001173
000010 c3 a4 84 3c 51 e9 4d bd fb dc de bd 29 d3 57 bd
       0.016191846 -0.050271336 -0.108819924 -0.052691612
000020 39 33 e7 bc 04 28 97 3b ed 46 53 bd 95 17 eb bb
       -0.028222667 0.0046129245 -0.051581312 -0.007174442
000030 81 45 45 bd ab 8a 00 be fe 94 82 be 1a 05 53 bd
       -0.048161987 -0.12552898 -0.25504297 -0.051518537
000040 c5 55 5c 3d c6 cb a4 bc cb ab 53 bd bd b5 01 be
       0.053792734 -0.020116698 -0.051677506 -0.12666984
000050 9d 55 15 be 3a 25 46 bc a3 ce de bd 24 1b b5 bd
       -0.1458344 -0.012093836 -0.108792566 -0.08843067
000060 d6 b6 3e be 6f 48 a0 3d 9c 7b 0d bb 33 6b 9b 3c
       -0.18624434 0.078263156 -0.002158857 0.018972015
000070 b8 3c b0 bd 6d 93 62 bd 93 8d 1c be c3 2c 09 be
       -0.08605331 -0.055316377 -0.15288381 -0.13395981
000080 3b e6 34 be 2c 8e b0 bd c6 df d7 3c f0 d9 e8 3d
       -0.17665951 -0.08620867 0.02635182 0.11369693
000090 3b 81 68 3e f7 cb 7d 3e 3a fd 26 3e d4 f1 d4 3d
       0.22705548 0.24784838 0.16307536 0.103976876
0000a0 12 54 59 3d ec 32 da 3c 24 d0 8f bd 03 77 8a bd
       0.05305869 0.02663561 -0.070221215 -0.06760981
0000b0 d7 0a 92 bb df c5 14 bc 0a 09 1f be 1f 4b 04 be
       -0.0044568586 -0.009080379 -0.15530792 -0.12919281
0000c0 a7 3c 29 bd df c0 04 3e 1a ff 06 3c 15 8c 0c 3e
       -0.04131761 0.129642 0.008239532 0.13725312
0000d0 5f 74 0c 3e 62 e1 bb 3d 34 a7 73 3d 86 8e d4 bc
       0.13716267 0.09173848 0.05948563 -0.025946867
0000e0 0f 1c 9b 3c 10 1e 7e 3c dc 47 42 3c 3a d8 a2 bd
       0.018934278 0.015510097 0.011857953 -0.07951398
0000f0 df 4c 0f be 42 8d 47 be f8 f1 ae bd c0 81 f4 bd
       -0.13994168 -0.1948748 -0.085422456 -0.1193881
000100 b9 b2 f5 bd 09 9b c3 bd 2d 40 59 bd e1 1c d3 bc
       -0.11996979 -0.09551055 -0.05303972 -0.025770606
000110 80 79 a9 bc 52 ce fe 3c bb 04 15 be 38 45 a8 bc
       -0.020687819 0.03110424 -0.14552586 -0.020540819
000120 56 b9 f0 3c 0d 85 c7 3d 7a 82 d4 3d 4a 3a a3 bd
       0.02938525 0.09742174 0.10376449 -0.07970102
000130 97 1b ee bd 90 20 77 bd 27 12 df bd 8e 54 19 be
       -0.11626356 -0.06033379 -0.10892134 -0.14973661
000140 a6 48 86 3d 62 e1 28 3d 6f 44 91 bd f2 ac fd 3c
       0.06556825 0.041230567 -0.07093131 0.030966256
000150 a0 ad 1f be 3e 58 fc be ce d5 f7 be c1 9e f8 be
       -0.15593576 -0.49286073 -0.48405308 -0.4855862
000160 48 2d be bd 18 2b a4 bd cf fd db bd 24 75 1e bd
       -0.092859805 -0.08016032 -0.107417695 -0.038685933
000170 c4 50 c6 bc c6 0b 02 3d ba 08 ba 3b 2f 31 ca 3d
       -0.024208434 0.03174951 0.00567731 0.09872662
000180 26 84 2f 3d 79 d3 2b bd 0c 91 57 3c 4c 14 ca bd
       0.042850636 -0.041949723 0.01315714 -0.098671526
000190 b6 40 21 3e b9 1a ef 3d bd 12 06 bd 81 65 da bc
       0.15747342 0.11675019 -0.032732714 -0.026659729
0001a0 e7 86 5e bd 55 cc 82 3e d5 0f 58 3e 24 71 73 3e
       -0.05432787 0.25546518 0.2109979 0.23773628
0001b0 67 8b 43 3e c0 f0 06 3e ff 72 c1 3d 71 6a 0a 3e
       0.19096147 0.13177776 0.09445762 0.13517167
0001c0 98 aa 07 3e da a0 7d 3b 9b fe 6b bd 30 8d ac bd
       0.1324867 0.0038700611 -0.057615858 -0.08425367
0001d0 08 8b 82 bd 14 7e 82 bd 33 7d c5 bd 18 41 a8 bc
       -0.06374174 -0.06371704 -0.096430205 -0.020538852
0001e0 11 28 41 be 24 89 6f be ac c6 28 be 38 d4 2b be
       -0.1886294 -0.23392159 -0.16482037 -0.16780174
0001f0 9e aa 48 be 96 99 76 3e 8b 3f 7f 3e dd 0a 09 3e
       -0.19596335 0.24082026 0.24926583 0.1338305
000200 21 fd 26 3e 0c b8 cd 3d 47 16 98 3d 48 5d ff 3d
       0.16307499 0.1004487 0.07426124 0.12468964
000210 6f b4 35 3e f6 77 1f 3e b4 e1 be 3c d4 12 79 be
       0.17744611 0.15573105 0.023300983 -0.24323589
000220 b1 be 47 be e8 e8 46 be 24 08 09 be 13 bb 32 be
       -0.19506337 -0.19424784 -0.13382012 -0.17454176
000230 c7 b6 96 be 46 9f bd be b7 6d 96 be 6f 66 54 be
       -0.29436323 -0.37035578 -0.2938058 -0.207422
000240 92 6c 29 be 2c 6e 47 3d cf 62 c6 3d 13 72 91 3d
       -0.16545323 0.048689052 0.09686815 0.07101836
000250 db af 16 3e 52 70 1a 3e 04 33 22 be 5d 51 f4 bd
       0.14715521 0.1508191 -0.15839773 -0.11929581
000260 ad 27 94 3d 59 1d e1 3d 38 6d 0c 3d 73 90 55 3d
       0.0723413 0.10991926 0.034283847 0.05213971
000270 12 ad b7 3b da 44 99 3d f5 7f 8b 3c 83 7d ee bd
       0.0056053484 0.074838355 0.017028788 -0.11645033
000280 79 3d ad 3d 72 b5 85 be 95 f9 a3 be a5 c1 88 be
       0.084589906 -0.26114994 -0.32026353 -0.2671024
000290 6f 99 89 be c9 54 7d bc 2f 9a aa bd 3d 22 e2 bd
       -0.26874873 -0.015462109 -0.083301894 -0.11041687
0002a0 41 d9 e3 bd 9b 0f ac bd 93 8b 66 3e 5c 0c 56 3e
       -0.11125422 -0.08401414 0.22514181 0.20903152
0002b0 75 62 7d 3e fd 5c 3c 3e e3 ef 49 3d 5b 73 32 3d
       0.2474459 0.18394847 0.04930104 0.043567043
0002c0 26 b9 0e 3d b1 e8 95 bb 28 1a fd bc 3b 9e b3 bd
       0.03484454 -0.004574858 -0.030896261 -0.087704144
0002d0 2e 46 5b bd 39 be b1 3d fd 07 bd 3d 5a cb cc 3d
       -0.053533725 0.0867886 0.09230039 0.09999724
0002e0 a7 77 3a bc a3 ae d0 bc 75 18 44 3e 65 15 57 3e
       -0.011381066 -0.025473898 0.19149955 0.21004255
0002f0 6e 3a 86 3e 10 9b bf ba 1f eb a0 3c ae a7 97 3d
       0.26216453 -0.0014618356 0.019643364 0.07405029
000300 db 02 05 3e bb ad e0 bd 73 0f 28 be b3 fc 58 3d
       0.1298937 -0.109706365 -0.16412143 0.052975368
000310 db 27 51 3e 11 e9 b8 3e 86 ac 56 3e 81 f2 55 3e
       0.2042536 0.36115316 0.2096425 0.20893289
000320 2d 60 cc bd 5e b1 87 3d 0c 06 da 3d 74 25 d7 3d
       -0.099792816 0.06625627 0.106456846 0.105051905
000330 5d 7b 30 3e 7c d1 d2 3d cb dd 5b 3c 04 06 d1 bd
       0.1723456 0.10293862 0.013419579 -0.102062255
000340 3c 97 1e bd 00 73 2b be 25 8a 9b 3c b8 9c 15 be
       -0.038718447 -0.16743088 0.01898677 -0.14610565
000350 e1 53 99 be 46 72 b8 be 12 6c 4b be 5c e5 55 bd
       -0.29946807 -0.36024684 -0.19865444 -0.052220687
000360 d4 d8 48 3e b7 4e 92 3e 34 7d b8 3e da 44 8a 3e
       0.19613963 0.2857568 0.36033022 0.27005655
000370 83 0b 87 bd a3 4b ce bd 65 63 24 be 05 83 3d be
       -0.065939926 -0.1007302 -0.16053541 -0.18507011
000380 9e 0c 20 be 2f 7d b2 bd 8f 80 aa bd 74 36 e3 3c
       -0.15629813 -0.08715283 -0.08325302 0.027735926
000390 19 0d a9 bd 77 5b bc bd a7 4d a3 bd 2b a3 83 bd
       -0.08254451 -0.09197133 -0.079737954 -0.06427606
0003a0 e8 fc 05 be 74 45 17 be f4 55 b9 bd 5c 5a 5e 3d
       -0.13084757 -0.14772588 -0.090495974 0.054285392
0003b0 f2 ed f3 3c 2d 4e df 3d 6a 68 35 3d 63 22 56 3b
       0.029776547 0.10903583 0.04428903 0.0032674305
0003c0 c1 44 03 3e af fe 7d 3d 36 a0 06 3e 5f 8d 2c 3e
       0.12819196 0.062010463 0.13147053 0.16850804
0003d0 47 bd b9 3c a2 2a 92 3c cb b9 05 be 83 83 58 bd
       0.022673262 0.017842595 -0.13059156 -0.052859794
0003e0 68 1a f8 bc d3 1d 54 3c 13 0e 9f 3c 63 04 51 3b
       -0.030286029 0.012946564 0.01941589 0.0031893484
0003f0 80 56 9d bc b3 33 15 3e 47 b3 c7 3d 3c 23 42 3e
       -0.019206285 0.14570503 0.09750991 0.18958753

conv2.bias f4 [12]
000000 94 ac 7d bc a1 f3 40 be 50 7f 8c 3d 8b b4 24 be
       -0.01548304 -0.18842937 0.068602204 -0.16084497
000010 81 f0 5c bd da b1 d0 3c b5 12 13 bd c9 0c 06 be
       -0.0539403 0.025475431 -0.035906512 -0.13090815
000020 87 73 3d bd 2a 53 a0 bd 55 8a 16 3d ec 42 35 be
       -0.046252754 -0.07828362 0.036753017 -0.1770131

bn2.weight f4 [12]
000000 e2 a6 3b 3f 9c fd 15 3f 0c 22 3f 3f 4a 61 75 3f
       0.7330152 0.585901 0.74661326 0.95851576
000010 54 04 2f 3f 95 9b 14 3f cf 19 82 3f 24 25 46 3f
       0.6836598 0.580499 1.0164126 0.7740042
000020 e1 76 85 3f 8a 45 fa 3e 72 2a 68 3f 43 a3 25 3f
       1.0426904 0.4888118 0.90689766 0.6470224

bn2.bias f4 [12]
000000 1c 81 f5 bd 20 a0 b2 be 1b 1e c7 bd 79 af ab be
       -0.11987516 -0.3488779 -0.09722539 -0.33532313
000010 5c 12 3f be 4d 98 a7 bd e7 21 1f be 79 2f 07 be
       -0.18659347 -0.08183346 -0.15540276 -0.13201703
000020 fb 95 9a be cd fd 08 be b5 8c d8 bd 6c da a0 be
       -0.3019255 -0.13378067 -0.10573713 -0.31416643

bn2.running_mean f4 [12]
000000 f5 00 cc be 99 a5 82 3f a5 b2 76 bf 91 67 18 bf
       -0.3984448 1.0206786 -0.9636634 -0.5953303
000010 1d 31 52 be fa df 60 bf 93 e7 16 bf a9 bd ed be
       -0.20526548 -0.8784176 -0.58947104 -0.46433762
000020 fe d4 b9 be e6 3e 35 c0 bb 95 a6 be 6a 6a 0f bf
       -0.36295313 -2.831964 -0.3253611 -0.5602175

bn2.running_var f4 [12]
000000 f0 10 47 40 b6 ff 1e 40 07 98 19 40 61 d2 8c 40
       3.1104088 2.4843574 2.399904 4.400681
000010 29 d8 0e 40 03 b0 9a 40 d9 d3 9b 40 31 5f ca 40
       2.2319434 4.833986 4.8696103 6.32412
000020 49 b1 50 40 d5 4b 67 40 db f3 cb 40 48 37 3e 40
       3.2608206 3.6140034 6.3735175 2.972124

conv4.weight f4 [24, 12, 5, 5]
000000 d3 4a 3c 3d dc d9 c7 3d 15 56 ce 3d 36 9a 0f 3e
       0.045969795 0.0975835 0.100750126 0.1402367
000010 b7 f8 b5 3c bf c8 11 be fe dd 55 3c 22 c7 71 3d
       0.022213323 -0.14236735 0.013053415 0.0590278
000020 eb 91 16 3d c0 b7 bc bd dd b8 00 be b6 68 68 3d
       0.036760252 -0.09214735 -0.1257052 0.056740485
000030 03 2d fd 3d af 11 e7 3d 34 f1 44 3c 27 bc 24 bd
       0.12362101 0.1128267 0.012020398 -0.0402185
000040 bf a6 00 3e 27 07 14 3e e2 d0 70 3d 49 ca 1c be
       0.12563609 0.14455853 0.058792956 -0.1531154
000050 e6 f1 e6 be d4 f3 9f be f5 38 73 be 99 53 d9 be
       -0.4510643 -0.31240714 -0.23752196 -0.42446592
000060 75 d3 09 bf 9b eb 8b bd 3e d8 3d be e0 a3 c8 3d
       -0.5383828 -0.068320476 -0.18539521 0.09796882
000070 98 3b 81 3d 4d 26 ac bd 50 4b e5 bb be 08 93 bb
       0.06310195 -0.08405743 -0.0069975033 -0.004487126
000080 df 2a 5c 3d 59 4f 57 bd b0 63 7f be e7 01 d3 3c
       0.053751823 -0.052565906 -0.24940372 0.025757743
000090 8e ab 31 3e ef 71 37 3e c6 6c e8 3c 93 94 6e bc
       0.17350599 0.17914556 0.02837218 -0.01456179
0000a0 f0 73 eb bc df 77 8c 3c 60 7c 9e 3d 4d a2 1c bd
       -0.028741807 0.017147003 0.077385664 -0.03824072
0000b0 f8 8d c8 3d 22 84 5f be 67 79 30 be e3 ea 1e be
       0.097927034 -0.21827748 -0.17233811 -0.1551929
0000c0 b2 b2 48 be fa ce 71 be 0d 59 cb 3d a7 44 0e 3d
       -0.19599417 -0.23614112 0.099290945 0.03473344
0000d0 e4 25 7a be bd 47 b8 be 3e ca ff 3c f9 c0 13 be
       -0.24428517 -0.35992232 0.031224366 -0.14429082
0000e0 bb 0b 20 be fe 67 9a bc 3f 64 40 bd dd 10 51 bd
       -0.15629475 -0.018848415 -0.046970602 -0.051041473
0000f0 c9 ac a6 be 7b d7 72 be 34 58 98 bd 3c 9a a0 bd
       -0.325537 -0.23715012 -0.074386984 -0.07841918
000100 4a 3f 87 bd 79 35 17 be f3 bc 29 3d 81 93 4c 3d
       -0.06603868 -0.14766492 0.04143996 0.04994536
000110 fd 0f 62 bc cd d5 39 be 22 9a 65 be aa 33 15 be
       -0.013797757 -0.18147965 -0.22422078 -0.1457049
000120 a5 80 7c be 62 5b c8 be 0a 7a 9d be 73 94 1e 3e
       -0.24658449 -0.3913222 -0.3075717 0.15486316
000130 61 cf 83 3e 46 c7 5f 3e bc 76 c4 3d 4f dd b7 bd
       0.25744155 0.2185336 0.09592959 -0.08977758
000140 49 37 2d bd 33 7e 34 3e 60 16 99 3e 8e 68 85 3d
       -0.042289052 0.17626266 0.29899883 0.06514083
000150 5c 01 73 be 2e a5 82 be 8b 40 af 3d b5 bf 2b 3e
       -0.23730987 -0.25516647 0.085572325 0.16772349
000160 ae db 0d 3e 42 07 05 3e 2c 2a 0c be 1d a0 cd 3d
       0.13853332 0.1299105 -0.13687962 0.10040305
000170 bf 37 0a 3e cf f8 6b 3e 9d 27 65 3e 31 b3 39 be
       0.13497828 0.23044132 0.22378393 -0.18134762
000180 75 38 14 be 54 17 60 be fe a2 33 be 11 dd d9 bd
       -0.14474662 -0.21883899 -0.17542645 -0.10637868
000190 fd 60 87 3d c3 48 d5 bd 64 56 e6 3d 61 87 a9 bd
       0.06610296 -0.10414269 0.112469465 -0.082777746
0001a0 b4 1c 25 bc 00 73 a4 3a 2a c5 df 3d f1 e5 11 3e
       -0.010077644 0.001254648 0.10926278 0.14247872
0001b0 35 93 56 bc 0d 72 6b bc 85 46 b1 bd 42 6c 4c 3d
       -0.01309662 -0.014370454 -0.08656029 0.04990793
0001c0 de 8d d3 bb ae 62 ff bd e1 91 86 3d ae 26 69 bc
       -0.006456121 -0.124699935 0.06570793 -0.014230413
0001d0 16 41 ed 3c c0 b3 61 bd 4c 18 5d be 97 d3 ac 3d
       0.0289617 -0.055103064 -0.215913 0.08438795
0001e0 e4 ea eb 3d f8 55 de 3d e4 6c d0 3d fd 87 09 be
       0.11519411 0.10856241 0.10177019 -0.13430782
0001f0 f2 0a 13 3e 56 ab 14 3e 75 65 b3 3e 43 58 10 3e
       0.14359644 0.14518484 0.35038343 0.14096169
000200 84 c3 1a be 81 e9 90 bd 11 bb 70 3d 34 f6 34 3e
       -0.15113646 -0.07075787 0.05877215 0.17672044
000210 42 74 2c be 6d 34 9b be b0 0a 18 be 26 f3 52 3e
       -0.16841224 -0.30313435 -0.14847827 0.20600566
000220 27 ce 9a 3d a8 16 e2 bd 77 7a 8e bd 38 54 2a bd
       0.07558852 -0.110394776 -0.06956952 -0.041584224
000230 96 83 44 3e 7d fd 9e 3d 96 40 cc 3a 79 a2 c3 3d
       0.19190821 0.07763193 0.0015583213 0.095524736
000240 8e d6 d6 3d fd 1a 9a 3e e0 d9 0c 3e eb b8 f1 3d
       0.10490142 0.30098715 0.13754988 0.118028484
000250 3d 2d 82 3e b2 a1 b5 3d 31 00 b9 bd 78 a3 07 3e
       0.2542514 0.088687316 -0.0903324 0.13245952
000260 bd 4f 19 3e 6a 44 83 bd bf 0c 51 3d 55 44 8c 3d
       0.14971824 -0.06409533 0.051037546 0.06848971
000270 46 85 d2 3c c3 77 6b 3e 73 c5 0c 3d 02 0e 8c bd
       0.025698315 0.22994904 0.03436799 -0.06838609
000280 2f 5e 2a 3d 7e 75 f6 bc b2 a0 92 3d 46 a8 1c 3e
       0.041593727 -0.030085322 0.071595564 0.15298566
000290 45 16 ea bc c7 ec 5e 3e ba c2 96 3e 50 85 b6 3d
       -0.028575072 0.21770011 0.2944544 0.08912146
0002a0 8d 25 d6 bd 31 a4 06 bd 16 e8 2a be 50 87 85 3d
       -0.10456381 -0.03287143 -0.16690096 0.065199494
0002b0 67 5e 32 be b0 f9 66 be 54 83 60 3d 3e ef 24 3e
       -0.17418824 -0.22556186 0.054812744 0.16106889
0002c0 4a d2 54 3e 7c c7 80 3e 35 2f 5e 3e 8e ce e8 3b
       0.20783344 0.25152194 0.21697696 0.0071047014
0002d0 49 86 11 3d 5d 45 05 3e 88 b1 0e 3e 82 f9 c0 ba
       0.035528455 0.13014741 0.1393491 -0.0014722797
0002e0 3d 9d b6 bd 33 e3 bf bb 05 42 9b 3e 47 ef 5b 3e
       -0.089167096 -0.0058559417 0.30323806 0.21477996
0002f0 ea e9 94 3d f5 1c 1a 3d fe 2c 5d 3d d3 00 70 3e
       0.07271178 0.03762527 0.053997986 0.23437814
000300 95 3d 8a bc 42 91 bc bb 21 26 b6 3d 89 60 83 be
       -0.016875068 -0.005754621 0.08893991 -0.25659588
000310 e8 dc c8 bd 49 6c 9e be ba 91 5a be f3 24 e8 bc
       -0.098077595 -0.3094199 -0.21344653 -0.028337931
000320 f8 be a5 3d f6 9f 05 3e 01 f5 05 3e da fa ef 3c
       0.08093065 0.13049302 0.13081743 0.02929442
000330 90 35 8c bc bc 08 d8 3c e4 e4 dd 3d 03 0f 57 3e
       -0.017115384 0.026371352 0.10834673 0.2100182
000340 83 3e 86 bd 12 a2 a3 3a 18 8e eb bb d5 8a e7 3d
       -0.06554892 0.0012484214 -0.0071885698 0.11305777
000350 98 b2 a5 3d 72 53 1e bd 70 79 cc bd 58 48 ac be
       0.08090705 -0.0386538 -0.099841 -0.33648944
000360 a9 b6 8c bd 1c ff 6b be 72 b2 af be 97 b4 ce be
       -0.06870777 -0.23046535 -0.3431583 -0.40372154
000370 73 d6 8d be d4 15 2b be fc ae 3f be c5 d0 67 be
       -0.27702674 -0.16707546 -0.18719095 -0.22638233
000380 35 b8 9b be ea 95 0b bb f2 c0 45 bd 17 54 5d bd
       -0.30413976 -0.0021299073 -0.04827971 -0.054035272
000390 a5 18 a6 bd 9c 00 8f bb 60 2c 31 bd 4a b7 4b bb
       -0.08110169 -0.0043640863 -0.04325521 -0.003108459
0003a0 90 89 e2 3c b9 2f 2c bc af 40 84 3d c3 5b 0d bd
       0.027653486 -0.010509425 0.0645765 -0.03451134
0003b0 96 78 26 bd 3b 00 8d bd cd a6 1a bd 80 3c 8b 3d
       -0.040642343 -0.068848096 -0.03775673 0.06798649
0003c0 b5 6b 9d bd 7c ad cf bc 55 ef 1b bd 4a 8d df bd
       -0.07686559 -0.025351278 -0.03807004 -0.109156206
0003d0 72 0c a7 bd fe ea eb 3d 97 fd 58 3e e2 87 00 3e
       -0.08156671 0.115194306 0.21190487 0.12551835
0003e0 96 10 b9 3d 71 25 3c 3e 4b 1b 90 3e 69 c8 22 bd
       0.09036367 0.18373658 0.28145823 -0.039741907
0003f0 fc 03 07 3e 89 43 8e 3d 78 ae 03 bd 31 0c 1f 3e
       0.13185114 0.06946475 -0.03214881 0.15531994

conv4.bias f4 [24]
000000 3f dc d8 bd 2c fb 80 be a9 1b 02 3e 63 be d4 3d
       -0.105888836 -0.2519163 0.12705864 0.10387876
000010 c9 7a 25 bd 0b 63 a3 3b df 80 82 bb af fe 59 bd
       -0.0404003 0.004986172 -0.003982648 -0.0532214
000020 0b 41 a3 bd 4d 97 e8 bd c9 b1 26 bd 41 7e 62 bd
       -0.0797139 -0.11356983 -0.040696893 -0.055296186
000030 dc 3e c9 bd ae 1f a8 3d 69 c1 fc bd d4 2d 8b 3d
       -0.098264426 0.082091674 -0.123415776 0.067958504
000040 ca 94 31 bd dc a0 e5 3c ab 9f 10 be 3e a6 b8 3d
       -0.043354787 0.028030805 -0.14123408 0.09016083
000050 a1 b4 c4 bc 58 d8 01 3d d0 e8 b2 bd 1a bf 79 3d
       -0.024011912 0.031700462 -0.08735812 0.060973264

bn4.weight f4 [24]
000000 54 ca 27 3f 93 ae 50 3f 7f 87 55 3f bd 3a 6b 3f
       0.65543103 0.8151638 0.83409876 0.918865
000010 8e 3e 4a 3f 1e 30 51 3f df 9b 6e 3f d8 52 33 3f
       0.790017 0.81714046 0.9320659 0.70048285
000020 c9 09 45 3f ac fd 24 3f e6 4a 2d 3f f0 3d 55 3f
       0.76968056 0.6444957 0.6769241 0.83297634
000030 68 4e 39 3f 0c 60 2e 3f ac 9a 51 3f f2 93 6c 3f
       0.72385263 0.68115306 0.81876636 0.92413247
000040 a5 c7 28 3f 75 87 4f 3f e2 91 59 3f 03 9b 29 3f
       0.65929633 0.81066066 0.84988225 0.66252154
000050 aa 3d 60 3f 49 5e 2a 3f ef f1 19 3f c8 aa 4c 3f
       0.8759409 0.6655012 0.60134786 0.7994809

bn4.bias f4 [24]
000000 78 6b 87 be 6d da bb be 4f 50 66 3b 9b 33 a3 3d
       -0.2644918 -0.36690083 0.0035143082 0.07968827
000010 5d e7 42 be d3 3d a0 bd 8f 52 ee bd 71 04 31 be
       -0.1903357 -0.07824292 -0.116368406 -0.1728685
000020 27 b6 2c be 76 98 30 bd 8c a4 3d be 01 2e 02 be
       -0.1686636 -0.043114148 -0.18519801 -0.12712862
000030 b8 c9 1e be 56 02 cf 3c a5 93 8a be 3d 71 ff bc
       -0.15506637 0.025269669 -0.2706577 -0.031181926
000040 77 71 10 be ca ec 37 bd 24 a2 11 be 54 21 dd 3d
       -0.14105783 -0.044903554 -0.14222008 0.107973725
000050 cb 03 85 bd 79 56 b4 3d 40 58 82 bd ca 54 08 3e
       -0.06494864 0.08805556 -0.063644886 0.13313594

bn4.running_mean f4 [24]
000000 82 e6 4b 3f ef aa 3b bf 76 1a 49 bf d5 2d 25 c0
       0.796486 -0.733077 -0.78556 -2.5809224
000010 bd 41 af bf de 17 8d be fe 5e 39 c0 51 ae 54 3f
       -1.3691937 -0.27557272 -2.8964229 0.83078486
000020 a0 68 62 bf 9c a3 07 c0 2c 92 b0 3f ea 28 18 c0
       -0.88440895 -2.119361 1.3794608 -2.3774972
000030 a3 c2 55 bf 40 b1 c8 bf 4e af 2c bf b2 ac 33 c0
       -0.8350012 -1.5679092 -0.67454994 -2.8074155
000040 b1 e7 3d bf 96 64 6e be 35 ca af bf 3b 2f 79 3f
       -0.7418166 -0.23280558 -1.3733584 0.9733769
000050 b5 3b 21 3f 08 1b ef bf d8 e4 81 bf a6 6c bc bf
       0.6298173 -1.8680124 -1.0147963 -1.4720657

bn4.running_var f4 [24]
000000 78 48 3f 40 c9 75 56 40 43 75 18 40 d2 7e 61 40
       2.9887981 3.350939 2.382157 3.5233655
000010 f2 12 2c 40 52 7b 43 40 7b ff 7d 40 37 4c 0b 40
       2.6886563 3.0544019 3.9687183 2.1765268
000020 30 5c 45 40 6d b8 7c 40 bc d6 17 40 8a 93 5b 40
       3.0837517 3.9487565 2.3724813 3.43088
000030 c0 ce 1e 40 0c 54 91 40 b2 73 26 40 61 95 9f 40
       2.481369 4.5415096 2.6008115 4.9869847
000040 c0 ff 06 40 f4 b4 33 40 30 ab 67 40 df be 17 40
       2.1093597 2.8079195 3.6198235 2.3710248
000050 62 92 de 3f 49 e9 78 40 cd d3 1d 40 e2 a1 4e 40
       1.7388422 3.8892386 2.4660523 3.2286305

conv5.weight f4 [24, 24, 5, 5]
000000 e8 fe b1 3d 93 a2 2f be d4 c1 da bd 4c da 05 3d
       0.08691198 -0.17151861 -0.10681501 0.032678887
000010 ee 7d 3b be 90 b2 3c 3e 78 f3 9f bd 1c 6b 80 3d
       -0.18309757 0.18427491 -0.0781011 0.062704295
000020 53 4b 50 3e 5b 51 3b be 16 ec 4b 3e 9d d8 03 3d
       0.20341234 -0.18292753 0.19914278 0.032189
000030 3a e8 38 3d 30 de de 3c b7 6b 68 be f4 27 8c 3d
       0.045143344 0.027205557 -0.2269734 0.06843558
000040 ab 83 97 3d 11 67 1a 3e 3a b7 49 3d 40 d1 48 be
       0.073981605 0.15078379 0.049247004 -0.19611073
000050 4e 55 d7 3d 4f 05 a1 3c 0e ea 23 bd 56 3a 0b be
       0.105143175 0.019655852 -0.040018134 -0.13596472
000060 ef 04 8e be fc c1 c5 3d 23 ff 11 3e a9 22 74 3e
       -0.2773814 0.0965614 0.14257483 0.23841347
000070 71 32 68 3d 8c 92 b0 3c 17 0a 82 bd 18 ba c0 3c
       0.05668873 0.021554254 -0.06349581 0.023526236
000080 30 b4 cc 3d b4 d4 9b bc ee 38 cb 3c 90 15 8c 3d
       0.099953055 -0.019022323 0.02480742 0.0684005
000090 28 0c a4 3d ef f0 b2 3c 57 db a0 bc 8c e0 18 3e
       0.08010131 0.021843402 -0.01963584 0.14929408
0000a0 5a c9 43 bd a7 84 59 be 66 82 2f be a9 42 23 be
       -0.047799446 -0.21242009 -0.17139587 -0.15943398
0000b0 f0 05 4d bd 98 b4 77 3d 5c e4 4f bc 2f 1b 74 3e
       -0.05005449 0.060474962 -0.012688722 0.23838495
0000c0 46 bc 39 3e d7 c9 a3 bd c3 51 a6 3e 45 a7 a4 3d
       0.18138227 -0.07997482 0.32484254 0.08039717
0000d0 b5 04 01 3d a0 31 73 bd f6 7c fb bd 9a e9 43 3e
       0.03149863 -0.059373498 -0.12279694 0.1913208
0000e0 b8 57 3b 3e 55 95 bd 3d 41 b6 b8 bd f5 20 c9 3b
       0.18295181 0.092569984 -0.09019137 0.006137962
0000f0 c4 5f 76 3e ac c9 41 3e c8 c6 8f 3e c5 97 be 3d
       0.24059969 0.18924588 0.28081346 0.093062915
000100 0d 11 15 3e c8 e0 2a 3e 5f 2a 8e bc 09 61 eb bc
       0.14557286 0.1668731 -0.017354188 -0.028732793
000110 8f af 09 be 28 d4 b6 be bb ee 25 3d d4 04 da 3c
       -0.13445877 -0.35708737 0.040510874 0.02661363
000120 9c 84 b8 bc bf 1f 1a be 62 a2 01 bf 2e bf a0 bd
       -0.02252417 -0.15051173 -0.506384 -0.07848965
000130 61 c0 25 3d e7 b8 39 3e b1 f4 46 3e f3 e6 72 3e
       0.04046667 0.18136941 0.1942928 0.23720913
000140 66 40 93 be bb 52 05 be de 9b 1a be 09 0a 63 be
       -0.2876007 -0.1301984 -0.15098521 -0.22171797
000150 84 7d 00 be 97 d8 02 bd c3 0a d8 bc 85 4e 06 be
       -0.1254788 -0.031944837 -0.02637232 -0.1311589
000160 4b d2 88 be 94 d1 aa be 92 63 33 be 69 c5 e3 bd
       -0.2672294 -0.3336302 -0.17518452 -0.111216374
000170 0c c3 9e bd 97 44 06 be 20 23 55 be 80 60 0d be
       -0.07752046 -0.13112102 -0.2081418 -0.13806343
000180 45 7f 15 bd 78 f6 15 3e 70 da c4 3d a2 4c 98 bd
       -0.036498327 0.14644802 0.09611976 -0.074364915
000190 f1 69 86 bd 63 44 f5 bd cf 4f 0c bd dc 3f c3 bc
       -0.065631755 -0.11975934 -0.0342558 -0.023834161
0001a0 98 61 f4 3c ef 32 13 be de 49 68 be 1e 48 fb bc
       0.029831693 -0.14374898 -0.22684428 -0.030674037
0001b0 12 51 dd 3d 8c ba fc 3d 8c 68 d0 bd b4 75 2c be
       0.108064786 0.123402685 -0.10176191 -0.16841775
0001c0 61 db c7 bc 07 fc a6 bd 2a 77 00 be 4d ca 45 be
       -0.0243966 -0.08153539 -0.12545457 -0.19315453
0001d0 14 c9 87 be 77 4e 08 be 95 98 d5 bd 3e 66 20 bd
       -0.26520598 -0.13311182 -0.10429493 -0.039160006
0001e0 48 74 d2 3d 6b c2 da bc 76 01 09 3e 43 d8 9b 3d
       0.10276085 -0.026704034 0.13379464 0.07609608
0001f0 0d 43 ef bc 5a 72 ad 3e a7 64 7f 3e 24 55 a0 3e
       -0.029206777 0.33876306 0.2494074 0.31314957
000200 dc e9 29 3d c7 a7 56 be f4 32 58 3e f4 d1 87 bd
       0.04148279 -0.2096244 0.21113187 -0.06631842
000210 b7 05 e3 3c 1e ca 8e bb 28 55 ce bc 90 d7 86 3e
       0.027712686 -0.0043575903 -0.02518709 0.26336336
000220 6b 1f 8e 3c 1e cb 1b 3e 17 07 20 3e 23 7d 8a 3e
       0.017348966 0.15214202 0.15627705 0.27048597
000230 dc 78 72 3b a3 7b f2 bc ce e5 a0 bd c3 95 0d 3d
       0.0036998307 -0.02959997 -0.07856332 0.034566652
000240 2d 30 91 3d 08 26 15 be 40 38 a4 be f4 b4 11 be
       0.07089267 -0.14565289 -0.32074165 -0.14229184
000250 40 88 40 3d 36 a9 3f bc 4c bc 06 3e 81 ae 0b be
       0.047004938 -0.011698058 0.13157767 -0.13640787
000260 c8 f8 e5 bd f9 e8 33 bc 15 30 84 3c ae b6 fc 38
       -0.11229092 -0.010980838 0.016136209 0.00012050323
000270 11 6c c3 be ac 49 1a be a8 64 8e 3d 0f a7 de 3c
       -0.38168386 -0.15067166 0.069527924 0.02717927
000280 2f 4b d6 3d d7 37 88 be ee 67 0d be 88 a9 b2 3d
       0.10463559 -0.26605102 -0.13809177 0.08723742
000290 36 97 f6 3d 14 0d c3 3d 42 ac 98 be 6a 52 39 be
       0.1204056 0.09523979 -0.29818922 -0.18097845
0002a0 53 8b 8d 3d 27 e2 01 3e f2 3e 13 3d 64 8a 5f be
       0.069113396 0.12683927 0.0359487 -0.21830136
0002b0 56 27 89 bd fd a1 4b 3e 61 b2 1e 3e cf 2f 2c 3e
       -0.06696956 0.19886012 0.15497734 0.16815113
0002c0 7c da 8d 3d 60 18 2e 3e b0 a0 4d 3e 13 13 0a bc
       0.06926438 0.17001486 0.20080829 -0.008427399
0002d0 1b 05 ee 3d 7e 50 96 3c 1e c8 20 bd bd 6d 68 bd
       0.116220675 0.018348929 -0.039253347 -0.05674528
0002e0 e2 2a 56 be f1 9a b6 bd 46 48 5a be 98 15 71 be
       -0.20914796 -0.089162715 -0.21316633 -0.23543394
0002f0 42 0e 3c be c4 99 c4 be 93 f1 77 be 81 a3 50 be
       -0.18364814 -0.38398564 -0.24213247 -0.20374872
000300 db cf a5 be e3 bb cf be da eb 02 bf 4c 35 1d 3e
       -0.32385144 -0.40573034 -0.5114113 0.15352362
000310 a4 80 a6 bd ba f3 2c be f7 55 3f be 0f 9e 64 bd
       -0.08130005 -0.1688985 -0.18685137 -0.0558148
000320 4f 6f 21 be 84 8c e6 bd 9f 65 1c be 72 25 c7 3d
       -0.15765117 -0.1125727 -0.1527314 0.09723939
000330 5f 81 1f 3e 54 98 34 3e 78 f8 2b 3e 70 8b 4a 3e
       0.15576695 0.17636234 0.16794002 0.19779754
000340 94 1d 96 3d 83 ce f8 3d 75 53 19 3d 17 e8 f8 bd
       0.0732986 0.12148764 0.037433106 -0.121536426
000350 0e d9 97 3d 89 89 90 3d e4 44 d7 3c d7 17 ff 3c
       0.07414447 0.07057483 0.026277967 0.031139297
000360 c4 0b 0b be 18 10 3a 3d 89 be 23 3d d5 cb 3d 3d
       -0.13578707 0.045425504 0.03997663 0.046336967
000370 66 16 14 3e fc 00 3a 3e 54 d2 73 3e 06 5d 23 3e
       0.1446167 0.18164438 0.23810703 0.15953454
000380 20 ef 39 3d d7 9f 8b bd 65 44 13 be 5d f4 02 bd
       0.045394063 -0.068175964 -0.14381559 -0.031971324
000390 e8 43 8a 3d 72 43 08 bd 8d 2f ec 3d f0 e3 a7 3b
       0.06751233 -0.033267446 0.11532507 0.005123608
0003a0 f7 50 4f bd 06 39 5c 3d 8b 90 c5 bd 82 73 95 3d
       -0.050614323 0.05376532 -0.0964671 0.07297422
0003b0 cf 69 1c 3c 1b 40 d2 bc 80 b4 66 bd 3f fc 43 be
       0.009546711 -0.025665333 -0.056324482 -0.19139193
0003c0 53 6e 00 bd e6 b7 35 bd a3 81 23 3d fe 32 9d 3d
       -0.031355213 -0.044364832 0.039918553 0.076757416
0003d0 be 22 8e be 71 f6 03 bd 51 78 8e bd d8 da 35 bc
       -0.2776088 -0.032217447 -0.06956542 -0.01109954
0003e0 d0 dd e7 3d 5d d9 9f be 75 38 b9 bb 10 44 d2 bd
       0.11321604 -0.31220523 -0.005652482 -0.10266888
0003f0 4f 94 bb 3d d3 ef ae 3d 0e 47 95 3d 0c 81 e2 3d
       0.09159147 0.085418366 0.07288943 0.1105977

conv5.bias f4 [24]
000000 62 e7 ec bc f3 1d 97 bd 2f 82 ae bd 3f 7e 03 3e
       -0.028918926 -0.07378759 -0.08520924 0.12841128
000010 6c 59 b4 bd 40 60 3e 3c 56 9b a4 3b e4 3c e0 bd
       -0.08806118 0.0116196275 0.0050234003 -0.10949114
000020 c8 a9 53 3b 85 c8 a8 bb b1 93 0f 3d 1a 65 be 3c
       0.0032297242 -0.005150857 0.03505296 0.023241568
000030 ee 90 61 3d 08 61 87 bd e1 4f 1a be d4 90 99 bb
       0.055069856 -0.06610304 -0.15069534 -0.0046864543
000040 23 95 83 bc 75 be 70 3d 27 8f ae 3d 9f 71 62 bb
       -0.016062325 0.058775384 0.08523398 -0.0034552587
000050 b7 68 32 3d ae 9d f5 3d bb 5f 41 3d c6 d8 6a 3c
       0.043556895 0.11992966 0.047210436 0.014333909

bn5.weight f4 [24]
000000 8f 06 fa 3e 54 c0 ed 3e cb c3 e6 3e 2a bb e6 3e
       0.4883313 0.46435797 0.45071253 0.4506467
000010 e7 4f c8 3e bb 6b ec 3e b0 76 da 3e c6 f8 e1 3e
       0.3912346 0.46175942 0.42668676 0.44135112
000020 17 e0 db 3e 8a 04 f0 3e 01 03 cc 3e c1 15 fc 3e
       0.42944404 0.46878463 0.39846042 0.49235347
000030 15 69 03 3f 12 43 e0 3e cc 80 25 3f 3b 2f e2 3e
       0.5133222 0.4380117 0.64649653 0.4417666
000040 52 b6 f1 3e 92 fd c9 3e ca 00 0c 3f ef 3a c8 3e
       0.47209412 0.3945127 0.54688704 0.39107463
000050 c3 aa bb 3e 47 a4 ee 3e 45 1e f7 3e 1a 36 e1 3e
       0.36653718 0.4660971 0.4826528 0.4398659

bn5.bias f4 [24]
000000 7c 5a 58 be d4 54 b9 be 8c f8 af be 56 fd 27 be
       -0.21128267 -0.3619753 -0.34369314 -0.16405234
000010 66 cb a8 be 43 55 ac be 14 2f 7e be 2d bb d5 be
       -0.3296768 -0.336588 -0.24822646 -0.41744366
000020 6a 8e c7 be 70 e6 8b be 67 a7 99 be 43 73 83 be
       -0.3897584 -0.27324247 -0.3001053 -0.25673875
000030 14 fb 93 be 32 80 a3 be 49 cd fd be 98 fb ac be
       -0.28902495 -0.31933743 -0.49570683 -0.337857
000040 af 99 b0 be d2 5b 81 be 2e 16 78 be 81 52 a7 be
       -0.3449225 -0.25265366 -0.24227211 -0.32680133
000050 a7 b7 77 be d5 8c 1c be f0 51 8d be c8 70 b8 be
       -0.24191152 -0.15288098 -0.27601576 -0.36023545

bn5.running_mean f4 [24]
000000 9b f9 65 c0 26 56 61 c0 3f 2f 9b c0 66 20 3d bf
       -3.5933597 -3.520883 -4.8495173 -0.7387756
000010 b4 59 5c c0 96 ee c3 bf 6b 78 16 c0 bb 84 5f c0
       -3.442975 -1.5307186 -2.3510997 -3.4924762
000020 88 21 02 c0 f4 11 45 c0 1a 68 b3 be b3 fe 7d c0
       -2.0332966 -3.0792208 -0.3504036 -3.9686706
000030 2b 6a a8 bf f2 27 c0 c0 6e ce 4a c0 8c b4 90 bf
       -1.31574 -6.004876 -3.1688495 -1.1305099
000040 47 25 03 c0 0c f6 fb bf 95 a0 8d bf ac 86 37 c0
       -2.0491502 -1.9684463 -1.1064631 -2.8675947
000050 ca 3c d6 bf 3e 32 a6 bf 34 2e af be 16 4f 5a c0
       -1.6737301 -1.2984083 -0.34214938 -3.411077

bn5.running_var f4 [24]
000000 1b 4b 14 41 57 70 c7 40 a0 7f 0c 41 bb 6e 81 40
       9.268336 6.2324634 8.781158 4.044767
000010 b7 a8 b8 40 60 ee 9c 40 57 8f ba 40 66 5e ac 40
       5.770595 4.9040985 5.8299975 5.3865232
000020 1c 48 8a 40 f2 6b c5 40 98 fa 8d 40 d4 f5 f0 40
       4.3213024 6.169427 4.43684 7.5300083
000030 14 16 d5 40 6c c6 19 41 ac b8 0f 41 dd da eb 40
       6.658945 9.610943 8.982586 7.3704667
000040 f0 14 e4 40 e8 0f 89 40 94 1d 06 41 93 b2 83 40
       7.127556 4.2831917 8.382221 4.1155486
000050 45 f1 cc 40 97 b9 c8 40 dc a3 b0 40 97 12 b5 40
       6.404452 6.272655 5.5200024 5.6585193

fc1.weight f4 [10, 2400]
000000 e6 bd 95 be 9d 60 6c be d8 2f 45 bd 34 25 8c be
       -0.29246444 -0.2308373 -0.04814133 -0.27372134
000010 38 cf 04 be b8 3d e3 bb b3 df cb bd 73 17 76 be
       -0.12969673 -0.0069348477 -0.099547766 -0.24032383
000020 ba 98 3c be f5 5f e8 be 76 f9 20 3d c3 f6 e2 bd
       -0.18417636 -0.4538571 0.039300404 -0.11082222
000030 84 fb c6 3c fe c1 06 3c ee 47 96 bc 43 dc 1c bd
       0.024289854 0.008224962 -0.018344846 -0.038295995
000040 a7 8a 0f 3d b7 68 5f be 5a 26 1f 3d ea 28 14 be
       0.03504434 -0.2181729 0.038854934 -0.14468732
000050 d7 b9 f4 bd 9a 74 00 be a0 9a 92 bd b6 ae f9 bd
       -0.11949509 -0.1254448 -0.07158399 -0.121915266
000060 bb 45 24 3c dd 65 9e bc fc 21 27 3d 9d 0b 83 be
       0.010026391 -0.019335682 0.040803894 -0.25594798
000070 9f 1e 30 be ad 54 10 be e4 d8 eb 3d 86 83 52 be
       -0.17199181 -0.14094801 0.11515978 -0.20557985
000080 ef 3f 96 bd 72 16 92 be b8 15 41 be e1 dd 52 be
       -0.07336413 -0.2853275 -0.18855941 -0.20592453
000090 55 10 cc bd bd 2c 90 be 46 c5 37 be 6d 8a 21 3d
       -0.099640526 -0.28159133 -0.17946348 0.039438654
0000a0 45 15 96 3d 7b 9c 94 be 64 88 30 be 0e da 61 be
       0.073282756 -0.29025635 -0.17239529 -0.22055838
0000b0 00 c5 1b be 39 6f 65 be fc ff 1a be a8 9c a5 bd
       -0.15211868 -0.2240571 -0.15136713 -0.080865204
0000c0 63 24 64 be ac 37 a3 bd a4 df 77 3e bc 4a 13 bd
       -0.22279505 -0.07969603 0.24206406 -0.035959944
0000d0 c7 04 2a bd 65 4f 43 bd 44 58 6f bc 9d f2 14 be
       -0.041508462 -0.04768314 -0.0146084465 -0.14545675
0000e0 25 92 fe bd 27 9f 00 be 97 3f 84 be 32 99 55 be
       -0.124302186 -0.12560712 -0.25829765 -0.2085922
0000f0 b3 ac 85 3e d2 6a b2 bc d3 8e 7b 3d 96 a6 65 be
       0.26108322 -0.021779452 0.061415505 -0.22426829
000100 b0 b8 15 be ae 37 74 be f1 67 2e be a3 cc 6b be
       -0.14621234 -0.23849365 -0.17031838 -0.23027281
000110 93 ca 83 be 19 86 b6 bd 56 d2 d1 3d ab ab 02 be
       -0.2574049 -0.08912296 0.102451965 -0.12760799
000120 77 db 8c 3d 9a 2b 77 bd 3a a9 28 3e 4b ce d9 bd
       0.06877797 -0.060344316 0.16470805 -0.106350504
000130 24 b1 03 be 3b 9f d3 bd c8 d0 25 bd 17 15 14 be
       -0.12860543 -0.10333105 -0.040482312 -0.1446117
000140 1a fc 5f bd 43 6f 61 be 91 f2 34 be aa 05 18 be
       -0.054683782 -0.22015099 -0.17670657 -0.1484591
000150 b3 ed 1d bd ee 31 0e be 50 06 db bd 92 68 fd bb
       -0.038556766 -0.13886234 -0.106945634 -0.007733413
000160 1e dd 9a bd a0 ee 33 be 2e 73 7e be 05 08 9b bd
       -0.07561706 -0.17571497 -0.24848625 -0.07569889
000170 f4 cd fd 3d 73 bb 1b 3d f2 7f ed bd 2a 3a 7a 3d
       0.12392798 0.038020562 -0.11596669 0.061090626
000180 c9 55 ad bc 9b 54 d9 3d d0 34 b1 3d 19 43 e1 3d
       -0.02115907 0.1061184 0.08652651 0.10999126
000190 29 f8 f4 bd b7 3f 17 be 07 bb 03 be d1 a8 3c 3d
       -0.11961395 -0.14770399 -0.12864314 0.046059433
0001a0 f6 13 45 3d 6a 2a 80 bb cc ad 58 3e 8b fa 94 bc
       0.04811474 -0.003911306 0.21160048 -0.018185874
0001b0 1f eb 94 3e 29 17 0e 3d 6a 8e e3 be fb 6f 97 be
       0.29085633 0.034690056 -0.4444459 -0.29577622
0001c0 12 9e 2d be 4d 1a 83 be 6b 6f 62 be f6 ed 89 be
       -0.1695483 -0.25606003 -0.22112815 -0.26939362
0001d0 f8 01 b0 be 4a 75 82 be a0 ba cc bd 80 87 78 bd
       -0.34376502 -0.2548011 -0.099965334 -0.060676098
0001e0 98 31 0e 3e fe 70 b7 3d 29 0e c3 bc 3c 8d af 3d
       0.13886106 0.089570984 -0.023810463 0.0857186
0001f0 57 be 84 be aa 28 d5 bd 43 67 07 be 10 f3 12 bd
       -0.25926468 -0.10408147 -0.13222985 -0.035876334
000200 2a 5f b8 3d 87 72 70 3e d8 eb c9 3a 60 8c fe bc
       0.09002526 0.23481189 0.001540537 -0.031072795
000210 32 32 a0 3a 4d 9a 8e bd 3e bb a8 be 42 f4 31 bc
       0.0012221991 -0.06963024 -0.32955354 -0.010861458
000220 4d 4a b8 bd 6e 35 ee bd 39 2d db bd c6 0d cc bd
       -0.08998547 -0.11631285 -0.10701985 -0.099635646
000230 2d 5f c2 3d 0b af f1 bc ef e5 34 bb 84 5c 14 be
       0.094908096 -0.029502412 -0.0027602871 -0.14488417
000240 cb d0 db be a0 6f 89 be 8a ad dc bd 1b cc 16 3e
       -0.42932734 -0.26842976 -0.107752874 0.14726298
000250 52 34 ba bd 9f 96 8d bd 32 d4 0c 3e 8a 06 8e bd
       -0.090920106 -0.06913494 0.13752821 -0.06934841
000260 dc f6 3f bd c1 44 70 be 68 97 81 b7 57 51 31 3d
       -0.046866283 -0.23463728 -1.5448502e-05 0.043290462
000270 0d bf a3 bd 1f fb 8c 3d 01 0b 43 3d 05 07 a6 3d
       -0.079954244 0.06883835 0.047617916 0.081068076
000280 33 2c 90 3d ec 12 28 3e 13 a6 c2 3d e5 c9 f0 bd
       0.0703968 0.16413468 0.095043324 -0.11757258
000290 ee a3 67 be 9e 00 96 3d 69 80 0c bd 57 91 a0 be
       -0.22621128 0.073243365 -0.03430215 -0.31360886
0002a0 19 84 05 bd f1 1f 38 3e 0d 5f 12 be 62 71 56 3d
       -0.03259668 0.17980935 -0.14294071 0.052354224
0002b0 3b 2a df bd 8a 70 5f 3d e8 57 f9 bc ab 49 ae bd
       -0.10896727 0.054550685 -0.030437425 -0.08510145
0002c0 77 f2 18 3d c2 3c 08 be f4 6f 66 bd 8f 63 53 3e
       0.037340607 -0.13304427 -0.05625911 0.20643447
0002d0 47 9f b1 bd eb 69 1a 3e aa c6 04 be 27 e7 c2 bd
       -0.08672958 0.15079467 -0.1296641 -0.09516745
0002e0 ed d3 e1 3d 38 b9 c3 3d fd 78 46 3a 90 db ae bd
       0.1102675 0.09556812 0.0007571129 -0.08537972
0002f0 8c fb 68 bd ca 12 e9 3c 42 f8 71 bc 5e 82 71 3d
       -0.05688052 0.028451342 -0.014768662 0.05896222
000300 55 2a 6a bd 95 c6 62 be 0c 01 45 bd 1e 83 a2 3d
       -0.057169277 -0.22146066 -0.0480967 0.07935165
000310 87 e9 f1 bd ac ca 19 be ad ef 57 bd 68 4c 83 bb
       -0.1181212 -0.1501872 -0.052718807 -0.004006911
000320 14 36 6e 3d 7e 5c 59 3d 5d 80 a9 bb dc ff 8f 3d
       0.05815704 0.053066723 -0.005172773 0.07031223
000330 b5 8c 38 3e 64 fe f5 3d 35 86 5c bd e2 74 3e 3d
       0.18022425 0.12011412 -0.053838927 0.046498187
000340 51 b0 cf 3c 35 0c 18 be ef 75 b2 bd 0d 20 0a be
       0.025352629 -0.14848407 -0.087139 -0.13488789
000350 f0 42 4b 3d 41 ed 81 3d ae 8b af 39 cb 52 b1 bc
       0.049624383 0.06344081 0.0003348267 -0.021645924
000360 95 74 2e bb 2d a8 de 3d 68 9e 0d 3e 19 dc 37 bd
       -0.0026619781 0.10871921 0.13829958 -0.044887636
000370 52 80 86 be 4f 54 13 bd 08 29 76 3e e7 9c e0 3d
       -0.26269776 -0.035969075 0.2403909 0.10967427
000380 82 b3 de bd 7a ba ef 3c 8e e4 d7 3d 17 d6 4b bd
       -0.10874082 0.029263724 0.1054164 -0.04976472
000390 d7 ee 9d 3b 4f f4 fb bd d0 d2 2c be 00 6a 3e 3d
       0.0048197317 -0.123024575 -0.16877294 0.04648781
0003a0 6c 12 03 3e 71 b1 2e be a2 a3 87 bc 9a 96 d3 bd
       0.12799996 -0.17059876 -0.016557518 -0.10331459
0003b0 94 0a 87 bd a6 87 aa 3d ef 53 78 3d 4d cf 0d be
       -0.065938145 0.08326654 0.06062692 -0.1384861
0003c0 82 3b 87 be af 1c 00 3d 51 97 4c bb 20 2f ad bd
       -0.26412588 0.031277355 -0.0031218121 -0.08456254
0003d0 5a 71 b1 3c 25 90 1c be aa d3 96 3c 9b ba d5 3d
       0.021660496 -0.15289362 0.018411476 0.10435983
0003e0 aa c6 a1 3c db 29 8c be c9 a1 3d be 88 f4 06 3e
       0.01974805 -0.27375683 -0.18518747 0.13179219
0003f0 23 c0 9b bd 06 2a d6 3d e6 d5 a6 3c 8e da 20 bd
       -0.076050065 0.10457234 0.020365667 -0.03927093

fc1.bias f4 [10]
000000 89 9f 69 3e fd 8a 99 be 5f 82 bc bc bc 47 9b 3e
       0.22814764 -0.29988852 -0.023011385 0.30328166
000010 77 77 89 3d 52 33 0f 3d 5c b6 bd bd 99 24 45 be
       0.06712239 0.034961052 -0.09263298 -0.19252242
000020 93 00 d6 3c db c1 5d be
       0.02612332 -0.21655981
