myThirdModel.pth (torch, 209771 bytes, 26 tensors)

conv1.weight f4 [12, 3, 5, 5]
00000000: bcd0 a93f e92a 823f ea7d 183f 671a f5bc
00000010: b75c 06bf e885 1a3f 2330 973e eba9 093d
00000020: 9100 81be 686c d9be 5a0a 7c3e 24f4 463e
00000030: b669 003e 564b 7abd cd3d 15be 8de4 9a3e
00000040: 5956 073f b546 273f bd94 fd3e 9248 b63e
00000050: 97ca a13d ef97 023f d035 443f a420 3e3f
00000060: 98d8 333f a6c7 4740 7ce7 4240 729b 3740
00000070: c487 3140 9e28 3640 a2ee 2b40 316a 1440
00000080: b266 0240 6f22 fe3f eda9 0940 b1b2 2440
00000090: 632b 0140 1082 db3f 428b d03f 24aa e83f
000000a0: d5b2 d33f bdb9 883f 9585 5c3f b6ea 493f
000000b0: 44e2 5b3f 73bf c53f 1bd8 903f f822 8a3f
000000c0: d1f0 913f 939e a53f 6673 193f eed2 763f
000000d0: 1d95 543f 06ab 3d3f 38ed 9e3f 9595 8a40
000000e0: a8bd 8c40 2648 8540 1de2 6840 0f00 3840
000000f0: a17a 8040 53ce 6140 7a39 4c40 5eb7 3c40
00000100: 7877 4840 c10c 4540 a2e4 4240 5d99 4a40
00000110: 0285 4540 0620 4c40 7939 1f40 8b1f e73f
00000120: f671 0d40 6667 1240 81e3 1d40 daad e9bf
00000130: 7c19 02c0 5b6a 14c0 56ef 23c0 3829 25c0
00000140: 9391 f2bf 8b8f 02c0 f084 15c0 a0f7 29c0
00000150: 2b53 32c0 d0e7 00c0 d7b9 f8bf 02c0 00c0
00000160: 623b 10c0 1057 20c0 6885 09c0 f08a fdbf
00000170: 431f e3bf 5f4b e5bf d0ac ffbf e45b 0bc0
00000180: b0ca eebf 6aa6 bbbf 2dc4 adbf dd35 babf
00000190: ecd4 01c0 b33d 14c0 0cfa 26c0 896e 37c0
000001a0: 0ea4 36c0 f9bb 07c0 9ef4 17c0 3350 2bc0
000001b0: 977e 40c0 0d36 47c0 4475 12c0 77b9 16c0
000001c0: b0fa 20c0 d17a 32c0 5fb0 40c0 31b4 1fc0
000001d0: 0f7e 1dc0 e44b 1bc0 ee81 22c0 40f1 2ec0
000001e0: d8fc 2bc0 08e2 22c0 26a3 17c0 b31b 19c0
000001f0: 9b98 22c0 f7f2 14c0 ae66 26c0 d243 35c0
00000200: eafc 3fc0 ade1 33c0 a0af 31c0 af00 44c0
00000210: 671a 54c0 c228 63c0 7d79 64c0 bbeb 43c0
00000220: f256 4fc0 9502 59c0 ed0d 65c0 b98b 6bc0
00000230: 6810 51c0 1685 59c0 d779 5bc0 4c25 61c0
00000240: 6ded 66c0 d891 5ec0 3120 62c0 cd92 5fc0
00000250: 7638 63c0 a5be 68c0 79ab 3dc0 550a 66c0
00000260: e345 7ec0 a45f 77c0 9494 73c0 b001 30c0
00000270: 20af 3ec0 4d64 40c0 bb1a 33c0 8f9a 11c0
00000280: b1c4 a6c0 48b2 abc0 dce5 a5c0 f1be 99c0
00000290: d3b9 82c0 c8e9 d2c0 d89c d7c0 3b3e d3c0
000002a0: adfe c9c0 b991 b9c0 6ee0 cec0 a722 d0c0
000002b0: c298 ccc0 bd5c c3c0 3878 b1c0 6947 2ac1
000002c0: f94a 31c1 97c7 39c1 7a2a 41c1 cdbb 4ac1
000002d0: 8e87 17c1 7604 1bc1 b7af 1cc1 7361 1fc1
000002e0: e9b8 21c1 d435 0ec1 2fab 12c1 6846 12c1
000002f0: a1fc 10c1 3d12 0fc1 3d11 2ac1 e4d5 2ec1
00000300: 566c 2dc1 3489 2cc1 24de 25c1 cfa6 3dc1
00000310: 7a73 40c1 45d6 3fc1 1e53 3ec1 493e 38c1
00000320: 0983 0fc1 6e3f 14c1 5541 17c1 38ff 14c1
00000330: 6d6f 0dc1 6a42 00c1 1715 03c1 54ea 01c1
00000340: 2dfe fec0 f7a8 f0c0 7614 bdc0 a0dd c2c0
00000350: 8f8f bac0 1a4d aec0 5836 9dc0 1450 8ec0
00000360: dc7a 92c0 08e2 8cc0 6dd8 83c0 2ca2 66c0
00000370: ed75 85c0 f132 8bc0 ba40 89c0 8f53 80c0
00000380: eeb2 57c0 58df 18c0 7176 04c0 850a c4bf
00000390: 0c2c 8fbf 441c 30bf 9ca4 46c0 4308 2fc0
000003a0: dee1 07c0 a0c9 d4bf bfd0 90bf 1a77 63c0
000003b0: fa18 4bc0 255d 18c0 a109 f2bf dbfe cbbf
000003c0: fb05 40c0 1d35 43c0 e64c 3cc0 26eb 31c0
000003d0: e9b9 20c0 f53b 3cc0 6201 3dc0 fa6e 3cc0
000003e0: cb69 36c0 1988 28c0 0b51 00c0 12d2 e9bf
000003f0: cb0d a1bf 23f0 4dbf e1da c2be 4421 38c0
1.3266826 1.0169345 0.5956713 -0.029919816 -0.5248522 0.60360575 0.29528913 0.033609312
-0.25195745 -0.4246552 0.24613324 0.1942907 0.12540326 -0.061107002 -0.14574356 0.30252495
0.5286613 0.65342265 0.4952754 0.35602242 0.07899969 0.5101308 0.7664461 0.74268556
0.7025237 3.1215606 3.0453787 2.8688626 2.7739115 2.846229 2.68644 2.3189814
2.037518 1.9854258 2.1509964 2.5734065 2.018273 1.7149067 1.6292498 1.8176923
1.653895 1.0681683 0.8614133 0.78873765 0.8589213 1.5449051 1.131595 1.0791922
1.1401616 1.2939018 0.5994171 0.96415603 0.8304003 0.74089086 1.2416143 4.3307595
4.3981514 4.165057 3.6388009 2.8750036 4.0149693 3.528218 3.191008 2.9486918
3.1322918 3.0789034 3.0452046 3.1656106 3.0862432 3.1894546 2.4878829 1.8056501
2.2100806 2.287561 2.4670107 -1.825618 -2.0328054 -2.3189914 -2.561483 -2.5806408
-1.8950676 -2.0400112 -2.3362389 -2.6557388 -2.7863262 -2.0141487 -1.9431714 -2.0117192
-2.2536244 -2.5053139 -2.1487675 -1.9808025 -1.7743915 -1.7913626 -1.9974613 -2.1774836
-1.8655605 -1.466016 -1.3575493 -1.4547688 -2.0286207 -2.3162658 -2.6090117 -2.8661215
-2.853763 -2.120848 -2.3743052 -2.67677 -3.0077264 -3.112674 -2.2884073 -2.3550699
-2.5153008 -2.788746 -3.0107648 -2.495373 -2.460819 -2.426507 -2.5391803 -2.7334747
-2.6873074 -2.5450459 -2.3693328 -2.3923156 -2.5405643 -2.3273294 -2.600017 -2.8322644
-2.9998116 -2.8106492 -2.7763443 -3.0625417 -3.3141115 -3.5493627 -3.569915 -3.0612628
-3.2396817 -3.3907826 -3.578975 -3.680403 -3.2666264 -3.398748 -3.4293115 -3.5179014
-3.6082413 -3.4776516 -3.5332148 -3.493335 -3.550321 -3.636636 -2.9635909 -3.5943806
-3.9730155 -3.8652124 -3.8059435 -2.750103 -2.9794388 -3.0061219 -2.7985065 -2.2750585
-5.21151 -5.365513 -5.184309 -4.8045583 -4.0851836 -6.5910378 -6.737896 -6.6013465
-6.3123384 -5.7990384 -6.464896 -6.50423 -6.393647 -6.1050706 -5.545925 -10.642434
-11.080804 -11.611228 -12.07287 -12.67085 -9.470594 -9.688589 -9.792899 -9.961291
-10.107644 -8.888142 -9.166793 -9.142189 -9.061677 -8.941953 -10.629209 -10.927219
-10.838949 -10.783497 -10.366734 -11.853225 -12.0281925 -11.989812 -11.895292 -11.515206
-8.969491 -9.265486 -9.45345 -9.312309 -8.839704 -8.016214 -8.192649 -8.119709
-7.9685273 -7.5206256 -5.9087477 -6.089554 -5.8300242 -5.446912 -4.9128838 -4.447275
-4.5774975 -4.4025917 -4.120169 -3.6036482 -4.170645 -4.3499684 -4.289151 -4.0102
-3.370296 -2.3886318 -2.069729 -1.531571 -1.1185317 -0.6879313 -3.103797 -2.7348793
-2.1231608 -1.6624031 -1.1313704 -3.5541444 -3.1733994 -2.380685 -1.8909189 -1.5937151
-3.000365 -3.0501168 -2.9421935 -2.7799773 -2.511347 -2.9411595 -2.9532094 -2.9442735
-2.850207 -2.6333067 -2.0049465 -1.8267233 -1.2582334 -0.80444545 -0.38057616 -2.8770304

conv1.bias f4 [12]
00000000: b52a 2cc0 3686 0641 5280 8940 70a2 91c0
00000010: 6879 b740 9354 d13f 33bc 7bc1 aef5 3dc0
00000020: b9d8 62c0 3da7 17c1 ca9a 4f40 bd8d f2c0
-2.6901066 8.407766 4.296914 -4.551079 5.73357 1.6353935 -15.733447 -2.96812
-3.5444777 -9.47833 3.2438226 -7.579802

bn1.weight f4 [12]
00000000: ea14 89bf 4513 0dc0 0e9d c340 8c8d cbbf
00000010: 2f76 10c0 c9f0 6c3f d832 cfbf 375b 8dbf
00000020: b11f c2bf 0e26 91c0 9662 b03f fe2a 6640
-1.0709507 -2.204301 6.1129217 -1.5902572 -2.2572134 0.9255491 -1.6187391 -1.1043462
-1.5165921 -4.5358953 1.3780086 3.596374

bn1.bias f4 [12]
00000000: 06c0 0dc2 e68d 2cc1 d19d b9c1 b49b 67c0
00000010: 5bf6 81c1 7bb4 cec1 5b98 e5c1 02f5 dec1
00000020: a4af 16c2 312b d7c0 41e3 283e 7bd4 8bc1
-35.437523 -10.784643 -23.202059 -3.6188784 -16.24529 -25.838125 -28.699392 -27.869633
-37.671524 -6.7240224 0.1649294 -17.47875

bn1.running_mean f4 [12]
00000000: 64ce 47bd 7885 232f fafc 4d3b 7559 3831
00000010: 3ef6 45b4 4c7a 9934 090e 273d 0aea 5437
00000020: 928c 3a37 4234 13be 50ee 6937 9230 81b1
-0.048780814 1.4872181e-10 0.0031431303 2.6826374e-09 -1.8436637e-07 2.8587453e-07 0.04078487 1.2690676e-05
1.1119193e-05 -0.14375404 1.3943369e-05 -3.759916e-09

bn1.running_var f4 [12]
00000000: 0c1d d43d f6ed ad18 49bf 373a e737 1d26
00000010: a86e 372e 2cca 652d f032 ab3d 4a1f 3e33
00000020: e97e 3e33 69d8 193f a367 2500 877d cd28
0.10357103 4.495973e-24 0.00070093997 5.454608e-16 4.1707665e-11 1.3062034e-11 0.08359325 4.426628e-08
4.4353246e-08 0.6009584 3.435091e-39 2.281401e-14

conv2.weight f4 [12, 12, 5, 5]
00000000: c271 11c0 2fcd 08c0 74cd 14c0 4d0b 61c0
00000010: 1f8a 7fc0 03ee 6bbf 95fd c5bf ca6a 07c0
00000020: eb49 23c0 be7a 4dc0 1477 0dc0 5b35 fcbe
00000030: cd34 41bf 937b bcbe 1664 06c0 7e9c 12c0
00000040: f46c 3dbe ec51 a0be b88c eebf e7a9 08c0
00000050: af02 92bf 09a6 c9bf b4fc 25bf 08cf 01bf
00000060: 0ce2 73bf 4321 da3f abc8 0840 9937 4c40
00000070: e50b 6540 2244 0240 e41f f13f 8763 4b40
00000080: 46a5 9540 0d05 0d41 d77c 8440 45ba 0440
00000090: 9baf 8940 6dd5 0941 dacd 1c41 7ccc 2241
000000a0: 8844 fd3f 1086 9040 c789 2241 1121 3441
000000b0: d804 fb40 0f5d dc3f c683 1840 9709 6140
000000c0: 2486 8c40 1fc0 7f40 ce5a 3241 f25c 3341
000000d0: d84b 3641 1262 2941 052f 2141 a05c 3741
000000e0: b3b5 3941 56f7 3041 0cf4 1f41 016a 1541
000000f0: 7e8f 2941 9468 2141 6ef2 1441 234a 0c41
00000100: fd60 0841 2d1e 2241 c0f9 1741 c0af 0e41
00000110: e00f 0b41 ca18 0b41 c179 2441 8490 1741
00000120: d853 1241 d0b6 0e41 3a6b 1041 ee43 e640
00000130: 0772 e340 d6d0 de40 3cad da40 d911 d940
00000140: 56bc e340 76fa e040 1f9d db40 c06c d640
00000150: f8b2 d540 79aa e140 5396 df40 25c2 da40
00000160: 73c7 d640 485a d640 287c e140 6049 e140
00000170: 5a80 de40 9c95 dc40 bd75 dd40 6d35 e040
00000180: 8b8c e240 7bb6 e340 d0ea e340 02a9 e540
00000190: 7dd9 02bf ad24 11bf cb38 07bf 394f edbe
000001a0: d0d0 28be 5351 22bf d99f 70be 7528 283f
000001b0: 49ed 60bf 303a f8be 91a5 4bbf 9c6f 58be
000001c0: bdfa 3240 6ce2 1b40 33c6 abbf 0e5e 84bf
000001d0: b370 94bf eb13 48bf 2034 90bf 13f7 9fbe
000001e0: bb1b 69bf ddfc 46bf 8155 d8be e6d9 80bd
000001f0: 9cf4 983e e0a5 953c aa44 a83d 6617 313c
00000200: 9e8d 82bd fbdc 203f 43b8 2c3e d15d 8f3e
00000210: 59f6 6e3e 1694 913e 6cfb de3e 96e0 7d3e
00000220: c19c c93e cc72 dc3e 99ff 143f 40a8 4e3f
00000230: 27a5 8b3e 6b09 063f 9c85 2d3f 16fb 6a3f
00000240: 32e9 9a3f a166 093e adf4 073f c37b 5e3f
00000250: 7972 9f3f d904 ca3f 4df5 e7bf f1c1 dabf
00000260: 17f0 b8bf b45a abbf e0dd 8fbf 4f3c 00c0
00000270: 88bd 05c0 e5ee ebbf 0e19 d5bf 56e6 b4bf
00000280: 5ea0 09c0 42b6 21c0 216a 23c0 6511 18c0
00000290: ed3e fdbf d4a8 b5bf 5259 d6bf eb70 d7bf
000002a0: 1aa8 b4bf e251 62bf 7c0c a5bd be49 c1be
000002b0: adf3 efbe 0273 91be 3c32 213e 0f88 aebf
000002c0: 2623 f1bf ac47 05c0 4177 f6bf 6c15 cebf
000002d0: 6516 a1bf eb7e 00c0 482e 13c0 814e 0ac0
000002e0: 8b13 d7bf b57f babf 44d0 06c0 fe0e 2ac0
000002f0: c090 34c0 9863 13c0 3f33 07c0 a1b0 24c0
00000300: ddbe 46c0 ffa5 5ec0 ccf3 4dc0 4e44 56c0
00000310: 0889 79c0 6e31 8cc0 c388 8fc0 9a6d 84c0
00000320: e401 8cc0 15ca 9ac0 bc63 a7c0 9386 a1c0
00000330: 596a a1c0 95ea a5c0 2794 a7c0 a4eb 9fc0
00000340: 5347 9fc0 1a95 9fc0 f6f8 a3c0 3e44 97c0
00000350: 0902 72c0 b0b3 82c0 2c59 99c0 96a0 a6c0
00000360: 2412 afc0 d9ed a0c0 e7fe 9ec0 6bd1 a6c0
00000370: 91e1 b5c0 889e ccc0 804c cac0 c2ca c3c0
00000380: 53f3 c0c0 6b42 bd40 4f8f bd40 325c c540
00000390: 24fe bf40 31e0 b040 88a3 a940 97e3 ac40
000003a0: 35ca b340 678f ac40 0fd1 9940 09e4 9740
000003b0: fe3e 9740 d1a4 9e40 4284 8b40 8350 8740
000003c0: a87d 8440 81da 7f40 b2b8 7d40 2cd7 6f40
000003d0: d54d 7040 1e1a 6040 4e8a 4c40 32d3 4040
000003e0: f397 4640 e8e6 5840 e792 d840 3009 d340
000003f0: 7f6b cc40 b3c2 c740 15a8 c640 c1f9 d440
-2.2725682 -2.1375234 -2.3250399 -3.5163147 -3.9928052 -0.9216005 -1.5468012 -2.115893
-2.5513866 -3.2106166 -2.210393 -0.49259457 -0.7547119 -0.3681303 -2.0998588 -2.2908015
-0.18498594 -0.313125 -1.8636694 -2.13537 -1.1407069 -1.5753795 -0.6483872 -0.5070653
-0.95266795 1.7041401 2.1372478 3.1908934 3.578851 2.0354085 1.8837857 3.1779497
4.676425 8.813733 4.1402392 2.073869 4.302686 8.614606 9.800257 10.174923
1.9786539 4.516365 10.158637 11.258073 7.8443413 1.7215899 2.3830428 3.5162103
4.3913746 3.9961011 11.147169 11.210192 11.393517 10.586443 10.073979 11.460114
11.60686 11.060385 9.997082 9.33838 10.597532 10.088032 9.309187 8.7681
8.523679 10.132367 9.498474 8.917908 8.691376 8.693552 10.279725 9.472782
9.14547 8.919632 9.026178 7.195792 7.1076694 6.9629927 6.833647 6.7834287
7.11674 7.030574 6.86293 6.700775 6.678097 7.0520597 6.9871 6.8361993
6.711847 6.6985207 7.046406 7.040207 6.953168 6.893263 6.9206223 7.0065217
7.079656 7.1160254 7.1224136 7.176881 -0.5111311 -0.5669659 -0.52821034 -0.46349505
-0.16485906 -0.6340534 -0.23498477 0.6568673 -0.8786207 -0.48481894 -0.7954951 -0.21136326
2.7965539 2.4356947 -1.3419861 -1.0341203 -1.1596893 -0.7815539 -1.1265907 -0.3124319
-0.9105794 -0.7772959 -0.42252734 -0.06291561 0.29874122 0.018267572 0.08216222 0.010808801
-0.063746676 0.6283719 0.16867165 0.28001264 0.23336162 0.28433293 0.43551195 0.24792704
0.39377406 0.43056333 0.5820251 0.8072548 0.2727444 0.5235812 0.67781997 0.91789377
1.2102416 0.13418056 0.5310772 0.86907595 1.2456809 1.5782729 -1.8121735 -1.7090436
-1.444827 -1.3387055 -1.1239586 -2.003681 -2.089693 -1.843228 -1.6648271 -1.4132793
-2.150413 -2.5267491 -2.5533526 -2.3760617 -1.9784828 -1.4192147 -1.6746008 -1.6831335
-1.41138 -0.88406193 -0.08059022 -0.37751573 -0.46865597 -0.28408056 0.15741819 -1.3635272
-1.8838851 -2.0824995 -1.9255143 -1.6100287 -1.2584959 -2.0077465 -2.2996998 -2.1610415
-1.6802839 -1.4570223 -2.1064615 -2.657165 -2.8213348 -2.3029537 -2.1125028 -2.5732806
-3.1053994 -3.4788816 -3.2180052 -3.347919 -3.8989887 -4.381034 -4.4854445 -4.138379
-4.375231 -4.837168 -5.2309246 -5.0476775 -5.044232 -5.1848855 -5.236835 -4.9975147
-4.9774566 -4.986951 -5.1241407 -4.7270803 -3.7813742 -4.0844345 -4.7921352 -5.207103
-5.4709644 -5.029034 -4.968616 -5.2130637 -5.683785 -6.394352 -6.3218384 -6.1185007
-6.0297027 5.9143577 5.9237437 6.1675043 5.999773 5.527367 5.3012123 5.402782
5.6184335 5.392505 4.80677 4.7465863 4.7264395 4.957619 4.3598948 4.228578
4.140339 3.9977114 3.964398 3.747508 3.7547505 3.501594 3.1959414 3.0128903
3.1030242 3.3890934 6.7679324 6.5948715 6.388122 6.242517 6.208018 6.6554875

conv2.bias f4 [12]
00000000: d709 0ac0 1d3f 0040 a031 d940 91d2 00c1
00000010: 2067 47c0 b5b0 7640 fce1 1fbf 0117 2241
00000020: dffc f940 dd5c a2bf 4c8e 08c0 741c 37c0
-2.1568506 2.0038521 6.7873077 -8.051408 -3.1156693 3.8545353 -0.624542 10.130616
7.812118 -1.268459 -2.133685 -2.8611116

bn2.weight f4 [12]
00000000: 51e0 1dbf eaab 9bbf 811e 81bf 3bb4 3f40
00000010: 3828 0080 c4b3 43bf 5290 543f 1fd3 4ec0
00000020: 9c7b 3fbf f0c3 bf3e 7615 483f bf10 f53f
-0.61670405 -1.2161839 -1.0087434 2.9953754 -1.4428e-41 -0.76446176 0.83032715 -3.2316358
-0.7479799 0.37454176 0.78157747 1.9145736

bn2.bias f4 [12]
00000000: 44c0 9fc1 feb8 5bc1 5ca3 b6c1 eaf8 e8c0
00000010: 6dd5 49c0 9286 31c1 28fa 8dc1 d7bf 5ec1
00000020: d265 3bc1 3394 ae3e 5e16 42c1 f90a d5c0
-19.96888 -13.732664 -22.829765 -7.280385 -3.1536515 -11.095354 -17.747147 -13.921836
-11.712358 0.34097442 -12.130461 -6.6575894

bn2.running_mean f4 [12]
00000000: c7ec 1ab8 371b 393a 993b 8d3a 53ec 52b5
00000010: 90ac a52d 1ac2 4eb3 16a2 f9b3 d807 74b2
00000020: c3d9 413b d81e adb8 2066 b730 16b1 2937
-3.6936977e-05 0.0007061245 0.0010775208 -7.8574993e-07 1.8834961e-11 -4.8139647e-08 -1.1624449e-07 -1.4204453e-08
0.002957926 -8.255028e-05 1.3344028e-09 1.0114416e-05

bn2.running_var f4 [12]
00000000: fbc4 3533 d323 8535 db79 1436 9a02 271c
00000010: a8bd 181c 0782 d91b d74b 7a24 3b41 6e13
00000020: f2bb 0d38 e66f c029 2222 e511 8837 3a2f
4.23215e-08 9.919698e-07 2.2124648e-06 5.5259027e-22 5.0537706e-22 3.5983667e-22 5.4274347e-17 3.0071984e-27
3.3792057e-05 8.545924e-14 3.6150865e-28 1.693633e-10

conv4.weight f4 [24, 12, 5, 5]
00000000: ca2a 1f40 bb62 1f40 a563 1f40 83f3 1e40
00000010: 9ed1 1e40 1e8a 2140 9b14 2240 0d4f 2240
00000020: b0d4 2140 ce87 2140 b40d 2340 f338 2340
00000030: a5d8 2240 5910 2240 0375 2140 b039 2240
00000040: e2da 2140 aa89 2040 20a7 1f40 22f7 1e40
00000050: a9c8 2040 df52 2040 c4db 1e40 f431 1e40
00000060: 9bb2 1d40 713e fb3f 675f 1140 da7d 5340
00000070: dcdb 5340 540b 5540 a96a f93f d4a2 0b40
00000080: c4b9 5240 6b9e 5140 f4c7 5140 05cf df3f
00000090: eeb6 ed3f 9440 4e40 65cc 4b40 dfec 4a40
000000a0: fb24 d03f 862a d13f 2971 4a40 2f1e 4740
000000b0: c851 4540 b51c c23f 2afc bb3f 61be 4840
000000c0: e511 4540 8d93 4240 c762 7d3e 1ea5 723e
000000d0: 6a62 683e 4f98 5c3e 469b 503e e23e 2c3e
000000e0: 0479 1a3e ddfc 093e 5fa7 f23d 0f24 d33d
000000f0: 411b dc3d b0d8 a53d 7a8e 6e3d dd12 1d3d
00000100: 52f8 ae3c d971 8f3d b076 113d 5735 023c
00000110: e17b 5ebc fdeb f4bc 4ed3 2f3d 7c9a 643b
00000120: 53a3 e0bc 9140 4fbd 15b4 89bd 0826 9a40
00000130: bd7a a840 1b13 b240 1d8a b440 f37a af40
00000140: 295e aa40 8f9f b840 e379 c240 5cc9 c640
00000150: b775 c340 4e05 b740 a6eb c440 57a5 ce40
00000160: 71d3 d440 1344 d540 97e3 bf40 14f6 cb40
00000170: e816 d440 5173 d940 a2bf da40 9c5e ca40
00000180: 727f d340 4204 da40 64a4 de40 630f e040
00000190: 06a6 0000 181d 0000 241d 0080 beac 0000
000001a0: 2d22 0000 6614 0080 1b26 0000 d91f 0080
000001b0: 0519 0000 cc09 0000 935d 0080 f7a6 0080
000001c0: c70e 0080 2209 0000 8aaa 0000 576d 0000
000001d0: c219 0080 1fa8 0080 fd04 0000 031e 0000
000001e0: 1e1d 0000 391c 0080 f526 0080 4522 0000
000001f0: f01c 0000 96dc 5a3d a2ba 0e3d e8f2 803c
00000200: 4708 ddbb dfd3 05bd 10cc 2a3c d9ff 82bc
00000210: a045 2abd 6b44 8cbd 8d62 c5bd 2f0c ebbc
00000220: ba5f 89bd 943f cfbd f843 07be 192d 24be
00000230: 3469 79bd ee5e e3bd 7012 1cbe a8d3 3dbe
00000240: e00d 59be a4b8 a7bd e0f1 0dbe 353e 3cbe
00000250: 4fc7 5ebe 0b31 78be df3e 5440 dd33 4b40
00000260: ff0f 4040 f8eb 3540 2638 2d40 f41c 5940
00000270: e06e 5140 85b4 4740 7450 3f40 23ba 3740
00000280: 0c24 4e40 48c2 4640 66b9 3f40 6bf7 3b40
00000290: b734 3840 846f 2b40 201a 1e40 4360 1440
000002a0: f7d6 1440 037c 1440 a820 0540 7cfe db3f
000002b0: 0013 af3f 9008 be3f 5670 c43f e5e5 3040
000002c0: 27bd 2840 9e48 2140 0bb6 1d40 d301 1b40
000002d0: b8ec 2a40 e2c0 2240 8575 1b40 abef 1640
000002e0: 4e20 1040 711b 2740 68e2 2040 d008 1b40
000002f0: 6f6f 1740 4b03 1040 1f34 2440 3530 2140
00000300: 2f84 1d40 15c0 1940 931d 1040 fd58 2e40
00000310: 9cb7 2d40 6a9b 2c40 42e4 2940 1b13 2440
00000320: a386 113c d5c9 24bc eb17 f1bc 15d5 59bd
00000330: fb97 a6bd df8b 01bd 3f6b 71bd c34d afbd
00000340: b6ca eabd fbe3 14be b332 8fbd 0c53 e0bd
00000350: 2ca9 14be 3ff1 36be d626 57be 14f1 d3bd
00000360: 4599 1ebe b56a 4abe 8e9b 6ebe a679 86be
00000370: e5ae 01be 0a01 3dbe 2d68 6cbe f57e 88be
00000380: 439d 96be 02f1 3340 33c9 3740 3c5b 3b40
00000390: cf02 3d40 f9c5 3e40 f8ab 2640 2864 2b40
000003a0: 63e2 2e40 428f 2f40 8efa 2f40 6647 2140
000003b0: 06af 2340 565b 2540 04e1 2440 2c78 2440
000003c0: 8b59 1e40 e426 1f40 11a0 1f40 19aa 1e40
000003d0: 6265 1e40 6ee1 1e40 8971 1f40 080f 2040
000003e0: fd48 2040 4cf4 2140 4688 bfbf 45d2 babf
000003f0: 7363 afbf b738 a6bf f524 a5bf 8fbe babf
2.4869866 2.490401 2.4904568 2.4836128 2.481544 2.524055 2.5325077 2.5360749
2.5286064 2.5239139 2.5477114 2.550351 2.544473 2.5322478 2.5227668 2.534771
2.5289845 2.5084023 2.4945755 2.4838338 2.5122473 2.505058 2.4821634 2.471799
2.4640262 1.9628431 2.271448 3.3045564 3.3102942 3.3288164 1.9485675 2.1818132
3.2925882 3.275294 3.2778292 1.7485052 1.8571451 3.2226915 3.1843503 3.1707075
1.6261286 1.6341102 3.1631567 3.1112173 3.0831165 1.5165011 1.4686329 3.1366198
3.0792172 3.0402558 0.24744712 0.236958 0.22693792 0.21542476 0.20371732 0.16820863
0.15085226 0.13475366 0.1184833 0.10309612 0.10747386 0.080979705 0.058241345 0.038348068
0.021358643 0.070041366 0.03551358 0.0079472875 -0.01357934 -0.029897684 0.042926125 0.003488212
-0.027421629 -0.050598685 -0.06723801 4.8171425 5.2649827 5.564832 5.6418595 5.4837584
5.323994 5.7694774 6.0773787 6.21208 6.1081195 5.7193975 6.1537657 6.457683
6.6508107 6.66456 5.996532 6.373789 6.627796 6.7953267 6.8358927 6.324049
6.6093073 6.8130198 6.957567 7.0018783 5.9558e-41 1.0437e-41 -1.0454e-41 6.1968e-41
1.226e-41 -7.318e-42 1.367e-41 -1.1425e-41 8.975e-42 3.514e-42 -3.3568e-41 -5.9896e-41
-5.301e-42 3.276e-42 6.1178e-41 3.9224e-41 -9.24e-42 -6.031e-41 1.79e-42 1.0766e-41
1.0445e-41 -1.0124e-41 -1.3975e-41 1.2294e-41 1.0381e-41 0.053433023 0.034845956 0.015740827
-0.0067453715 -0.03267276 0.010424629 -0.015991138 -0.041570306 -0.06848987 -0.09637938 -0.028692333
-0.067077115 -0.101195484 -0.13209522 -0.16032828 -0.060891345 -0.11102091 -0.15241408 -0.18537772
-0.21196699 -0.08189514 -0.13861799 -0.18383105 -0.21755718 -0.24237458 3.3163373 3.1750405
3.0009763 2.8425274 2.706552 3.3923922 3.2723923 3.120393 2.9892855 2.870736
3.2209501 3.105608 2.9956908 2.9369762 2.8782175 2.6786814 2.4703445 2.3183753
2.3256204 2.320069 2.0801182 1.7187037 1.3677673 1.4846363 1.5346782 2.7640316
2.636545 2.5200572 2.464236 2.4219863 2.6706982 2.5430226 2.4290478 2.3583782
2.2519717 2.61105 2.5138187 2.4224129 2.3661764 2.250201 2.5656812 2.5185673
2.4611928 2.4023488 2.251805 2.7241814 2.7143316 2.6969857 2.6545568 2.563666
0.008882198 -0.010057886 -0.02943035 -0.053181726 -0.08134457 -0.031627532 -0.05894017 -0.08559754
-0.11464445 -0.14540093 -0.06992092 -0.1095334 -0.14517659 -0.17865466 -0.21010908 -0.103487164
-0.15488155 -0.19767268 -0.23301527 -0.26264685 -0.12664373 -0.18457428 -0.23086615 -0.2665936
-0.29416856 2.811585 2.8716552 2.9274435 2.9532964 2.9808333 2.6042461 2.677988
2.7325675 2.7431188 2.7496676 2.5199828 2.5575576 2.5836997 2.5762339 2.5698347
2.4742153 2.4867487 2.4941447 2.479132 2.474938 2.4825091 2.4913046 2.5009174
2.5044549 2.5305357 -1.4963462 -1.4595419 -1.3702224 -1.2986058 -1.2901903 -1.4589404

conv4.bias f4 [24]
00000000: a23c 5b40 3492 1e40 3a49 82bf f468 dcc0
00000010: 6165 ffc0 f21d 3dc1 2038 21b5 fed8 b13f
00000020: f644 4541 a7ee 3240 2886 8140 43c0 5fc0
00000030: 5527 dbbf 94cf 36c1 5f27 d73f 0c8b e2c0
00000040: 2c0c 54c0 14a3 3541 7828 28c1 ee5d fbc0
00000050: 12e4 6340 1bea 07c1 ed45 a5c0 da7c fb40
3.4255757 2.4776735 -1.0178597 -6.8878117 -7.9811254 -11.819811 -6.0058846e-07 1.3894346
12.329336 2.7958162 4.0476265 -3.4961097 -1.7121378 -11.425678 1.680889 -7.0794735
-3.313243 11.352314 -10.50988 -7.855216 3.5607953 -8.494655 -5.164786 7.8589907

bn4.weight f4 [24]
00000000: 9617 2bc0 11c5 fcbf 947d d540 5b79 3640
00000010: 7919 a63f 2101 f33f 4879 0000 b074 ee3e
00000020: bcf9 0441 cdb0 32c0 aff1 dd3f 47f4 27bf
00000030: ff47 3540 f887 943e 7c52 15c0 e598 e33f
00000040: 8700 f13f ea68 2ec0 f6e1 0b40 74e6 abbe
00000050: e086 d1bf fefb 4840 6491 54c0 b60e 8c40
-2.6733146 -1.974764 6.6715794 2.851157 1.2976524 1.898472 4.3508e-41 0.465734
8.31097 -2.792041 1.7339381 -0.6560711 2.8325193 0.29009986 -2.3331594 1.7781035
1.8828286 -2.7251534 2.1856666 -0.3357426 -1.6369286 3.1403804 -3.321374 4.376796

bn4.bias f4 [24]
00000000: 3397 26c1 a1cb 01c1 2bdd 69c0 763c a8c0
00000010: f21b 88be c3a1 af40 49a9 0080 a5c7 94c1
00000020: f9ed b840 09a7 a5c1 538d b2c1 a933 f3bf
00000030: fd26 6fc0 43ac b440 e60f eac0 804b 1abc
00000040: 169e 69c1 d178 c8c1 1bb8 863f 0557 1141
00000050: 25d2 dec0 480d edc0 b7cd b040 2d8d bd40
-10.411914 -8.112214 -3.654124 -5.2573805 -0.2658382 5.4884963 -6.0728e-41 -18.597483
5.7790494 -20.70656 -22.319006 -1.900014 -3.7367547 5.646028 -7.3144407 -0.009417415
-14.601095 -25.058992 1.0524935 9.083745 -6.9631524 -7.4078712 5.5251117 5.9234834

bn4.running_mean f4 [24]
00000000: 5017 59ab be39 e035 56f0 93ab f29f 43ac
00000010: 53c3 173a 081f 0937 c50d e7a8 4f39 8c31
00000020: 55aa a5b1 b8ed 8ab7 7974 f834 ff4c d9b9
00000030: 93c8 56a7 2436 eaad 4ea4 612f d28f 6e2a
00000040: fa37 97b0 6025 3229 12af 33ba 68f3 acae
00000050: 868f d7ad 0646 bab5 c3a5 1333 9c42 04ad
-7.712624e-13 1.6706106e-06 -1.0511685e-12 -2.7799954e-12 0.00057892984 8.173061e-06 -2.5652123e-14 4.0810515e-09
-4.8214965e-09 -1.6561578e-05 4.6278345e-07 -0.00041446832 -2.9807197e-15 -2.6626763e-11 2.0522004e-10 2.1188544e-13
-1.1002605e-09 3.9556357e-14 -0.00068543956 -7.864892e-11 -2.4506407e-11 -1.3878459e-06 3.4376864e-08 -7.5181215e-12

bn4.running_var f4 [24]
00000000: 1acd 1a03 c7c0 dd07 cee6 870d 1e8e e610
00000010: e4ea 5b08 40d1 d80e 0400 0000 2f83 ef16
00000020: 0400 0000 0400 0000 22df 9f11 bf0e 3519
00000030: 6f43 0600 9bee 0916 c98d c208 620c f70d
00000040: 0400 0000 df2c 0000 d188 e607 6c0b 5903
00000050: 0400 0000 7692 a204 0400 0000 a7fa 560c
4.5491978e-37 3.3365689e-34 8.375582e-31 9.093797e-29 6.617903e-34 5.344961e-30 6e-45 3.869532e-25
6e-45 6e-45 2.5223293e-28 9.360459e-24 5.75204e-40 1.1142062e-25 1.1709284e-33 1.5225531e-30
6e-45 1.6097e-41 3.4686967e-34 6.378368e-37 6e-45 3.822052e-36 6e-45 1.6561388e-31

conv5.weight f4 [24, 24, 5, 5]
00000000: 6e8a 5fc0 9e8a 5fc0 a48a 5fc0 8e8a 5fc0
00000010: fe0f 37c0 3eaa 32c0 ade0 30c0 dc83 30c0
00000020: 558f 30c0 5a90 30c0 0a50 31c0 81f7 2ec0
00000030: 9a74 2ec0 6f85 2ec0 fca1 2ec0 e9dd 30c0
00000040: 9952 2ec0 70b1 2dc0 7bc7 2dc0 5924 2ec0
00000050: 9ce1 2fc0 25cd 2cc0 45f3 2bc0 ecfa 2bc0
00000060: e769 2cc0 1822 0080 0811 0000 8b22 0080
00000070: 8d2e 0080 3e22 0080 9c15 0080 ea09 0080
00000080: 1229 0000 8e11 0080 6683 0000 a01d 0000
00000090: 090e 0080 8fa3 0080 60ad 0000 901c 0000
000000a0: ab4a 0000 96ad 0000 e2ad 0080 4d0c 0080
000000b0: 1a22 0000 0136 0080 4325 0000 a70b 0080
000000c0: 5424 0000 ab1b 0000 ab29 0080 b623 0080
000000d0: 8c2f 0080 4527 0080 dc14 0080 8d23 0080
000000e0: 8129 0080 cf27 0080 ae29 0080 68a7 0000
000000f0: 6048 0000 b51d 0000 ad04 0080 daa4 0000
00000100: 9c1a 0000 18a2 0000 8eaa 0000 6aa6 0000
00000110: 5aa5 0000 b4ac 0000 8103 0080 19a5 0000
00000120: 6fa8 0000 661f 0000 e094 0000 8ead 0080
00000130: 5ead 0080 67ae 0080 b22f 0080 712f 0080
00000140: e178 0080 b5a3 0080 cdab 0080 824c 0080
00000150: ddae 0080 81a6 0080 6728 0080 2621 0080
00000160: ef09 0000 aa47 0000 fba1 0000 a029 0080
00000170: 0619 0000 414a 0000 dfa3 0000 fd2b 0000
00000180: c2a2 0080 dc5b 0000 faa7 0000 bc08 0080
00000190: 738a 5fc0 a38a 5fc0 ab8a 5fc0 938a 5fc0
000001a0: 0410 37c0 8d7f 40c0 9e13 3ec0 2e3b 3dc0
000001b0: 84f5 3cc0 51fc 3cc0 8592 41c0 2796 3ec0
000001c0: 7b9d 3dc0 646c 3dc0 36a9 3dc0 7626 40c0
000001d0: e00d 3dc0 a81a 3cc0 0116 3cc0 b3a8 3cc0
000001e0: 1865 3fc0 6ed3 3bc0 30c2 3ac0 cecf 3ac0
000001f0: a08a 3bc0 ce1d 0000 a1a6 0000 ef28 0000
00000200: 80a8 0000 52a7 0080 2613 0080 f1a6 0080
00000210: 47a2 0080 3e02 0080 200f 0080 8001 0080
00000220: f2a6 0000 8ea8 0080 a9af 0000 7f20 0080
00000230: ff0a 0080 b8a3 0080 0a06 0080 faa4 0000
00000240: d3a7 0000 e711 0080 829e 0000 a500 0080
00000250: 6206 0080 ff9e 0000 3822 0080 c22a 0000
00000260: 2f2e 0000 bc2e 0000 ab24 0000 9275 0080
00000270: 3729 0000 5125 0000 4925 0000 862f 0000
00000280: 6faa 0080 4b26 0000 a52e 0000 4a21 0000
00000290: cf2e 0000 daa1 0000 0e1e 0080 88af 0080
000002a0: dc1f 0080 ab35 0080 70a6 0000 eda6 0080
000002b0: 8324 0080 ea99 0000 7aaf 0080 1621 0080
000002c0: 5e27 0080 5021 0080 925a 0000 9924 0000
000002d0: 6019 0000 d22e 0080 325b 0000 46a8 0000
000002e0: 53ac 0000 e343 0000 3581 0000 3cab 0000
000002f0: 9a28 0000 7222 0000 5416 0080 6f1d 0000
00000300: a1a2 0000 cf22 0000 5904 0080 06a3 0080
00000310: 6b99 0000 5e98 0000 4e69 0000 417b 0000
00000320: 738a 5fc0 a48a 5fc0 ab8a 5fc0 938a 5fc0
00000330: 0510 37c0 3170 40c0 7a05 3ec0 662d 3dc0
00000340: d1e7 3cc0 95ee 3cc0 fc84 41c0 6789 3ec0
00000350: b890 3dc0 4f5f 3dc0 b99b 3dc0 751a 40c0
00000360: a702 3dc0 2f0f 3cc0 ec09 3cc0 fb9b 3cc0
00000370: 5c59 3fc0 b1c8 3bc0 20b7 3ac0 f2c3 3ac0
00000380: 037e 3bc0 a213 0080 0945 0000 68a5 0080
00000390: 2c48 0000 7d27 0080 b822 0000 8aa9 0000
000003a0: f528 0080 5f54 0000 e21e 0000 d1a6 0080
000003b0: df25 0000 8650 0080 8119 0000 9703 0080
000003c0: cc01 0000 1024 0080 4b1f 0080 bfa5 0000
000003d0: 2451 0080 8e0d 0000 6aa2 0000 5444 0000
000003e0: b732 0080 390b 0080 5704 0080 262e 0080
000003f0: 6227 0080 4aa3 0080 67a2 0080 f625 0080
-3.492824 -3.4928355 -3.492837 -3.4928317 -2.860351 -2.7916408 -2.7637131 -2.758048
-2.7587483 -2.7588105 -2.7705102 -2.7338564 -2.7258668 -2.7268941 -2.7286367 -2.7635443
-2.7237914 -2.713955 -2.7153003 -2.7209685 -2.748145 -2.700021 -2.686723 -2.68719
-2.6939638 -1.223e-41 6.11e-42 -1.2392e-41 -1.6699e-41 -1.2284e-41 -7.752e-42 -3.556e-42
1.4733e-41 -6.297e-42 4.7137e-41 1.0627e-41 -5.035e-42 -5.8674e-41 6.2195e-41 1.0246e-41
2.6786e-41 6.2271e-41 -6.2377e-41 -4.413e-42 1.2233e-41 -1.9373e-41 1.3367e-41 -4.18e-42
1.3032e-41 9.925e-42 -1.4948e-41 -1.281e-41 -1.7057e-41 -1.4087e-41 -7.483e-42 -1.2753e-41
-1.4889e-41 -1.428e-41 -1.4952e-41 6.0054e-41 2.5963e-41 1.0657e-41 -1.677e-42 5.9138e-41
9.546e-42 5.8148e-41 6.1183e-41 5.9698e-41 5.9317e-41 6.1954e-41 -1.257e-42 5.9226e-41
6.0423e-41 1.1264e-41 5.3406e-41 -6.226e-41 -6.2192e-41 -6.2564e-41 -1.711e-41 -1.7019e-41
-4.3363e-41 -5.8727e-41 -6.163e-41 -2.7446e-41 -6.2729e-41 -5.973e-41 -1.4494e-41 -1.1891e-41
3.564e-42 2.5708e-41 5.8108e-41 -1.4932e-41 8.977e-42 2.6637e-41 5.8786e-41 1.578e-41
-5.8387e-41 3.2953e-41 6.0259e-41 -3.133e-42 -3.4928253 -3.4928367 -3.4928386 -3.492833
-2.8603525 -3.007785 -2.9699473 -2.956737 -2.952485 -2.9529002 -3.0245678 -2.9779146
-2.9627368 -2.9597406 -2.9634528 -3.0023475 -2.9539719 -2.939127 -2.938843 -2.9477966
-2.9905453 -2.9347796 -2.9181023 -2.9189334 -2.930336 1.0692e-41 5.9775e-41 1.4684e-41
6.0446e-41 -6.0023e-41 -6.869e-42 -5.9887e-41 -5.8214e-41 -8.04e-43 -5.426e-42 -5.38e-43
5.9889e-41 -6.0466e-41 6.3015e-41 -1.1657e-41 -3.945e-42 -5.8731e-41 -2.166e-42 5.9182e-41
6.0204e-41 -6.422e-42 5.6862e-41 -2.31e-43 -2.29e-42 5.7037e-41 -1.2275e-41 1.5339e-41
1.6568e-41 1.6765e-41 1.3154e-41 -4.2176e-41 1.4785e-41 1.3387e-41 1.3375e-41 1.7048e-41
-6.114e-41 1.3737e-41 1.6733e-41 1.1942e-41 1.6792e-41 5.8061e-41 -1.0782e-41 -6.2969e-41
-1.1429e-41 -1.9252e-41 5.9707e-41 -5.9882e-41 -1.3098e-41 5.5214e-41 -6.2949e-41 -1.1869e-41
-1.4122e-41 -1.195e-41 3.249e-41 1.3129e-41 9.103e-42 -1.6796e-41 3.2715e-41 6.0365e-41
6.1818e-41 2.4353e-41 4.6351e-41 6.1427e-41 1.4565e-41 1.2357e-41 -8.01e-42 1.0559e-41
5.834e-41 1.2487e-41 -1.56e-42 -5.8482e-41 5.5036e-41 5.4659e-41 3.7776e-41 4.4215e-41
-3.4928253 -3.492837 -3.4928386 -3.492833 -2.8603528 -3.0068476 -2.9690843 -2.955896
-2.951649 -2.952062 -3.0237417 -2.9771364 -2.961958 -2.9589422 -2.9626296 -3.0016148
-2.953287 -2.9384267 -2.9381056 -2.9470203 -2.989829 -2.9341242 -2.917427 -2.9182096
-2.9295661 -7.043e-42 2.4765e-41 -5.9337e-41 2.589e-41 -1.4166e-41 1.2455e-41 6.0819e-41
-1.4693e-41 3.0267e-41 1.1079e-41 -5.9842e-41 1.3586e-41 -2.8886e-41 9.149e-42 -1.288e-42
6.45e-43 -1.2937e-41 -1.1226e-41 5.9458e-41 -2.9108e-41 4.863e-42 5.8263e-41 2.4512e-41
-1.8193e-41 -4.026e-42 -1.557e-42 -1.6555e-41 -1.4128e-41 -5.8577e-41 -5.8259e-41 -1.3618e-41

conv5.bias f4 [24]
00000000: 925f c1b9 f810 aac0 d7a6 7ec0 a08c 42c0
00000010: e759 b2c0 3cdd 1a40 1fe0 a512 5530 0080
00000020: b0ae 45c0 0884 42bf 0951 d240 8984 0ec0
00000030: 4cf8 09b0 df83 a040 3ef3 3fc0 b4a8 0000
00000040: 9872 5141 a460 9e40 e7dd dfc0 213f e13f
00000050: f3e1 42c0 82a8 bbbe 5a9f 0f40 88ab b540
-0.00036883034 -5.3145714 -3.978933 -3.039833 -5.5734744 2.419753 1.0468214e-27 -1.7338e-41
-3.088787 -0.75982714 6.572392 -2.2268393 -5.019316e-10 5.0160975 -2.9992213 6.0519e-41
13.090477 4.949297 -6.9958377 1.759739 -3.0450408 -0.36652 2.244101 5.677189

bn5.weight f4 [24]
00000000: 17af 643e 370a 3240 deea 8a3c 08d5 70bc
00000010: acf8 4c3f 7c9e fd3d fdc7 b5be 0482 49c0
00000020: 423d 1d3e a132 103f 488c 4ac0 387e 353c
00000030: a8a4 c23f 7a15 f8bf 91ce 1d3e e4fd 3db7
00000040: 4167 36c0 74ff c8bd 19ae 4b3d b7f6 2cbf
00000050: b831 0140 9ae8 a13e 4bde 37c0 7050 54bf
0.22332416 2.7818735 0.016957697 -0.014699228 0.80066943 0.12383744 -0.3550414 -3.1485605
0.15355399 0.56327254 -3.164812 0.011077456 1.5206499 -1.9381554 0.1541083 -1.1324391e-05
-2.850052 -0.09814349 0.04972658 -0.67563957 2.0186596 0.31622773 -2.8729427 -0.8293524

bn5.bias f4 [24]
00000000: bd0c 0000 0d01 0000 e7f3 5cc0 e142 3fc0
00000010: a4e7 b1c0 8253 1cc0 0b1a 0000 d12b 0000
00000020: 2221 3cc0 230e 0000 8a48 c5c0 8982 0ec0
00000030: 9732 0080 e31d 0080 4071 56c0 8910 0080
00000040: 8961 7dc0 5321 15c1 d644 b9c0 544d 0080
00000050: db19 69a9 7824 0000 4204 a8c0 1c5f 9cc0
4.57e-42 3.77e-43 -3.4523866 -2.988457 -5.5595264 -2.442597 9.342e-42 1.5718e-41
-2.9395223 5.071e-42 -6.165105 -2.2267172 -1.8148e-41 -1.0721e-41 -3.3506622 -5.932e-42
-3.959078 -9.320636 -5.789653 -2.774e-41 -5.175882e-14 1.3083e-41 -5.2505198 -4.88661

bn5.running_mean f4 [24]
00000000: c535 8f29 74eb 4831 e240 65b1 1bcd 352a
00000010: fc66 4ead f4b9 452e 83f4 a232 0435 27b3
00000020: 5217 dbb0 1429 6130 f84a e7b1 7544 8e2a
00000030: 423a c8ad a834 2fae c557 14ae 14c2 a1b9
00000040: e601 e739 3a86 34b6 d59f 14b8 0c09 88ad
00000050: c7f9 ffb9 bb3b f6ad 0d91 26a6 c5fe 8831
6.359803e-14 2.923767e-09 -3.3360767e-09 1.614719e-13 -1.1732611e-11 4.4957774e-11 1.8970473e-08 -3.8930935e-08
-1.5940975e-09 8.19129e-10 -6.731508e-09 2.527177e-13 -2.276324e-11 -3.983716e-11 -3.372926e-11 -0.00030852912
0.00044061168 -2.690022e-06 -3.5434805e-05 -1.5465428e-11 -0.0004882349 -2.7993488e-11 -5.77894e-16 3.987085e-09

bn5.running_var f4 [24]
00000000: c1a5 0700 0400 0000 0400 0000 e25f 0a00
00000010: 61ea 0100 b663 0700 0400 0000 0400 0000
00000020: 0400 0000 0400 0000 0400 0000 0400 0000
00000030: 4deb b807 0400 0000 eb0e 3612 0400 0000
00000040: b53b e506 0400 0000 7201 0405 0400 0000
00000050: efb8 1000 0400 0000 0400 0000 0c00 0000
7.0231e-40 6e-45 6e-45 9.52751e-40 1.75915e-40 6.78618e-40 6e-45 6e-45
6e-45 6e-45 6e-45 6e-45 2.782354e-34 6e-45 5.744746e-28 6e-45
8.622796e-35 6e-45 6.2068756e-36 6e-45 1.53571e-39 6e-45 6e-45 1.7e-44

fc1.weight f4 [10, 2400]
00000000: a1b7 4740 11c1 4340 ee88 4d40 1f4d 4b40
00000010: 1f4d 4b40 1f4d 4b40 1c4d 4b40 1d4d 4b40
00000020: 1d4d 4b40 2f1e 4940 1d4d 4b40 1d4d 4b40
00000030: 1d4d 4b40 1d4d 4b40 1d4d 4b40 1f4d 4b40
00000040: 1d4d 4b40 1e4d 4b40 1e4d 4b40 1e4d 4b40
00000050: 1e4d 4b40 1e4d 4b40 1f4d 4b40 1d4d 4b40
00000060: 1f4d 4b40 1e4d 4b40 1d4d 4b40 204d 4b40
00000070: 1e4d 4b40 1e4d 4b40 1d4d 4b40 1f4d 4b40
00000080: 1e4d 4b40 1f4d 4b40 1e4d 4b40 1e4d 4b40
00000090: 1d4d 4b40 1e4d 4b40 1f4d 4b40 1f4d 4b40
000000a0: 1f4d 4b40 1f4d 4b40 1f4d 4b40 1e4d 4b40
000000b0: 1d4d 4b40 1d4d 4b40 1f4d 4b40 204d 4b40
000000c0: 1d4d 4b40 1f4d 4b40 1d4d 4b40 1e4d 4b40
000000d0: 1f4d 4b40 1d4d 4b40 1e4d 4b40 1f4d 4b40
000000e0: 1e4d 4b40 1d4d 4b40 204d 4b40 1f4d 4b40
000000f0: 1f4d 4b40 1d4d 4b40 1d4d 4b40 1f4d 4b40
00000100: 1d4d 4b40 1f4d 4b40 1d4d 4b40 1e4d 4b40
00000110: 1d4d 4b40 1e4d 4b40 1f4d 4b40 1f4d 4b40
00000120: 1e4d 4b40 1f4d 4b40 1e4d 4b40 1e4d 4b40
00000130: 1f4d 4b40 1f4d 4b40 204d 4b40 1e4d 4b40
00000140: 1f4d 4b40 1d4d 4b40 1d4d 4b40 1c4d 4b40
00000150: 1f4d 4b40 1e4d 4b40 1d4d 4b40 1e4d 4b40
00000160: 1d4d 4b40 1f4d 4b40 1d4d 4b40 1e4d 4b40
00000170: 1f4d 4b40 1e4d 4b40 1f4d 4b40 1e4d 4b40
00000180: 1d4d 4b40 1e4d 4b40 1d4d 4b40 1c4d 4b40
00000190: a9dd 4b40 3de4 4b40 89e3 4b40 88e1 4b40
000001a0: f5e3 4b40 95e5 4b40 06e5 4b40 35e5 4b40
000001b0: cbe5 4b40 3de3 4b40 b7c6 4b40 e5da 4b40
000001c0: 7dd5 4b40 dddb 4b40 2be0 4b40 f0db 4b40
000001d0: 91d8 4b40 25dd 4b40 3ed3 4b40 1443 5240
000001e0: 3cbf 4b40 83dc 4b40 a2dd 4b40 d7dc 4b40
000001f0: 4cd2 4b40 89d4 4b40 abc3 4b40 2396 4b40
00000200: cbad 4b40 f8c0 8440 40cd 4b40 e0df 4b40
00000210: b1e4 4b40 eae2 4b40 cad0 4b40 63c2 4b40
00000220: a983 4b40 c673 4b40 3e87 4b40 bf9c 9840
00000230: dbaf 4b40 e1d0 4b40 ccc9 4b40 6ab4 4b40
00000240: 4968 4b40 cb2d 4b40 d94a 4b40 f9b3 4b40
00000250: df85 4b40 2841 9640 79a1 4b40 e3c4 4b40
00000260: 08b3 4b40 a0ad 4b40 4b39 4b40 e735 4b40
00000270: 1357 4b40 1567 4b40 092a 7840 0e96 8f40
00000280: 27b3 4b40 96c3 4b40 20bf 4b40 f7b0 4b40
00000290: cd46 4b40 eb3f 4b40 444c 4b40 3f72 4b40
000002a0: bb7e 9940 4af1 8b40 dccf 4b40 55da 4b40
000002b0: dfd3 4b40 07cd 4b40 d1b1 4b40 4188 4b40
000002c0: 60bc 4b40 09be 4b40 5660 9540 db73 8a40
000002d0: 85df 4b40 5de5 4b40 a4d8 5640 35e4 4b40
000002e0: bfd7 4b40 65c8 4b40 91ce 4b40 aecd 8640
000002f0: 1f83 9240 c042 8a40 efdf 4b40 2be5 4b40
00000300: 5087 9940 a46c 9740 9ce3 4b40 c5de 4b40
00000310: 4be2 4b40 b538 9940 377f 8f40 2a6c 8940
00000320: ce9a 5940 2f3a 5b40 a20d 5b40 7b65 5440
00000330: 95c9 4a40 ad9c 4140 005b 3740 a64b 3040
00000340: 60fc 3f40 2ee9 5140 fd58 5c40 d8ba 5d40
00000350: fa17 5f40 07df 5840 29f7 4b40 6f72 4240
00000360: 62aa 3740 a14b 2f40 f45d 3c40 ded8 5240
00000370: 2974 6340 2ddf 6840 e3f8 6a40 1efb 6840
00000380: c00c 5f40 f26e 4b40 7b4c 3c40 8ebb 3040
00000390: d2c5 3b40 84bb 5440 7d77 6b40 26c1 7140
000003a0: 41ac 7540 ce14 7640 8528 6f40 6df6 5c40
000003b0: 66dc 4440 bb18 3240 12a7 3b40 66e8 5640
000003c0: a9c5 6e40 8b23 7640 6801 7d40 3e04 8040
000003d0: 208c 7b40 05e3 6c40 93c7 5740 7b78 4540
000003e0: ccbb 3e40 f25d 5940 43b0 7240 26f4 7740
000003f0: 2aaa 7f40 d47b 8240 0488 8140 6ce0 7740
3.1205828 3.0586588 3.2114825 3.176582 3.176582 3.176582 3.1765814 3.1765816
3.1765816 3.1424673 3.1765816 3.1765816 3.1765816 3.1765816 3.1765816 3.176582
3.1765816 3.1765819 3.1765819 3.1765819 3.1765819 3.1765819 3.176582 3.1765816
3.176582 3.1765819 3.1765816 3.1765823 3.1765819 3.1765819 3.1765816 3.176582
3.1765819 3.176582 3.1765819 3.1765819 3.1765816 3.1765819 3.176582 3.176582
3.176582 3.176582 3.176582 3.1765819 3.1765816 3.1765816 3.176582 3.1765823
3.1765816 3.176582 3.1765816 3.1765819 3.176582 3.1765816 3.1765819 3.176582
3.1765819 3.1765816 3.1765823 3.176582 3.176582 3.1765816 3.1765816 3.176582
3.1765816 3.176582 3.1765816 3.1765819 3.1765816 3.1765819 3.176582 3.176582
3.1765819 3.176582 3.1765819 3.1765819 3.176582 3.176582 3.1765823 3.1765819
3.176582 3.1765816 3.1765816 3.1765814 3.176582 3.1765819 3.1765816 3.1765819
3.1765816 3.176582 3.1765816 3.1765819 3.176582 3.1765819 3.176582 3.1765819
3.1765816 3.1765819 3.1765816 3.1765814 3.185404 3.1858056 3.1857626 3.1856403
3.1857884 3.1858876 3.1858535 3.1858647 3.1859004 3.1857445 3.1840036 3.1852353
3.1849053 3.1852944 3.1855571 3.185299 3.1850932 3.1853726 3.1847682 3.2853441
3.183547 3.185334 3.1854024 3.185354 3.1847105 3.184847 3.1838176 3.1810386
3.1824825 4.1485558 3.1844025 3.1855392 3.1858332 3.1857247 3.1846185 3.1837394
3.179911 3.1789412 3.1801295 4.769134 3.1826084 3.184624 3.1841917 3.1828866
3.17824 3.17467 3.1764433 3.1828597 3.1800458 4.6954536 3.1817305 3.183892
3.1828022 3.1824722 3.175372 3.175165 3.1771896 3.1781666 3.8775656 4.487067
3.1828096 3.1838126 3.1835403 3.182676 3.1761963 3.1757762 3.17653 3.178848
4.79672 4.373204 3.1845617 3.185201 3.1848066 3.1843889 3.182728 3.1801913
3.1833725 3.1834738 4.6680098 4.3266425 3.1855175 3.1858742 3.3569727 3.1858037
3.185043 3.184106 3.1844828 4.2126074 4.578506 4.320648 3.1855428 3.1858623
4.7977676 4.732012 3.1857672 3.1854718 3.1856868 4.7881722 4.484279 4.2944536
3.4000735 3.4254262 3.422707 3.3186939 3.1685536 3.0251877 2.8649292 2.7546172
2.9997787 3.2798572 3.4429314 3.464529 3.4858384 3.3886125 3.1869605 3.0382345
2.8697743 2.738991 2.9432344 3.2944865 3.5539649 3.6386216 3.6714408 3.640327
3.4851532 3.1786466 2.942168 2.7614474 2.933949 3.323945 3.679168 3.7774138
3.8386385 3.8450198 3.736848 3.4525406 3.075952 2.7827594 2.9320722 3.3579345
3.7308142 3.8459194 3.9532108 4.000518 3.9304276 3.7013562 3.371556 3.0854785
2.9802122 3.396359 3.7920082 3.8742766 3.994761 4.0776157 4.0478535 3.8730726

fc1.bias f4 [10]
00000000: ba60 edbb 906a 3cbe f6dd 193e 187f 73be
00000010: 3967 193f ba93 a1bd a08a 9f3d 1c0b 7dbe
00000020: b4ec d4bd a359 793e
-0.0072441967 -0.18400025 0.15026078 -0.23778951 0.5992313 -0.07889505 0.077901125 -0.24711269
-0.1039671 0.243506
